A5/modelset/a3c/a3c_actor_critic.pt (torch, 277657 bytes, 11 tensors)

actor.0.weight f4 [256, 3]
0.100449406 -0.1187524 0.018047864 -0.03471111 -0.05246511 -0.14137235 0.07259177 -0.13183375
-0.122842856 0.026036173 -0.02671979 0.024397397 -0.12504682 0.14653315 0.0802194 -0.052555487
-0.021702886 0.043171477 -0.047595285 0.06371229 0.057977203 -0.092462204 0.056895852 -0.0014553396
-0.024867203 0.059884697 0.095063835 -0.058732163 -0.09791959 -0.10931415 0.087412804 -0.009433635
0.08029055 -0.0059642796 -0.13693327 0.06829175 0.13897236 0.04399435 0.043705694 0.095832564
0.009913038 -0.0020010602 0.101847306 -0.08978005 0.062051848 0.013878471 -0.13875082 -0.047459822
-0.119889036 -0.11874824 0.052400883 0.14217912 -0.013220875 -0.027461939 0.11675251 0.13492222
-0.07010735 -0.10999873 0.02405039 -0.13916384 0.13081948 0.048671287 0.07368372 -0.13250814
0.060171735 0.12707482 -0.1480481 0.07455396 0.10684033 0.007948358 0.043594237 -0.1383254
-0.071846694 -0.14480162 -0.010047105 0.08335823 0.05473369 -0.14955226 -0.050499834 0.10486273
0.13144286 -0.091703415 0.027137086 -0.013390885 0.035855316 -0.012238951 0.12857917 -0.08804337
-0.07506724 0.1194384 -0.07902848 0.08792378 -0.0090148505 -0.14157826 -0.04648991 0.100186355
-0.1167325 -0.046645805 0.019325681 0.076356106 -0.008692793 0.14152315 -0.1045756 -0.15079601
0.039693322 0.06324459 0.09559896 -0.093638375 -0.08987547 -0.02034489 -0.11283124 0.10463983
0.010097945 -0.0047610346 0.07902438 0.00029083205 0.0172161 0.020631332 -0.012943233 -0.01595189
-0.1475122 0.07791543 0.10065342 0.11556504 0.14809836 -0.12722692 0.12570395 -0.0011874962
0.12992577 -0.108813666 0.057897024 -0.07663275 0.12537739 0.1517902 0.07432906 0.06022096
0.039612852 -0.13702905 -0.049260028 0.009080115 0.00735597 -0.066213384 -0.0006338647 0.1229956
0.034453683 -0.1087791 0.06803235 0.07878314 0.07811204 -0.14022447 -0.062136162 0.07274789
0.054218523 0.14055936 0.018555645 0.13215847 -0.006560441 -0.14233813 0.06476258 -0.031815454
0.06761928 -0.0826542 -0.06706427 0.12899292 0.06198194 -0.08578362 -0.09049353 -0.15183333
-0.049981836 -0.07127951 -0.05267045 0.13983224 0.097489685 -0.080709495 0.14164387 0.14772496
-0.13723603 -0.06578074 -0.061668444 -0.07620898 0.05051021 -0.1123243 -0.03769985 -0.14339726
-0.14011978 0.0037805445 0.08748183 0.099174805 -0.04341608 -0.10822558 -0.055483475 -0.11623318
0.008931351 0.053805925 0.090380274 -0.005758108 -0.087454155 0.115483426 0.0066300603 0.07682635
-0.048347197 0.017037055 0.058664303 0.036887046 0.008515651 0.0021484632 0.021131475 0.06265425
0.05234743 -0.01345887 -0.034815747 0.03385879 -0.0026199198 0.049299527 -0.09358835 -0.11382648
0.069692664 -0.07894986 -0.073225014 -0.05815645 0.066843905 0.02293792 -0.14431415 0.010961224
-0.13942508 -0.13784368 0.10151356 -0.04781639 -0.06902013 0.12452221 -0.035565175 0.027840333
0.010723355 -0.059523102 -0.009527785 0.14615875 -0.106444605 0.02458116 0.010052077 -0.04327276
0.1280566 -0.0023871127 0.035988893 0.11640464 0.072058186 0.0643338 0.12739745 0.017126687
-0.13993753 -0.0063320613 -0.11215193 -0.1031785 -0.0667624 0.043926165 0.062122174 -0.12853803
00000000: 6bb8 cd3d 7534 f3bd 1dd9 933c 3d2d 0ebd
00000010: a8e5 56bd eac3 10be feaa 943d 6dff 06be
00000020: 0995 fbbd d049 d53c 76e3 dabc 0ddd c73c
00000030: 460c 00be c90c 163e 124a a43d 6c44 57bd
00000040: 40ca b1bc 93d4 303d 46f3 42bd 977b 823d
00000050: 8179 6d3d d35c bdbd a00b 693d 18c1 beba
00000060: 4eb6 cbbc a849 753d d4b0 c23d 2391 70bd
00000070: 118a c8bd 19e0 dfbd 7c05 b33d 888f 1abc
00000080: 5f6f a43d 0170 c3bb 3c38 0cbe 8cdc 8b3d
00000090: c54e 0e3e 6b33 343d be04 333d dd43 c43d
000000a0: 4c6a 223c 3824 03bb 5295 d03d 9ade b7bd
000000b0: 142a 7e3d 8762 633c b214 0ebe 3b65 42bd
000000c0: 6288 f5bd 4732 f3bd 4fa2 563d 6797 113e
000000d0: 5e9c 58bc dcf7 e0bc f11b ef3d 0d29 0a3e
000000e0: 7194 8fbd 0447 e1bd 5305 c53c f780 0ebe
000000f0: 8bf5 053e 8b5b 473d 7de7 963d 37b0 07be
00000100: a376 763d e71f 023e ec99 17be bfaf 983d
00000110: 1acf da3d d439 023c df8f 323d 2ca5 0dbe
00000120: 5c24 93bd e046 14be 9d9c 24bc b8b7 aa3d
00000130: 6f30 603d 3a24 19be ead8 4ebd 45c2 d63d
00000140: f598 063e 00cf bbbd 984e de3c 7165 5bbc
00000150: 06dd 123d e285 48bc 42aa 033e 1550 b4bd
00000160: dabc 99bd 1f9c f43d afd9 a1bd 6211 b43d
00000170: 06b3 13bc e4f9 10be 346c 3ebd 812e cd3d
00000180: 7311 efbd ac0f 3fbd e450 9e3c 9760 9c3d
00000190: 376c 0ebc 72eb 103e bb2b d6bd 456a 1abe
000001a0: 7795 223d 6186 813d 63c9 c33d 7ac5 bfbd
000001b0: a110 b8bd 54aa a6bc 1114 e7bd 684d d63d
000001c0: da71 253c 7402 9cbb 89d7 a13d d17a 9839
000001d0: c708 8d3c 0a03 a93c db0f 54bc 8aad 82bc
000001e0: 700d 17be 2092 9f3d 6123 ce3d 5dad ec3d
000001f0: 19a7 173e c647 02be 89b8 003e c3a5 9bba
00000200: 430b 053e b3d9 debd 6e25 6d3d a2f1 9cbd
00000210: ee62 003e e46e 1b3e d639 983d 41aa 763d
00000220: 1641 223d 5851 0cbe e2c4 49bd c3c4 143c
00000230: 590a f13b e29a 87bd f129 26ba 1ee5 fb3d
00000240: 4e1f 0d3d 94c7 debd 8b54 8b3d 0e59 a13d
00000250: 35f9 9f3d 0197 0fbe 7d82 7ebd d9fc 943d
00000260: 3e14 5e3d cbee 0f3e 0202 983c 8d54 073e
00000270: f8f8 d6bb 16c1 11be 3ea2 843d ec50 02bd
00000280: fa7b 8a3d 9b46 a9bd fe58 89bd b816 043e
00000290: c6e0 7d3d 53af afbd ac54 b9bd 327a 1bbe
000002a0: c1b9 4cbd fefa 91bd f8bc 57bd 2f30 0f3e
000002b0: aca8 c73d 054b a5bd 170b 113e 3645 173e
000002c0: 9a87 0cbe 0db8 86bd 0d98 7cbd 7413 9cbd
000002d0: cbe3 4e3d 480a e6bd 286b 1abd bbd6 12be
000002e0: 8f7b 0fbe 03c3 773b ac29 b33d 291c cb3d
000002f0: 0fd5 31bd 5fa5 ddbd a442 63bd a90b eebd
00000300: cd54 123c 9a63 5c3d 4b19 b93d 83ae bcbb
00000310: 2a1b b3bd 9382 ec3d fa40 d93b 2257 9d3d
00000320: b607 46bd 4b91 8b3c fb49 703d df16 173d
00000330: 3b85 0b3c 3bcd 0c3b ea1b ad3c df50 803d
00000340: 426a 563d 9882 5cbc f59a 0ebd 84af 0a3d
00000350: f6b2 2bbb 4dee 493d 40ab bfbd dc1d e9bd
00000360: 07bb 8e3d 77b0 a1bd fff6 95bd 7535 6ebd
00000370: 75e5 883d 4ee8 bb3c 17c7 13be b596 333c
00000380: 73c5 0ebe e526 0dbe 57e6 cf3d 1edb 43bd
00000390: 6d5a 8dbd 8005 ff3d caac 11bd 6911 e43c
000003a0: 03b1 2f3c 7fce 73bd 6d1a 1cbc a4aa 153e
000003b0: a1ff d9bd 6e5e c93c 77b1 243c c73e 31bd
000003c0: 4521 033e 1b71 1cbb 1769 133d 8e65 ee3d
000003d0: 3e93 933d 70c1 833d 7a74 023e 444d 8c3c
000003e0: c94b 0fbe 2e7d cfbb e9af e5bd 404f d3bd
000003f0: baba 88bd eceb 333d d273 7e3d 799f 03be

actor.0.bias f4 [256]
0.0 0.0 0.0 0.0 0.0 0.0 0.0 0.0
0.0 0.0 0.0 0.0 0.0 0.0 0.0 0.0
0.0 0.0 0.0 0.0 0.0 0.0 0.0 0.0
0.0 0.0 0.0 0.0 0.0 0.0 0.0 0.0
0.0 0.0 0.0 0.0 0.0 0.0 0.0 0.0
0.0 0.0 0.0 0.0 0.0 0.0 0.0 0.0
0.0 0.0 0.0 0.0 0.0 0.0 0.0 0.0
0.0 0.0 0.0 0.0 0.0 0.0 0.0 0.0
0.0 0.0 0.0 0.0 0.0 0.0 0.0 0.0
0.0 0.0 0.0 0.0 0.0 0.0 0.0 0.0
0.0 0.0 0.0 0.0 0.0 0.0 0.0 0.0
0.0 0.0 0.0 0.0 0.0 0.0 0.0 0.0
0.0 0.0 0.0 0.0 0.0 0.0 0.0 0.0
0.0 0.0 0.0 0.0 0.0 0.0 0.0 0.0
0.0 0.0 0.0 0.0 0.0 0.0 0.0 0.0
0.0 0.0 0.0 0.0 0.0 0.0 0.0 0.0
0.0 0.0 0.0 0.0 0.0 0.0 0.0 0.0
0.0 0.0 0.0 0.0 0.0 0.0 0.0 0.0
0.0 0.0 0.0 0.0 0.0 0.0 0.0 0.0
0.0 0.0 0.0 0.0 0.0 0.0 0.0 0.0
0.0 0.0 0.0 0.0 0.0 0.0 0.0 0.0
0.0 0.0 0.0 0.0 0.0 0.0 0.0 0.0
0.0 0.0 0.0 0.0 0.0 0.0 0.0 0.0
0.0 0.0 0.0 0.0 0.0 0.0 0.0 0.0
0.0 0.0 0.0 0.0 0.0 0.0 0.0 0.0
0.0 0.0 0.0 0.0 0.0 0.0 0.0 0.0
0.0 0.0 0.0 0.0 0.0 0.0 0.0 0.0
0.0 0.0 0.0 0.0 0.0 0.0 0.0 0.0
0.0 0.0 0.0 0.0 0.0 0.0 0.0 0.0
0.0 0.0 0.0 0.0 0.0 0.0 0.0 0.0
0.0 0.0 0.0 0.0 0.0 0.0 0.0 0.0
0.0 0.0 0.0 0.0 0.0 0.0 0.0 0.0
00000000: 0000 0000 0000 0000 0000 0000 0000 0000
00000010: 0000 0000 0000 0000 0000 0000 0000 0000
00000020: 0000 0000 0000 0000 0000 0000 0000 0000
00000030: 0000 0000 0000 0000 0000 0000 0000 0000
00000040: 0000 0000 0000 0000 0000 0000 0000 0000
00000050: 0000 0000 0000 0000 0000 0000 0000 0000
00000060: 0000 0000 0000 0000 0000 0000 0000 0000
00000070: 0000 0000 0000 0000 0000 0000 0000 0000
00000080: 0000 0000 0000 0000 0000 0000 0000 0000
00000090: 0000 0000 0000 0000 0000 0000 0000 0000
000000a0: 0000 0000 0000 0000 0000 0000 0000 0000
000000b0: 0000 0000 0000 0000 0000 0000 0000 0000
000000c0: 0000 0000 0000 0000 0000 0000 0000 0000
000000d0: 0000 0000 0000 0000 0000 0000 0000 0000
000000e0: 0000 0000 0000 0000 0000 0000 0000 0000
000000f0: 0000 0000 0000 0000 0000 0000 0000 0000
00000100: 0000 0000 0000 0000 0000 0000 0000 0000
00000110: 0000 0000 0000 0000 0000 0000 0000 0000
00000120: 0000 0000 0000 0000 0000 0000 0000 0000
00000130: 0000 0000 0000 0000 0000 0000 0000 0000
00000140: 0000 0000 0000 0000 0000 0000 0000 0000
00000150: 0000 0000 0000 0000 0000 0000 0000 0000
00000160: 0000 0000 0000 0000 0000 0000 0000 0000
00000170: 0000 0000 0000 0000 0000 0000 0000 0000
00000180: 0000 0000 0000 0000 0000 0000 0000 0000
00000190: 0000 0000 0000 0000 0000 0000 0000 0000
000001a0: 0000 0000 0000 0000 0000 0000 0000 0000
000001b0: 0000 0000 0000 0000 0000 0000 0000 0000
000001c0: 0000 0000 0000 0000 0000 0000 0000 0000
000001d0: 0000 0000 0000 0000 0000 0000 0000 0000
000001e0: 0000 0000 0000 0000 0000 0000 0000 0000
000001f0: 0000 0000 0000 0000 0000 0000 0000 0000
00000200: 0000 0000 0000 0000 0000 0000 0000 0000
00000210: 0000 0000 0000 0000 0000 0000 0000 0000
00000220: 0000 0000 0000 0000 0000 0000 0000 0000
00000230: 0000 0000 0000 0000 0000 0000 0000 0000
00000240: 0000 0000 0000 0000 0000 0000 0000 0000
00000250: 0000 0000 0000 0000 0000 0000 0000 0000
00000260: 0000 0000 0000 0000 0000 0000 0000 0000
00000270: 0000 0000 0000 0000 0000 0000 0000 0000
00000280: 0000 0000 0000 0000 0000 0000 0000 0000
00000290: 0000 0000 0000 0000 0000 0000 0000 0000
000002a0: 0000 0000 0000 0000 0000 0000 0000 0000
000002b0: 0000 0000 0000 0000 0000 0000 0000 0000
000002c0: 0000 0000 0000 0000 0000 0000 0000 0000
000002d0: 0000 0000 0000 0000 0000 0000 0000 0000
000002e0: 0000 0000 0000 0000 0000 0000 0000 0000
000002f0: 0000 0000 0000 0000 0000 0000 0000 0000
00000300: 0000 0000 0000 0000 0000 0000 0000 0000
00000310: 0000 0000 0000 0000 0000 0000 0000 0000
00000320: 0000 0000 0000 0000 0000 0000 0000 0000
00000330: 0000 0000 0000 0000 0000 0000 0000 0000
00000340: 0000 0000 0000 0000 0000 0000 0000 0000
00000350: 0000 0000 0000 0000 0000 0000 0000 0000
00000360: 0000 0000 0000 0000 0000 0000 0000 0000
00000370: 0000 0000 0000 0000 0000 0000 0000 0000
00000380: 0000 0000 0000 0000 0000 0000 0000 0000
00000390: 0000 0000 0000 0000 0000 0000 0000 0000
000003a0: 0000 0000 0000 0000 0000 0000 0000 0000
000003b0: 0000 0000 0000 0000 0000 0000 0000 0000
000003c0: 0000 0000 0000 0000 0000 0000 0000 0000
000003d0: 0000 0000 0000 0000 0000 0000 0000 0000
000003e0: 0000 0000 0000 0000 0000 0000 0000 0000
000003f0: 0000 0000 0000 0000 0000 0000 0000 0000

actor.2.weight f4 [128, 256]
0.0430502 0.10870588 -0.0015689135 -0.062277377 0.09496938 0.106958106 -0.086951405 -0.073174864
0.11650896 -0.120525286 0.03322701 0.014004052 0.083987 0.04448712 0.066985086 -0.020569384
-0.11955181 0.06951325 -0.026739672 -0.009997234 0.07928303 0.0010147542 0.08229923 -0.03787461
0.02721867 -0.028766632 -0.104217574 -0.06580371 -0.074411646 -0.019027933 0.06827466 0.067892835
0.012283772 0.07739559 -0.07187927 0.0042738467 0.116258934 0.08267602 -0.120330885 0.09965873
-0.09407826 -0.09588306 -0.07440628 -0.11063692 -0.034901798 0.04629171 0.0754554 -0.037714735
-0.06346187 0.03555444 0.05508253 0.022514403 0.052037403 -0.027450606 0.09644388 -0.11151898
0.008201182 0.0506002 -0.114298254 0.023606345 -0.05468586 0.015873358 0.08726296 0.0129170865
-0.01620783 0.036505103 -0.060746834 -0.057625026 -0.06699942 0.04543613 -0.05346237 0.014178395
-0.10216619 0.04186909 0.0038012415 0.0756661 0.05974403 -0.11773279 0.029435322 0.09608412
-0.03845772 -0.0920009 0.070251435 -0.041220307 -0.09353262 -0.08417636 -0.12212925 0.098100126
0.019691601 -0.011856198 0.031168684 -8.550286e-05 0.050019473 0.034095675 -0.10570532 0.04321651
-0.03348854 -0.017753646 0.12390272 0.09486103 -0.12126891 -0.030476779 -0.002908513 0.023117647
-0.056558743 0.03880687 0.05600749 0.110571906 -0.11641157 -0.12032981 -0.10734287 -0.04256262
-0.033779085 0.09458424 -0.032285318 0.09078975 0.06797941 0.024882555 0.018823132 -0.122059494
-0.031025887 0.08858064 0.030028448 0.10058755 -0.042505026 0.11810535 -0.038417235 0.042716965
0.06178668 -0.077946484 0.061996713 0.10196397 -0.004256338 0.034028217 0.017163277 0.11639622
0.062605694 -0.06595701 0.08862801 -0.06483866 0.053777874 -0.02910605 0.08033115 -0.025899664
-0.106896624 0.09326224 -0.020784408 0.031371564 0.048384085 -0.058421582 -0.087066725 0.097120285
-0.05497679 0.012120724 0.03414215 0.0147704035 -0.009848267 0.034706697 -0.09876408 -0.052379653
0.052969545 -0.043811247 0.021755382 -0.034646854 -0.11939882 -0.013621718 -0.11512339 -0.058507636
0.056027234 -0.101050034 0.104692 -0.052076235 -0.09848054 0.12035188 -0.113708705 -0.00733836
0.045605257 -0.11943056 -0.0072031915 -0.08608207 -0.014544964 -0.04832524 0.007061571 0.017288119
-0.0164043 0.116715714 0.09611143 -0.016779631 -0.013264 0.030357346 0.06146559 0.0007033497
-0.11721048 0.035785913 -0.023238778 -0.042380497 0.020417944 0.0062998235 -0.11982474 0.06782444
0.03222607 0.038071543 0.08134198 0.11724667 -0.090912655 0.007409543 -0.07642165 0.049393073
-0.078084216 -0.051815495 0.029719666 0.074577674 -0.12424761 0.11153862 0.020632178 -0.053279743
-0.077182606 -0.11892918 0.08731428 0.031453103 0.074985296 0.06968096 -0.079122186 -0.03727007
-0.023223385 -0.085345894 0.05582209 -0.04660946 0.022997722 0.04328966 0.1169993 -0.09118496
-0.024483442 0.048820257 -0.008412555 0.010829121 0.09552015 0.042731464 0.017075568 -0.04450035
0.0012009144 -0.0061317235 0.037523627 -0.062279537 -0.066510856 -0.0022718608 -0.0070261806 0.09296192
0.081738815 -0.07303962 -0.045653045 0.092794165 -0.028624848 -0.098435506 -0.09158194 0.10677692
00000000: 6855 303d 30a1 de3d 00a4 cdba 9016 7fbd
00000010: 4e7f c23d da0c db3d 9413 b2bd b4dc 95bd
00000020: 409c ee3d f6d5 f6bd 0c19 083d 4071 653c
00000030: 6001 ac3d 2038 363d 7a2f 893d 2081 a8bc
00000040: 94d7 f4bd f65c 8e3d 280d dbbc 70cb 23bc
00000050: 245f a23d 8001 853a 808c a83d 6822 1bbd
00000060: b0f9 de3c 00a8 ebbc 0670 d5bd 18c4 86bd
00000070: 2265 98bd 78e0 9bbc 96d3 8b3d 660b 8b3d
00000080: e041 493c 9481 9e3d 7035 93bd a00b 8c3b
00000090: 2a19 ee3d 0c52 a93d 0a70 f6bd e019 cc3d
000000a0: 1aac c0bd 565e c4bd 5262 98bd 9c95 e2bd
000000b0: 30f5 0ebd 609c 3d3d 5c88 9a3d c47a 1abd
000000c0: 4cf8 81bd 88a1 113d 389e 613d 2070 b83c
000000d0: 2c25 553d 18e0 e0bc 5e84 c53d 1064 e4bd
000000e0: 405e 063c 2842 4f3d 3415 eabd 1862 c13c
000000f0: 48fe 5fbd d808 823c ecb6 b23d 30a2 533c
00000100: 48c6 84bc 6086 153d acd1 78bd 3808 6cbd
00000110: fe36 89bd 3c1b 3a3d 5cfb 5abd 804c 683c
00000120: 823c d1bd ec7e 2b3d 401e 793b d4f6 9a3d
00000130: 28b6 743d e41d f1bd 5822 f13c c0c7 c43d
00000140: d885 1dbd f86a bcbd fcdf 8f3d a0d6 28bd
00000150: 088e bfbd a864 acbd e61e fabd b8e8 c83d
00000160: 4850 a13c 8040 42bc 7855 ff3c 0050 b3b8
00000170: 38e1 4c3d e8a7 0b3d 087c d8bd cc03 313d
00000180: 482b 09bd 1870 91bc b6c0 fd3d 8046 c23d
00000190: d65b f8bd 70aa f9bc c09c 3ebb 3861 bd3c
000001a0: 24aa 67bd f4f3 1e3d 1c68 653d 8673 e23d
000001b0: 3069 eebd 7a6f f6bd 94d6 dbbd 2456 2ebd
000001c0: f05b 0abd 62b5 c13d 9c3d 04bd faef b93d
000001d0: ca38 8b3d 80d6 cb3c f832 9a3c 54fa f9bd
000001e0: 002a febc c469 b53d 38fe f53c d800 ce3d
000001f0: c019 2ebd 38e1 f13d 645b 1dbd fcf7 2e3d
00000200: 0814 7d3d 68a2 9fbd 44f0 7d3d 7cd2 d03d
00000210: c078 8bbb 2c61 0b3d 009a 8c3c 2461 ee3d
00000220: 6a37 803d 7814 87bd 9a82 b53d 22ca 84bd
00000230: 3046 5c3d d06f eebc a884 a43d 882b d4bc
00000240: 9eec dabd 4600 bf3d 1044 aabc 787f 003d
00000250: 642e 463d 784b 6fbd 0a50 b2bd 00e7 c63d
00000260: 582f 61bd 0096 463c a4d8 0b3d 90ff 713c
00000270: a05a 21bc 9c28 0e3d d244 cabd 0c8c 56bd
00000280: 98f6 583d 6c73 33bd 5838 b23c dce9 0dbd
00000290: 5e87 f4bd a02d 5fbc d0c5 ebbd b4a5 6fbd
000002a0: d07c 653d 52f3 cebd c268 d63d e44d 55bd
000002b0: 2ab0 c9bd 0c7b f63d 1ce0 e8bd a076 f0bb
000002c0: 94cc 3a3d 0298 f4bd c008 ecbb cc4b b0bd
000002d0: 004e 6ebc b0f0 45bd c064 e73b d09f 8d3c
000002e0: 5062 86bc a608 ef3d 12d6 c43d 7075 89bc
000002f0: 4051 59bc f8af f83c 58c3 7b3d 0061 383a
00000300: 0c0c f0bd 4094 123d 405f bebc 2c97 2dbd
00000310: 8843 a73c c06e ce3b ac66 f5bd 8ae7 8a3d
00000320: 7cff 033d e8f0 1b3d a096 a63d 061f f03d
00000330: 6a30 babd c0cb f23b f482 9cbd 6450 4a3d
00000340: 9eea 9fbd 7c3c 54bd a876 f33c 2ebc 983d
00000350: 8875 febd 5c6e e43d d004 a93c dc3b 5abd
00000360: ea11 9ebd 2491 f3bd d4d1 b23d f8d4 003d
00000370: e491 993d e4b4 8e3d d00a a2bd 80a8 18bd
00000380: f83e bebc d4c9 aebd b4a5 643d 90e9 3ebd
00000390: b865 bc3c 8050 313d 549d ef3d 2ebf babd
000003a0: 8091 c8bc c0f7 473d d0d4 09bc a06c 313c
000003b0: 12a0 c33d 3007 2f3d 10e2 8b3c 0046 36bd
000003c0: 0068 9d3a a0ec c8bb 60b2 193d d418 7fbd
000003d0: d836 88bd 80e3 14bb e03b e6bb d262 be3d
000003e0: ae66 a73d cc95 95bd b0fe 3abd de0a be3d
000003f0: a87e eabc 8e98 c9bd 508f bbbd dcad da3d

actor.2.bias f4 [128]
0.0 0.0 0.0 0.0 0.0 0.0 0.0 0.0
0.0 0.0 0.0 0.0 0.0 0.0 0.0 0.0
0.0 0.0 0.0 0.0 0.0 0.0 0.0 0.0
0.0 0.0 0.0 0.0 0.0 0.0 0.0 0.0
0.0 0.0 0.0 0.0 0.0 0.0 0.0 0.0
0.0 0.0 0.0 0.0 0.0 0.0 0.0 0.0
0.0 0.0 0.0 0.0 0.0 0.0 0.0 0.0
0.0 0.0 0.0 0.0 0.0 0.0 0.0 0.0
0.0 0.0 0.0 0.0 0.0 0.0 0.0 0.0
0.0 0.0 0.0 0.0 0.0 0.0 0.0 0.0
0.0 0.0 0.0 0.0 0.0 0.0 0.0 0.0
0.0 0.0 0.0 0.0 0.0 0.0 0.0 0.0
0.0 0.0 0.0 0.0 0.0 0.0 0.0 0.0
0.0 0.0 0.0 0.0 0.0 0.0 0.0 0.0
0.0 0.0 0.0 0.0 0.0 0.0 0.0 0.0
0.0 0.0 0.0 0.0 0.0 0.0 0.0 0.0
00000000: 0000 0000 0000 0000 0000 0000 0000 0000
00000010: 0000 0000 0000 0000 0000 0000 0000 0000
00000020: 0000 0000 0000 0000 0000 0000 0000 0000
00000030: 0000 0000 0000 0000 0000 0000 0000 0000
00000040: 0000 0000 0000 0000 0000 0000 0000 0000
00000050: 0000 0000 0000 0000 0000 0000 0000 0000
00000060: 0000 0000 0000 0000 0000 0000 0000 0000
00000070: 0000 0000 0000 0000 0000 0000 0000 0000
00000080: 0000 0000 0000 0000 0000 0000 0000 0000
00000090: 0000 0000 0000 0000 0000 0000 0000 0000
000000a0: 0000 0000 0000 0000 0000 0000 0000 0000
000000b0: 0000 0000 0000 0000 0000 0000 0000 0000
000000c0: 0000 0000 0000 0000 0000 0000 0000 0000
000000d0: 0000 0000 0000 0000 0000 0000 0000 0000
000000e0: 0000 0000 0000 0000 0000 0000 0000 0000
000000f0: 0000 0000 0000 0000 0000 0000 0000 0000
00000100: 0000 0000 0000 0000 0000 0000 0000 0000
00000110: 0000 0000 0000 0000 0000 0000 0000 0000
00000120: 0000 0000 0000 0000 0000 0000 0000 0000
00000130: 0000 0000 0000 0000 0000 0000 0000 0000
00000140: 0000 0000 0000 0000 0000 0000 0000 0000
00000150: 0000 0000 0000 0000 0000 0000 0000 0000
00000160: 0000 0000 0000 0000 0000 0000 0000 0000
00000170: 0000 0000 0000 0000 0000 0000 0000 0000
00000180: 0000 0000 0000 0000 0000 0000 0000 0000
00000190: 0000 0000 0000 0000 0000 0000 0000 0000
000001a0: 0000 0000 0000 0000 0000 0000 0000 0000
000001b0: 0000 0000 0000 0000 0000 0000 0000 0000
000001c0: 0000 0000 0000 0000 0000 0000 0000 0000
000001d0: 0000 0000 0000 0000 0000 0000 0000 0000
000001e0: 0000 0000 0000 0000 0000 0000 0000 0000
000001f0: 0000 0000 0000 0000 0000 0000 0000 0000

mu.0.weight f4 [1, 128]
0.14527655 0.068270065 0.097855106 0.10162873 0.008841749 0.14264208 0.06586619 0.005951403
0.014497392 -0.17641948 -0.21394609 -0.07057853 0.14568618 -0.20198132 -0.21238519 -0.16577393
-0.14531688 -0.13068315 -0.011378413 0.019384943 -0.0018567541 0.106498174 0.08773375 -0.055770673
0.08600228 -0.21281327 0.20887218 -0.019404791 0.101212926 0.14400882 0.11870564 -0.2040694
-0.10631286 0.006825006 0.16896471 -0.17110184 0.17552291 0.054315962 0.21182814 -0.10875525
0.0028029091 -0.15110102 -0.12346624 0.14224717 0.05440368 0.09925087 -0.106761284 -0.15263338
0.21190009 0.046259657 -0.024817865 0.079046 -0.18805678 -0.19582927 -0.10801922 -0.13041103
-0.18768309 -0.04838839 0.20142479 0.15102577 -0.07940118 0.18210487 0.14497904 0.04284559
0.035195928 0.09373475 0.03866427 0.054704636 -0.013560519 -0.19526327 -0.18216099 -0.058535352
-0.1421308 -0.083362214 -0.056356076 -0.070956126 0.061814014 0.047163084 0.07425798 -0.20847742
-0.1219589 -0.05064531 -0.16988452 -0.11092016 -0.061915103 -0.19318867 0.004459593 0.007526897
0.08546452 0.08798033 -0.056598797 -0.10863455 0.1911819 -0.03745827 0.009888453 -0.07862039
0.064746805 0.019539276 -0.1138955 0.15237053 0.023893615 0.08979207 -0.20875981 -0.15456474
-0.028060533 -0.045084458 0.16144893 -0.026669554 -0.12694067 -0.13884847 -0.03993174 -0.02261478
0.16329172 -0.08829946 -0.11181571 -0.06622548 -0.11421463 0.1672668 -0.08408028 0.20063937
0.17310578 0.014479935 -0.046595808 0.20381775 -0.21430033 0.05014686 -0.16695103 0.0034644874
00000000: 60c3 143e 2dd1 8b3d 4268 c83d b922 d03d
00000010: fcdc 103c c410 123e dae4 863d fd03 c33b
00000020: 7886 6d3c 4fa7 34be af14 5bbe 7a8b 90bd
00000030: c22e 153e 31d4 4ebe 817b 59be a4c0 29be
00000040: f3cd 14be ced1 05be 866c 3abc 2ccd 9e3c
00000050: 545e f3ba b71b da3d c1ad b33d ca6f 64bd
00000060: f721 b03d b9eb 59be 97e2 553e ccf6 9ebc
00000070: b948 cf3d 0c77 133e f11b f33d 92f7 50be
00000080: 8fba d9bd 4da4 df3b 1605 2d3e 5235 2fbe
00000090: 47bc 333e 6a7a 5e3d 7ae9 583e 13bb debd
000000a0: 03b1 373b 3aba 1abe dedb fcbd 3ea9 113e
000000b0: 65d6 5e3d 0a44 cb3d a9a5 dabd ed4b 1cbe
000000c0: 56fc 583e c47a 3d3d d64e cbbc dfe2 a13d
000000d0: f591 40be 7887 48be 2e39 ddbd 788a 05be
000000e0: ff2f 40be e832 46bd 4d42 4e3e 80a6 1a3e
000000f0: 169d a2bd b379 3a3e 6375 143e db7e 2f3d
00000100: 9b29 103d 01f8 bf3d 6d5e 1e3d f811 603d
00000110: f02c 5ebc 18f3 47be 6988 3abe c4c2 6fbd
00000120: bd8a 11be cfb9 aabd a1d5 66bd 7251 91bd
00000130: b130 7d3d 142e 413d 9114 983d 1b7b 55be
00000140: 96c5 f9bd 7571 4fbd 35f6 2dbe 1c2a e3bd
00000150: b19a 7dbd 40d3 45be c721 923b 30a4 f63b
00000160: 0608 af3d 082f b43d 24d4 67bd ca7b debd
00000170: 30c5 433e d86d 19bd 2e03 223c ba03 a1bd
00000180: f999 843d d510 a03c 0b42 e9bd 0507 1c3e
00000190: 8bbc c33c e8e4 b73d 22c5 55be 3846 1ebe
000001a0: 34df e5bc 7baa 38bd de52 253e 1c7a dabc
000001b0: bcfc 01be 4b2e 0ebe 778f 23bd a242 b9bc
000001c0: f235 273e 59d6 b4bd a3ff e4bd 39a1 87bd
000001d0: 5ce9 e9bd fd47 2b3e 4832 acbd 6874 4d3e
000001e0: a442 313e 403d 6d3c 3fdb 3ebd 9ab5 503e
000001f0: 8c71 5bbe cb66 4d3d 36f5 2abe 740c 633b

sigma.0.weight f4 [1, 128]
-0.18150975 0.1006766 -0.06874931 0.21395871 0.15049279 0.063666165 -0.18695287 0.10467855
-0.017902877 -0.1837316 0.16192672 -0.13827075 0.17276119 -0.1824433 -0.061238922 -0.17530686
0.09130692 -0.0066738096 0.10061344 0.10057225 0.17850487 0.025357658 0.19538216 -0.015707813
0.07203519 0.1142995 -0.0779332 -0.17053334 -0.11943918 0.15163475 -0.09947745 0.05321226
0.17928961 -0.01842948 0.063922465 -0.15669255 -0.112977624 -0.19838965 0.046099205 -0.11211166
0.19241454 0.09818164 -0.075994715 0.15734687 0.09662582 0.040040415 -0.05453925 0.08749517
0.17536871 -0.021321395 -0.1344895 -0.06601374 -0.02244965 -0.11801177 0.099868715 -0.0028636088
-0.078978874 -0.057036627 0.20846193 0.043072164 0.19899076 0.05261917 0.1624761 0.091345765
-0.13867886 -0.102709986 0.01890968 -0.07926644 -0.2088005 -0.045021188 -0.16480546 0.18891324
-0.17600273 -0.0032621035 0.03134711 -0.034297645 0.024239663 -0.0016724952 0.17289275 0.028850684
-0.099623755 -0.052124884 -0.14954412 0.16831149 -0.031348217 0.1042292 0.0033351437 -0.06326767
-0.19392294 -0.12838757 -0.19135958 0.08426847 0.21175274 -0.1844567 -0.061919473 0.14001706
0.17016537 -0.20513253 -0.06165937 -0.17536493 0.19341367 0.01709329 -0.1592639 0.15931179
0.03502378 0.070866734 0.14178362 0.17771062 -0.00018549287 -0.03174049 0.014119954 0.1558374
0.19085401 -0.06789121 0.012037652 -0.1901639 -0.026567463 -0.192192 -0.018245762 -0.13394299
0.10885349 0.0880171 -0.058268953 0.11492305 0.19006583 0.01332862 0.043126743 0.19877125
00000000: b1dd 39be 892f ce3d 70cc 8cbd fe17 5b3e
00000010: c81a 1a3e 6863 823d 9370 3fbe b561 d63d
00000020: 0ea9 92bc 2324 3cbe 1ed0 253e d996 0dbe
00000030: 4fe8 303e 6bd2 3abe aad5 7abd a483 33be
00000040: 1fff ba3d f9af dabb 6b0e ce3d d3f8 cd3d
00000050: fbc9 363e ddba cf3c 4312 483e acad 80bc
00000060: 3087 933d db15 ea3d 719b 9fbd 4ba0 2ebe
00000070: 879c f4bd 2446 1b3e d5ba cbbd 19f5 593d
00000080: b297 373e 6cf9 96bc c8e9 823d 0374 20be
00000090: d060 e7bd a826 4bbe 85d2 3c3d cc9a e5bd
000000a0: 5108 453e 7513 c93d 1ea3 9bbd 8a1f 213e
000000b0: c2e3 c53d 6b01 243d 8c64 5fbd ab30 b33d
000000c0: db93 333e 35aa aebc 9eb7 09be 3632 87bd
000000d0: 54e8 b7bc 28b0 f1bd f887 cc3d 62ab 3bbb
000000e0: adbf a1bd 3d9f 69bd 0b77 553e 706c 303d
000000f0: 3cc4 4b3e 3387 573d 2260 263e 7d13 bb3d
00000100: d501 0ebe 9d59 d2bd 79e8 9a3c 7156 a2bd
00000110: cccf 55be 2368 38bd c3c2 28be 7972 413e
00000120: 0f3a 34be 04c9 55bb d465 003d b07b 0cbd
00000130: 4292 c63c a037 dbba cc0a 313e 4558 ec3c
00000140: 8a07 ccbd e780 55bd 1822 19be d959 2c3e
00000150: fd66 00bd 1e76 d53d 6d92 5a3b 7b92 81bd
00000160: bc93 46be 0878 03be c4f3 43be f394 ac3d
00000170: b6d5 583e 38e2 3cbe 469f 7dbd a260 0f3e
00000180: d53f 2e3e 430e 52be 898e 7cbd dd92 33be
00000190: 3c0e 463e 3a07 8c3c 1316 23be a122 233e
000001a0: 1875 0f3d 9422 913d ba2f 113e c6f9 353e
000001b0: dd80 42b9 5102 02bd 6157 673c d793 1f3e
000001c0: 3c6f 433e 8c0a 8bbd 9239 453c 53ba 42be
000001d0: 02a4 d9bc fbcd 44be 2378 95bc 5a28 09be
000001e0: 94ee de3d 4f42 b43d 6dab 6ebd c75c eb3d
000001f0: 9ea0 423e 4960 5a3c aba5 303d b18a 4b3e

critic.0.weight f4 [256, 3]
0.087076396 0.1494735 -0.100114815 0.09777986 -0.041879706 -0.046830546 -0.11937773 -0.10258896
-0.010950918 0.09167121 -0.061669406 -0.030366885 -0.13460954 -0.06478997 0.09432377 0.072232224
-0.080058664 -0.14177017 -0.033109296 -0.1439876 -0.018917039 0.099766426 -0.074964635 -0.051319603
-0.020355757 0.14825016 -0.13141139 -0.1021453 0.100118965 -0.020772945 0.017880864 0.13958894
0.12297854 0.08784328 0.022986982 0.13966484 -0.0021819933 0.103632085 -0.11097158 -0.037291948
-0.06346279 -0.10393518 0.14398274 -0.022780519 -0.07528515 0.03405959 0.028600644 -0.08192398
-0.06645426 0.010787005 0.03892933 -0.045940667 0.11536527 0.048580002 0.14003336 -0.109028146
0.137974 -0.06768919 0.058796845 0.010785698 -0.038814258 0.06384369 -0.119208395 -0.064643495
0.12999456 0.018006457 -0.115420304 -0.07088593 0.03740858 -0.085176505 -0.098849475 0.1264418
-0.10963349 0.044423856 0.025169156 0.018852519 0.046967935 0.054063972 -0.11076452 0.15067978
0.1011909 0.03851891 -0.15211855 -0.010279369 0.080012076 0.015203645 -0.07737225 -0.03371518
-0.110290416 -0.08775696 -0.05021029 -0.027058793 -0.049235422 -0.026403809 -0.038475927 0.07821897
0.055766687 0.140999 -0.025993552 -0.08817885 0.09658243 -0.104544535 0.02202442 0.11205713
-0.0017252334 -0.023747964 -0.05628835 -0.023293182 -0.015628472 0.13767321 0.006273637 0.08824301
0.12735389 -0.08048099 -0.040884502 -0.051561225 0.11366148 -0.057628494 -0.045260336 -0.056493416
0.09264007 0.0648459 0.055938605 0.084540576 0.018073736 -0.064467885 0.10497812 0.14135502
-0.07011308 0.14993848 0.05577329 -0.10304033 0.12117166 -0.018482378 -0.026345149 -0.05323308
0.12255566 0.11296466 0.15057983 0.09548804 -0.14385356 0.070312135 0.054608025 -0.019030293
-0.03444677 -0.05557146 0.09294934 -0.065737754 0.078947954 -0.07094491 0.07101655 -0.07316976
0.13784209 -0.025381388 0.010269063 0.04566406 -0.051162437 -0.015734596 0.034323663 0.07113276
0.05231546 -0.0010183386 0.14955355 -0.12980175 0.024251863 -0.016412515 -0.08851343 -0.12153325
0.028296804 0.08471421 0.00053652155 -0.10656006 0.09464853 -0.11143886 0.14490207 -0.13141395
0.103816845 -0.014609117 -0.037887365 -0.009463537 -0.014462422 -0.08114971 0.024146628 0.08178325
-0.061720897 -0.02773283 -0.14686689 -0.011706203 -0.11390739 -0.07857138 -0.0106156515 0.08046833
-0.0542606 -0.1184 0.12378438 0.007826175 -0.13779494 -0.115541175 0.0013695362 -0.10606623
0.08927769 0.0038617032 -0.03964096 0.012398365 0.13036853 0.048783526 -0.14537345 -0.046877034
0.14256434 0.029646382 0.057252437 0.096154295 0.13715154 0.14210506 0.08366735 0.06258706
-0.017110465 0.13468908 -0.14113899 -0.02670364 0.09041112 0.14636268 0.081352636 -0.0635702
0.12007008 0.014333853 0.025487224 0.071581975 -0.0255029 0.067897156 -0.12758277 0.05079569
0.016246641 0.051912606 -0.04354158 -0.04228668 0.11588584 -0.091113046 0.046704374 0.10654695
-0.016697578 -0.136811 0.0034609903 0.08445664 0.09299056 0.08780864 -0.0059805913 -0.011234474
0.026757548 0.05741744 0.09915898 -0.010250228 -0.09185873 0.08962689 0.09900804 -0.12337144
00000000: 1c55 b23d 950f 193e ff08 cdbd cf40 c83d
00000010: 0e8a 2bbd 63d1 3fbd 507c f4bd 291a d2bd
00000020: 7b6b 33bc 1ebe bb3d 0f99 7cbd f9c3 f8bc
00000030: 15d7 09be 9bb0 84bd d22c c13d 7dee 933d
00000040: ccf5 a3bd 332c 11be 9d9d 07bd 7c71 13be
00000050: e8f7 9abc 5752 cc3d 0f87 99bd 8134 52bd
00000060: 1ec1 a6bc e4ce 173e b590 06be 8e31 d1bd
00000070: 2c0b cd3d 062c aabc e47a 923c 67f0 0e3e
00000080: 2cdc fb3d 2de7 b33d 324f bc3c 4d04 0f3e
00000090: c6ff 0ebb 0f3d d43d 1145 e3bd 71bf 18bd
000000a0: c7f8 81bd f8db d4bd 3670 133e 369e babc
000000b0: 1a2f 9abd 1282 0b3d e64b ea3c c2c7 a7bd
000000c0: 2c19 88bd fabb 303c 5c74 1f3d 482c 3cbd
000000d0: a044 ec3d d3fb 463d e864 0f3e 264a dfbd
000000e0: 0e49 0d3e a1a0 8abd f6d4 703d 7fb6 303c
000000f0: b3fb 1ebd 7bc0 823d 8823 f4bd cf63 84bd
00000100: 4b1d 053e 4782 933c 7b61 ecbd a42c 91bd
00000110: bd39 193d 0571 aebd 9871 cabd f679 013e
00000120: 8687 e0bd caf5 353d 8c2f ce3c 9970 9a3c
00000130: 7361 403d 2f72 5d3d 82d8 e2bd cd4b 1a3e
00000140: 2d3d cf3d 01c6 1d3d f7c4 1bbe cc6a 28bc
00000150: 5fdd a33d b618 793c 5875 9ebd ee18 0abd
00000160: f1df e1bd ecb9 b3bd 4ea9 4dbd 67aa ddbc
00000170: 15ab 49bd cd4c d8bc ef98 1dbd 4431 a03d
00000180: 9c6b 643d 0b62 103e 6ef0 d4bc 1d97 b4bd
00000190: 02cd c53d 721b d6bd 8e6c b43c 357e e53d
000001a0: 3a21 e2ba 178b c2bc 9d8e 66bd 58d1 bebc
000001b0: 4807 80bc 35fa 0c3e 1593 cd3b c0b8 b43d
000001c0: 0f69 023e 38d3 a4bd 8276 27bd dd31 53bd
000001d0: 5ac7 e83d db0b 6cbd e762 39bd a465 67bd
000001e0: 14ba bd3d edcd 843d e11f 653d 9c23 ad3d
000001f0: 5f0f 943c bd07 84bd c5fe d63d 5fbf 103e
00000200: 7297 8fbd 7989 193e 8972 643d cf06 d3bd
00000210: d928 f83d 5b68 97bc c8d1 d7bc ee0a 5abd
00000220: 76fe fa3d 045a e73d 9931 1a3e 3c8f c33d
00000230: 594e 13be cfff 8f3d aaac 5f3d 6be5 9bbc
00000240: 0e18 0dbd e69e 63bd 395c be3d 84a1 86bd
00000250: 77af a13d 914b 91bd 2071 913d 07da 95bd
00000260: 7a26 0d3e a1ec cfbc 923f 283c 3d0a 3b3d
00000270: b48f 51bd d7e5 80bc f896 0c3d 0dae 913d
00000280: bc48 563d c679 85ba 9124 193e c0ea 04be
00000290: d8ab c63c 8a73 86bc 8746 b5bd 6de6 f8bd
000002a0: b3ce e73c a57e ad3d 5aa5 0c3a 293c dabd
000002b0: 17d7 c13d 0f3a e4bd 3561 143e 6191 06be
000002c0: ed9d d43d 145b 6fbc c82f 1bbd f30c 1bbc
000002d0: cbf3 6cbc d231 a6bd 26cf c53c fa7d a73d
000002e0: 0dcf 7cbd f62f e3bc 4664 16be 60cb 3fbc
000002f0: 4748 e9bd 08ea a0bd 45ed 2dbc 94cc a43d
00000300: 5d40 5ebd b37b f2bd aa82 fd3d 5b39 003c
00000310: 1e1a 0dbe daa0 ecbd 0282 b33a 4039 d9bd
00000320: 39d7 b63d a114 7d3b 8f5e 22bd 8322 4b3c
00000330: 547f 053e 3cd1 473d c7dc 14be 2202 40bd
00000340: 63fc 113e f8dc f23c 8881 6a3d 8bec c43d
00000350: 7471 0c3e fd83 113e ca59 ab3d a52d 803d
00000360: 3f2b 8cbc efeb 093e bd86 10be 98c1 dabc
00000370: 7729 b93d 19e0 153e 369c a63d 1831 82bd
00000380: 4de7 f53d 89d8 6a3c 95ca d03c 9299 923d
00000390: 75eb d0bc aa0d 8b3d 0fa5 02be 240f 503d
000003a0: ad17 853c 50a2 543d a858 32bd cc34 2dbd
000003b0: 8e55 ed3d 7a99 babd 164d 3f3d 4a35 da3d
000003c0: 5cc9 88bc 2f18 0cbe c8d1 623b 9af7 ac3d
000003d0: d671 be3d 04d5 b33d d6f8 c3bb cd10 38bc
000003e0: a532 db3c 8d2e 6b3d dd13 cb3d 93f0 27bc
000003f0: 6e20 bcbd 4e8e b73d bac4 ca3d 2aaa fcbd

critic.0.bias f4 [256]
0.0 0.0 0.0 0.0 0.0 0.0 0.0 0.0
0.0 0.0 0.0 0.0 0.0 0.0 0.0 0.0
0.0 0.0 0.0 0.0 0.0 0.0 0.0 0.0
0.0 0.0 0.0 0.0 0.0 0.0 0.0 0.0
0.0 0.0 0.0 0.0 0.0 0.0 0.0 0.0
0.0 0.0 0.0 0.0 0.0 0.0 0.0 0.0
0.0 0.0 0.0 0.0 0.0 0.0 0.0 0.0
0.0 0.0 0.0 0.0 0.0 0.0 0.0 0.0
0.0 0.0 0.0 0.0 0.0 0.0 0.0 0.0
0.0 0.0 0.0 0.0 0.0 0.0 0.0 0.0
0.0 0.0 0.0 0.0 0.0 0.0 0.0 0.0
0.0 0.0 0.0 0.0 0.0 0.0 0.0 0.0
0.0 0.0 0.0 0.0 0.0 0.0 0.0 0.0
0.0 0.0 0.0 0.0 0.0 0.0 0.0 0.0
0.0 0.0 0.0 0.0 0.0 0.0 0.0 0.0
0.0 0.0 0.0 0.0 0.0 0.0 0.0 0.0
0.0 0.0 0.0 0.0 0.0 0.0 0.0 0.0
0.0 0.0 0.0 0.0 0.0 0.0 0.0 0.0
0.0 0.0 0.0 0.0 0.0 0.0 0.0 0.0
0.0 0.0 0.0 0.0 0.0 0.0 0.0 0.0
0.0 0.0 0.0 0.0 0.0 0.0 0.0 0.0
0.0 0.0 0.0 0.0 0.0 0.0 0.0 0.0
0.0 0.0 0.0 0.0 0.0 0.0 0.0 0.0
0.0 0.0 0.0 0.0 0.0 0.0 0.0 0.0
0.0 0.0 0.0 0.0 0.0 0.0 0.0 0.0
0.0 0.0 0.0 0.0 0.0 0.0 0.0 0.0
0.0 0.0 0.0 0.0 0.0 0.0 0.0 0.0
0.0 0.0 0.0 0.0 0.0 0.0 0.0 0.0
0.0 0.0 0.0 0.0 0.0 0.0 0.0 0.0
0.0 0.0 0.0 0.0 0.0 0.0 0.0 0.0
0.0 0.0 0.0 0.0 0.0 0.0 0.0 0.0
0.0 0.0 0.0 0.0 0.0 0.0 0.0 0.0
00000000: 0000 0000 0000 0000 0000 0000 0000 0000
00000010: 0000 0000 0000 0000 0000 0000 0000 0000
00000020: 0000 0000 0000 0000 0000 0000 0000 0000
00000030: 0000 0000 0000 0000 0000 0000 0000 0000
00000040: 0000 0000 0000 0000 0000 0000 0000 0000
00000050: 0000 0000 0000 0000 0000 0000 0000 0000
00000060: 0000 0000 0000 0000 0000 0000 0000 0000
00000070: 0000 0000 0000 0000 0000 0000 0000 0000
00000080: 0000 0000 0000 0000 0000 0000 0000 0000
00000090: 0000 0000 0000 0000 0000 0000 0000 0000
000000a0: 0000 0000 0000 0000 0000 0000 0000 0000
000000b0: 0000 0000 0000 0000 0000 0000 0000 0000
000000c0: 0000 0000 0000 0000 0000 0000 0000 0000
000000d0: 0000 0000 0000 0000 0000 0000 0000 0000
000000e0: 0000 0000 0000 0000 0000 0000 0000 0000
000000f0: 0000 0000 0000 0000 0000 0000 0000 0000
00000100: 0000 0000 0000 0000 0000 0000 0000 0000
00000110: 0000 0000 0000 0000 0000 0000 0000 0000
00000120: 0000 0000 0000 0000 0000 0000 0000 0000
00000130: 0000 0000 0000 0000 0000 0000 0000 0000
00000140: 0000 0000 0000 0000 0000 0000 0000 0000
00000150: 0000 0000 0000 0000 0000 0000 0000 0000
00000160: 0000 0000 0000 0000 0000 0000 0000 0000
00000170: 0000 0000 0000 0000 0000 0000 0000 0000
00000180: 0000 0000 0000 0000 0000 0000 0000 0000
00000190: 0000 0000 0000 0000 0000 0000 0000 0000
000001a0: 0000 0000 0000 0000 0000 0000 0000 0000
000001b0: 0000 0000 0000 0000 0000 0000 0000 0000
000001c0: 0000 0000 0000 0000 0000 0000 0000 0000
000001d0: 0000 0000 0000 0000 0000 0000 0000 0000
000001e0: 0000 0000 0000 0000 0000 0000 0000 0000
000001f0: 0000 0000 0000 0000 0000 0000 0000 0000
00000200: 0000 0000 0000 0000 0000 0000 0000 0000
00000210: 0000 0000 0000 0000 0000 0000 0000 0000
00000220: 0000 0000 0000 0000 0000 0000 0000 0000
00000230: 0000 0000 0000 0000 0000 0000 0000 0000
00000240: 0000 0000 0000 0000 0000 0000 0000 0000
00000250: 0000 0000 0000 0000 0000 0000 0000 0000
00000260: 0000 0000 0000 0000 0000 0000 0000 0000
00000270: 0000 0000 0000 0000 0000 0000 0000 0000
00000280: 0000 0000 0000 0000 0000 0000 0000 0000
00000290: 0000 0000 0000 0000 0000 0000 0000 0000
000002a0: 0000 0000 0000 0000 0000 0000 0000 0000
000002b0: 0000 0000 0000 0000 0000 0000 0000 0000
000002c0: 0000 0000 0000 0000 0000 0000 0000 0000
000002d0: 0000 0000 0000 0000 0000 0000 0000 0000
000002e0: 0000 0000 0000 0000 0000 0000 0000 0000
000002f0: 0000 0000 0000 0000 0000 0000 0000 0000
00000300: 0000 0000 0000 0000 0000 0000 0000 0000
00000310: 0000 0000 0000 0000 0000 0000 0000 0000
00000320: 0000 0000 0000 0000 0000 0000 0000 0000
00000330: 0000 0000 0000 0000 0000 0000 0000 0000
00000340: 0000 0000 0000 0000 0000 0000 0000 0000
00000350: 0000 0000 0000 0000 0000 0000 0000 0000
00000360: 0000 0000 0000 0000 0000 0000 0000 0000
00000370: 0000 0000 0000 0000 0000 0000 0000 0000
00000380: 0000 0000 0000 0000 0000 0000 0000 0000
00000390: 0000 0000 0000 0000 0000 0000 0000 0000
000003a0: 0000 0000 0000 0000 0000 0000 0000 0000
000003b0: 0000 0000 0000 0000 0000 0000 0000 0000
000003c0: 0000 0000 0000 0000 0000 0000 0000 0000
000003d0: 0000 0000 0000 0000 0000 0000 0000 0000
000003e0: 0000 0000 0000 0000 0000 0000 0000 0000
000003f0: 0000 0000 0000 0000 0000 0000 0000 0000

critic.2.weight f4 [128, 256]
0.011801854 0.1178692 0.103882656 -0.04600537 0.046334743 -0.057416633 -0.09335823 0.027621433
-0.019267067 -0.07958567 0.11002895 0.117824554 0.12335625 0.12420507 0.11112909 -0.059727877
-0.00033009052 -0.0793629 -0.0042814463 0.05458471 0.0053884387 0.042454123 0.024702013 0.09036739
0.0018621683 -0.024456143 -0.051290482 0.06409365 -0.107202575 0.088035986 -0.06962781 -0.08684766
-0.047344908 -0.00016382337 0.0058014095 0.029726818 0.05501151 -0.06697811 -0.01930435 0.09279534
-0.123389795 -0.099075496 0.052287653 -0.06939493 -0.10180169 -0.096160606 -0.07405861 -0.12474634
0.084752664 -0.085385576 0.019829676 0.008588001 0.039079994 0.067749664 -0.01852493 0.04455985
-0.027560279 0.0041125566 -0.111063 -0.104154244 0.04341376 0.050486863 0.047978953 -0.08311188
-0.110392526 0.11169426 -0.0703399 0.109221056 -0.04895374 0.11513688 0.10691963 -0.10241495
0.11045067 0.03336832 -0.08276056 0.11948079 0.05863908 0.09790322 0.116258875 0.010941818
0.046742857 -0.122288525 -0.0170694 -0.062397778 -0.064497575 0.043619856 0.07276085 -0.11665313
-0.08431393 0.00927636 0.0013119131 0.036381006 -0.056753084 0.022855505 0.051482454 0.124253154
-0.009593517 -0.07281688 -0.056720838 -0.020082697 -0.017350629 0.07089083 0.06040059 -0.105105296
0.012290597 -0.044626564 0.12104578 0.011809781 0.016879633 -0.09596999 0.051949576 -0.037106648
-0.050367653 0.043855384 -0.11629403 -0.1160907 -0.123474285 0.017641008 -0.09687643 0.08907811
-0.12221739 -0.109712064 0.028577521 0.003197655 -0.0746963 -0.073223695 -0.045660794 -0.06813769
-0.04839413 0.03788802 0.08119352 0.030299366 -0.11532988 0.104132056 -0.028131232 -0.096230045
0.052702248 -0.04645756 -0.017914936 0.10278772 -0.09528996 -0.103342354 -0.11520021 0.046219885
-0.056147993 -0.0007376522 -0.01965116 0.10339747 -0.11896163 -0.0068654567 0.06274308 -0.061505437
-0.008987039 -0.055153087 0.123226404 -0.0692191 0.0758332 -0.068639144 0.121702895 0.06533736
0.10933064 -0.0056271553 -0.03822215 -0.024905339 -0.054186165 -0.07540433 -0.065612376 -0.08427054
0.08542867 -0.044533357 0.021170825 -0.060209587 0.004372075 0.06879103 0.10579908 -0.05567804
0.0003566891 0.043271363 0.10919307 0.10169065 0.04702854 -0.10336174 -0.112127885 0.101083145
0.08696365 0.08412509 -0.09877491 0.096085176 0.11976646 -0.04230009 0.048794106 0.055783987
-0.06531048 -0.025734156 0.09880763 -0.041339755 0.046502933 0.07989411 0.0036974251 0.0064741224
0.05745621 0.12250532 -0.09387298 0.10819772 0.04544826 0.061916187 0.12290314 -0.01498656
-0.08386484 0.058011234 -0.0022191107 -0.11711468 0.0428655 0.02844587 0.059293434 -0.0049535334
-0.08546485 -0.0059634596 -0.12285894 -0.044810355 -0.12460235 -0.12087542 -0.009375885 -0.12245971
-0.11995648 -0.11683692 -0.039816245 -0.11252572 -0.08103685 0.095281675 -0.08403011 0.08170521
-0.019440234 0.043866426 0.069780186 -0.10245885 0.123163015 0.10362227 0.069023 -0.10663237
-0.11683814 -0.03786011 0.07654537 0.10405512 -0.028461024 0.04604344 0.024959594 -0.009236276
0.0031965673 0.120346695 -0.09929982 -0.04761699 0.09964143 -0.014206842 0.018186912 -0.09962474
00000000: 905c 413c 6865 f13d 6ec0 d43d 2070 3cbd
00000010: 80c9 3d3d b42d 6bbd 9a32 bfbd 5846 e23c
00000020: f8d5 9dbc d0fd a2bd dc56 e13d 004e f13d
00000030: 34a2 fc3d 3a5f fe3d a697 e33d 38a5 74bd
00000040: 0010 adb9 0489 a2bd 604b 8cbb 3894 5f3d
00000050: 8091 b03b 60e4 2d3d e05b ca3c 8a12 b93d
00000060: 0014 f43a 4058 c8bc f815 52bd 8843 833d
00000070: 068d dbbd 364c b43d 0699 8ebd 30dd b1bd
00000080: bcec 41bd 00c8 2bb9 c019 be3b a885 f33c
00000090: c053 613d d22b 89bd 2824 9ebc 7c0b be3d
000000a0: cab3 fcbd 18e8 cabd 942b 563d ee1e 8ebd
000000b0: 687d d0bd daef c4bd 0aac 97bd 027b ffbd
000000c0: ce92 ad3d a2de aebd d871 a23c b0b4 0c3c
000000d0: 5812 203d 56c0 8a3d 98c1 97bc 6484 363d
000000e0: 18c6 e1bc a0c2 863b 0075 e3bd d24e d5bd
000000f0: a0d2 313d 50cb 4e3d 9485 443d 9036 aabd
00000100: 7a15 e2bd f6bf e43d 5e0e 90bd 4aaf df3d
00000110: b883 48bd e2cc eb3d aef8 da3d eebe d1bd
00000120: f633 e23d 38ad 083d 5e7e a9bd 58b2 f43d
00000130: 882f 703d 7c81 c83d 2219 ee3d 5045 333c
00000140: 7075 3f3d 6872 fabd 20d5 8bbc d094 7fbd
00000150: 4e17 84bd bcaa 323d a403 953d d6e7 eebd
00000160: c8ac acbd e0fb 173c 80f4 ab3a 4004 153d
00000170: ec75 68bd 783b bb3c 44df 523d 7078 fe3d
00000180: 202e 1dbc 0421 95bd 1c54 68bd 7884 a4bc
00000190: e822 8ebc 362f 913d 9c66 773d 7241 d7bd
000001a0: 805e 493c 58ca 36bd dae6 f73d d07d 413c
000001b0: 2847 8a3c ea8b c4bd 14c9 543d 24fd 17bd
000001c0: 504e 4ebd b4a1 333d 902b eebd f6c0 edbd
000001d0: 16e0 fcbd e083 903c 2667 c6bd 966e b63d
000001e0: 1c4d fabd b8b0 e0bd 681b ea3c c08f 513b
000001f0: 60fa 98bd 4ef6 95bd d006 3bbd c68b 8bbd
00000200: ec38 46bd 7830 1b3d ca48 a63d 6036 f83c
00000210: 1232 ecbd 3043 d53d 7873 e6bc 4214 c5bd
00000220: 50de 573d 484a 3ebd 58c2 92bc 5e82 d23d
00000230: 6227 c3bd 28a5 d3bd 16ee ebbd 1051 3d3d
00000240: 70fb 65bd 005f 41ba 78fb a0bc 0ec2 d33d
00000250: 28a2 f3bd a0f7 e0bb 727f 803d 20ed 7bbd
00000260: 603e 13bc 34e8 61bd 205e fc3d bec2 8dbd
00000270: 704e 9b3d ae92 8cbd 5e3f f93d 98cf 853d
00000280: bee8 df3d 0064 b8bb d48e 1cbd 4806 ccbc
00000290: 50f2 5dbd 966d 9abd c85f 86bd 0896 acbd
000002a0: 3af5 ae3d 9c68 36bd 706e ad3c 549e 76bd
000002b0: a043 8f3b 50e2 8c3d 30ad d83d a80e 64bd
000002c0: 0002 bb39 503d 313d 9ea0 df3d 3043 d03d
000002d0: 00a1 403d 52af d3bd 4ea3 e5bd ae04 cf3d
000002e0: 001a b23d c649 ac3d 804a cabd 4ec8 c43d
000002f0: 1e48 f53d dc42 2dbd 54dc 473d c07d 643d
00000300: 80c1 85bd 70d0 d2bc a85b ca3d e053 29bd
00000310: dc79 3e3d 869f a33d 8050 723b e024 d43b
00000320: 3457 6b3d 12e4 fa3d 7a40 c0bd c496 dd3d
00000330: f427 3a3d d49b 7d3d a4b4 fb3d 308a 75bc
00000340: 54c1 abbd 309d 6d3d 806e 11bb d2d9 efbd
00000350: bc93 2f3d 5007 e93c acdd 723d 4051 a2bb
00000360: 3208 afbd 2069 c3bb 789d fbbd 108b 37bd
00000370: 842f ffbd 888d f7bd 509d 19bc 28cc fabd
00000380: beab f5bd 3248 efbd 5c16 23bd e273 e6bd
00000390: a6f6 a5bd 0a23 c33d fa17 acbd 1055 a73d
000003a0: 2041 9fbc 48ad 333d eae8 8e3d f2d5 d1bd
000003b0: e43c fc3d ea37 d43d ee5b 8d3d 1262 dabd
000003c0: d648 efbd 3413 1bbd d2c3 9c3d da1a d53d
000003d0: 1827 e9bc 0c98 3c3d 1078 cc3c c053 17bc
000003e0: 807d 513b 5478 f63d b45d cbbd 080a 43bd
000003f0: ce10 cc3d d0c3 68bc b8fc 943c 0e08 ccbd

critic.2.bias f4 [128]
0.0 0.0 0.0 0.0 0.0 0.0 0.0 0.0
0.0 0.0 0.0 0.0 0.0 0.0 0.0 0.0
0.0 0.0 0.0 0.0 0.0 0.0 0.0 0.0
0.0 0.0 0.0 0.0 0.0 0.0 0.0 0.0
0.0 0.0 0.0 0.0 0.0 0.0 0.0 0.0
0.0 0.0 0.0 0.0 0.0 0.0 0.0 0.0
0.0 0.0 0.0 0.0 0.0 0.0 0.0 0.0
0.0 0.0 0.0 0.0 0.0 0.0 0.0 0.0
0.0 0.0 0.0 0.0 0.0 0.0 0.0 0.0
0.0 0.0 0.0 0.0 0.0 0.0 0.0 0.0
0.0 0.0 0.0 0.0 0.0 0.0 0.0 0.0
0.0 0.0 0.0 0.0 0.0 0.0 0.0 0.0
0.0 0.0 0.0 0.0 0.0 0.0 0.0 0.0
0.0 0.0 0.0 0.0 0.0 0.0 0.0 0.0
0.0 0.0 0.0 0.0 0.0 0.0 0.0 0.0
0.0 0.0 0.0 0.0 0.0 0.0 0.0 0.0
00000000: 0000 0000 0000 0000 0000 0000 0000 0000
00000010: 0000 0000 0000 0000 0000 0000 0000 0000
00000020: 0000 0000 0000 0000 0000 0000 0000 0000
00000030: 0000 0000 0000 0000 0000 0000 0000 0000
00000040: 0000 0000 0000 0000 0000 0000 0000 0000
00000050: 0000 0000 0000 0000 0000 0000 0000 0000
00000060: 0000 0000 0000 0000 0000 0000 0000 0000
00000070: 0000 0000 0000 0000 0000 0000 0000 0000
00000080: 0000 0000 0000 0000 0000 0000 0000 0000
00000090: 0000 0000 0000 0000 0000 0000 0000 0000
000000a0: 0000 0000 0000 0000 0000 0000 0000 0000
000000b0: 0000 0000 0000 0000 0000 0000 0000 0000
000000c0: 0000 0000 0000 0000 0000 0000 0000 0000
000000d0: 0000 0000 0000 0000 0000 0000 0000 0000
000000e0: 0000 0000 0000 0000 0000 0000 0000 0000
000000f0: 0000 0000 0000 0000 0000 0000 0000 0000
00000100: 0000 0000 0000 0000 0000 0000 0000 0000
00000110: 0000 0000 0000 0000 0000 0000 0000 0000
00000120: 0000 0000 0000 0000 0000 0000 0000 0000
00000130: 0000 0000 0000 0000 0000 0000 0000 0000
00000140: 0000 0000 0000 0000 0000 0000 0000 0000
00000150: 0000 0000 0000 0000 0000 0000 0000 0000
00000160: 0000 0000 0000 0000 0000 0000 0000 0000
00000170: 0000 0000 0000 0000 0000 0000 0000 0000
00000180: 0000 0000 0000 0000 0000 0000 0000 0000
00000190: 0000 0000 0000 0000 0000 0000 0000 0000
000001a0: 0000 0000 0000 0000 0000 0000 0000 0000
000001b0: 0000 0000 0000 0000 0000 0000 0000 0000
000001c0: 0000 0000 0000 0000 0000 0000 0000 0000
000001d0: 0000 0000 0000 0000 0000 0000 0000 0000
000001e0: 0000 0000 0000 0000 0000 0000 0000 0000
000001f0: 0000 0000 0000 0000 0000 0000 0000 0000

critic.4.weight f4 [1, 128]
-0.13391294 -0.20314045 -0.031140152 -0.17097782 -0.19617333 0.21034506 0.20027797 -0.14442348
0.07171195 0.10368658 0.1393817 0.17643605 0.026850395 0.015066288 -0.05020609 -0.0011952014
-0.104663685 0.07605465 0.19588757 0.17035487 0.11715423 0.01872411 -0.014912958 -0.097536445
-0.047639143 0.0058465605 0.21526399 0.012435966 0.011160423 -0.103741646 0.15891957 0.06616149
0.050761055 0.059639517 0.20208842 -0.2096559 0.020006105 0.09844717 0.11103462 -0.1733748
0.1689877 -0.044944678 0.18767042 -0.08587782 0.10115681 -0.17420667 -0.023650121 -0.16340652
-0.11752628 -0.016460016 0.114564896 -0.04216447 0.21224813 -0.066488355 -0.20728831 0.18153653
-0.093069345 -0.16477653 -0.12991264 0.18203308 0.10813892 -0.1926489 -0.042155933 -0.14239495
0.19293742 0.18506669 0.1455911 0.18299155 -0.0029137933 0.21063516 -0.1542369 0.00023865978
-0.070767984 7.990462e-05 -0.20417666 0.1035857 -0.045469403 -0.007255663 -0.1164986 0.08757374
-0.07459649 0.050474934 -0.053462207 -0.1898232 0.13325766 -0.014621543 0.057604622 0.13231608
0.027242718 0.013843321 0.16478574 0.14220093 -0.09479305 -0.1232611 0.16219196 -0.024172021
0.0527236 0.16933873 0.17480539 0.14676556 -0.13709123 0.116300605 0.14017487 -0.02871026
-0.0069272523 -0.038726617 0.14979841 -0.19826138 0.18548363 -0.010384798 -0.006675224 0.12767689
-0.0685921 0.11307136 0.020801451 0.18757902 0.17719908 0.15063924 0.10683988 0.1938377
0.123283006 0.12794876 0.18465531 0.0134331025 0.1333579 -0.022168776 0.07977995 0.17528404
00000000: 7920 09be 0d04 50be a219 ffbc cf14 2fbe
00000010: a9e1 48be b264 573e ab15 4d3e c0e3 13be
00000020: b7dd 923d a159 d43d 14ba 0e3e a7ab 343e
00000030: 5cf5 db3c 98d8 763c e7a4 4dbd 4ea8 9cba
00000040: ea59 d6bd 8ac2 9b3d c096 483e 8271 2e3e
00000050: 8fee ef3d 4e63 993c 7b55 74bc 30c1 c7bd
00000060: 4321 43bd 8194 bf3b 2a6e 5c3e 39c0 4b3c
00000070: 35da 363c 8076 d4bd d0bb 223e ad7f 873d
00000080: d3ea 4f3d 9148 743d 44f0 4e3e 09b0 56be
00000090: d8e3 a33c ab9e c93d 1e66 e33d 2a89 31be
000000a0: 1d0b 2d3e e917 38bd ad2c 403e b6e0 afbd
000000b0: 4d2b cf3d 3c63 32be e6bd c1bc 0a54 27be
000000c0: 9eb1 f0bd 28d7 86bc 00a1 ea3d a7b4 2cbd
000000d0: 9357 593e 0c2b 88bd 6343 54be b6e4 393e
000000e0: 249b bebd 2ebb 28be d207 05be e166 3a3e
000000f0: f077 dd3d c145 45be b3ab 2cbd fbcf 11be
00000100: 6391 453e 1f82 3d3e d515 153e 2362 3b3e
00000110: 57f5 3ebb beb0 573e 47f0 1dbe bf40 7a39
00000120: ceee 90bd 7792 a738 b013 51be bd24 d43d
00000130: 203e 3abd eac0 edbb d196 eebd dc59 b33d
00000140: 0bc6 98bd cebe 4e3d 30fb 5abd 0361 42be
00000150: b274 083e 328f 6fbc d3f2 6b3d de7d 073e
00000160: 1f2c df3c 19cf 623c 98bd 283e 1f9d 113e
00000170: dc22 c2bd 5170 fcbd a615 263e 6704 c6bc
00000180: b4f4 573d 2267 2d3e 2f00 333e b649 163e
00000190: a561 0cbe 032f ee3d 008a 0f3e c731 ebbc
000001a0: 01fe e2bb cd9f 1ebd c164 193e 0805 4bbe
000001b0: 6cef 3d3e 0025 2abc d6bb dabb bbbd 023e
000001c0: 047a 8cbd f591 e73d ce67 aa3c b714 403e
000001d0: ad73 353e 2c41 1a3e dece da3d 647d 463e
000001e0: cd7b fc3d 0005 033e 4816 3d3e 8416 5c3c
000001f0: f98e 083e 4b9b b5bc ac63 a33d a97d 333e
