A5/modelset/a3c/a3c_actor_critic.pt (torch, 276479 bytes, 10 tensors)

actor.0.weight f4 [256, 3]
0	0x3e0f8ce2	0.14018586
1	0xbda33683	-0.07969382
2	0x3de2b8d2	0.11070408
3	0xbe0f2e87	-0.13982593
4	0x3d12e55d	0.03586327
5	0x3c11e474	0.008904565
6	0x3e1c8cb2	0.15288046
7	0x3d955c62	0.07293011
8	0xbcfd8ca3	-0.03095085
9	0xbdddc7bc	-0.10829112
10	0x3ded6ac8	0.115926325
11	0x3dc5cf53	0.096586846
12	0xbdc63879	-0.0967874
13	0x3db2f221	0.08737589
14	0x3e16958f	0.1470549
15	0x3dd153c3	0.102210544
16	0x3e0f12d1	0.13972022
17	0x3e140675	0.14455588
18	0xbded5e3c	-0.115902394
19	0x3e1391ec	0.14411134
20	0x3d381364	0.044940367
21	0x3ddc23da	0.10749026
22	0x3dfca60e	0.1233636
23	0xbdab9e7d	-0.083798386
24	0xbdd04e2d	-0.10171161
25	0xbd849976	-0.06474583
26	0xbcd34b04	-0.025792606
27	0x3e022034	0.12707597
28	0x3db7d974	0.08977023
29	0xbd4fe622	-0.05075658
30	0x3b8f9bb5	0.0043825754
31	0xbd53f935	-0.051751334
32	0x3dc1556e	0.094401225
33	0x3d51719e	0.051133744
34	0xbc3c4d50	-0.011493042
35	0x3d782809	0.060585056
36	0xbd8cbaa5	-0.06871537
37	0xbdbba986	-0.091631934
38	0xbdb1701f	-0.086639635
39	0x3dc85bea	0.09783156
40	0xbdc04220	-0.09387612
41	0x3c9dadf5	0.019247988
42	0x3b0c5a7a	0.0021416233
43	0x3d822fad	0.0635675
44	0x3d72c4e1	0.05926979
45	0xbe15ca01	-0.1462784
46	0xbde922b5	-0.11383573
47	0x3dfafb9f	0.12255024
48	0xbcccca2c	-0.024998747
49	0x3dc60281	0.09668446
50	0xbceded88	-0.029043928
51	0xbc809019	-0.015693711
52	0xbdf465f1	-0.11933506
53	0xbdf0ebf1	-0.11763752
54	0xbc21027a	-0.009827251
55	0xbdd38656	-0.10328357
56	0x3df7308b	0.12069806
57	0x3da77c6b	0.08178028
58	0xbdaf5d5a	-0.08562727
59	0x3d7749b2	0.060373016
60	0xbe0edf6e	-0.13952419
61	0xbe1aed6d	-0.15129633
62	0x3c0c7478	0.00857269
63	0xbe194ab0	-0.14969897
64	0x3d1491c9	0.036271844
65	0xbd33c3f4	-0.043888047
66	0xbd88e191	-0.066836484
67	0x3de6084e	0.11232053
68	0x3df516ee	0.11967264
69	0xbe1081d0	-0.1411202
70	0xbc93b5a4	-0.018030949
71	0xbdc7ae84	-0.09750083
72	0xbd153749	-0.036429677
73	0xbd58bf48	-0.052916795
74	0x3d99ed2c	0.0751594
75	0xba99b18f	-0.001172589
76	0x3d99c4e2	0.075082555
77	0xbd6906b5	-0.056891162
78	0x3d8a9404	0.06766513
79	0xbe183fa7	-0.14868031
80	0x3ccf54c6	0.025308978
81	0xbd5f1199	-0.05446014
82	0xbe0637b9	-0.13107194
83	0xbd0b76e2	-0.034048922
84	0x3da41ab3	0.08012905
85	0xbd97f8eb	-0.07420524
86	0x3d4c764c	0.049917504
87	0xbc9c75b3	-0.019099092
88	0x3e005bc6	0.12535009
89	0xbe0300e2	-0.12793306
90	0x3e1b3d47	0.15160094
91	0xbdb57d92	-0.08861841
92	0x3dd714b7	0.10501998
93	0xbd1c5cfa	-0.038174607
94	0x3e19c56d	0.15016718
95	0x3e0e5542	0.13899711
96	0x3c587b64	0.013213012
97	0xbe132e7b	-0.143732
98	0x3d566005	0.052337665
99	0xbddbe6cc	-0.107373804
100	0xbc56fbe8	-0.013121583
101	0xbdb96f3d	-0.0905442
102	0xbdf95b1c	-0.12175581
103	0x3d4f3608	0.050588638
104	0xbdb3bf5c	-0.08776733
105	0x3da8983c	0.082321614
106	0x3dbb02c5	0.091313876
107	0x3d31db8a	0.04342226
108	0xbd99de77	-0.07513135
109	0xbe00f1ea	-0.12592283
110	0xbdbb2efc	-0.09139821
111	0x3c0620a9	0.008186498
112	0x3e02f4d6	0.1278871
113	0x3ddc2159	0.10748548
114	0x42dc3de6	110.120895
115	0x430ca890	140.65845
116	0x43e454d6	456.66278
117	0x3d904bf2	0.070457354
118	0xbe05b0a3	-0.13055663
119	0x3cfb55ab	0.030680498
120	0xbda35571	-0.07975281
121	0xbd94dd84	-0.07268813
122	0x3dfd4d0a	0.1236821
123	0xbdc45da6	-0.095881745
124	0x3d60c295	0.054873068
125	0x3e0e9382	0.13923457
126	0x3dd9edfd	0.10641096
127	0xbbd90baa	-0.006623705
128	0xbda3d1a0	-0.07998967
129	0xbe19c233	-0.15015487
130	0x3e07b968	0.1325432
131	0xbd1ccd12	-0.038281508
132	0xbe1875bd	-0.14888664
133	0x3c9bc7ec	0.019016229
134	0x3dbc29f2	0.09187688
135	0xbd7eb20b	-0.062181514
136	0xbc4cf78a	-0.01251019
137	0xbdd2022d	-0.10254321
138	0x3dbf8b11	0.09352697
139	0xbd8e70a1	-0.06955076
140	0xbdbfea77	-0.093708925
141	0xbdcda67a	-0.100415185
142	0x3dbe7749	0.093000956
143	0xbc771ef5	-0.015083064
144	0xbdd7d1ad	-0.10538039
145	0x3cb441a1	0.02200395
146	0xbd471078	-0.04859969
147	0xbd5d482b	-0.054023903
148	0xbdb164d0	-0.086618066
149	0xbe043f2f	-0.12914728
150	0xbd0f2be3	-0.034953963
151	0xbcb1faae	-0.021725979
152	0x3db77cf8	0.08959383
153	0x3d29ce12	0.04145629
154	0xbd8dc955	-0.06923167
155	0xbd6c4870	-0.05768627
156	0x3cb7ce90	0.022437364
157	0xbdf9d326	-0.121984765
158	0xbdb10481	-0.08643437
159	0xbc20aab7	-0.009806327
160	0x3ddb5701	0.10709954
161	0xbe0148df	-0.12625454
162	0x3da637ea	0.081161335
163	0xbe12b97e	-0.14328572
164	0x3bb2653c	0.005444197
165	0xbdd5fa5b	-0.10448142
166	0xbd01c2cd	-0.031679917
167	0xbd49b759	-0.04924712
168	0x3a9d4ba8	0.0012000697
169	0xbd2237d5	-0.039604027
170	0xbdb234be	-0.08701466
171	0xbc3d8841	-0.01156813
172	0x3c8fc48e	0.01754978
173	0x3dceeb4a	0.101034716
174	0x3e06c796	0.13162073
175	0x3dec65f2	0.11542882
176	0x3da13448	0.078713
177	0xbd12884f	-0.035774525
178	0x3d830869	0.063980885
179	0xbcb8c889	-0.02255656
180	0x3e0c39bf	0.13693903
181	0xbdea7941	-0.114489086
182	0xbc6c3c37	-0.014418653
183	0x3e053f11	0.13012339
184	0xbdb71b88	-0.08940798
185	0x3e15c949	0.14627565
186	0xbe0761cb	-0.13220899
187	0xbdb01644	-0.08597997
188	0x3c3ea926	0.011637008
189	0xbc8ef825	-0.017452309
190	0x3d1603ef	0.036624845
191	0xbe0e7dfc	-0.13915247
192	0x3cff6c2d	0.031179512
193	0xbbd7ecf5	-0.006589527
194	0x3e0d208e	0.1378195
195	0xbda9b48e	-0.08286391
196	0x3e009bbc	0.12559408
197	0xbd8dcb2e	-0.06923519
198	0x3e09726c	0.13422555
199	0xbddd9a2c	-0.108204216
200	0xbc8f125c	-0.01746481
201	0x3df20de6	0.11819057
202	0x3e1a692a	0.1507918
203	0x3d0e83fa	0.03479383
204	0x3da83ff3	0.08215322
205	0x3d78c6a9	0.060736332
206	0xbd8735bf	-0.06602048
207	0x3e1b0aba	0.1514081
208	0x3d16102e	0.036636524
209	0x3d52d854	0.051475838
210	0xbb085759	-0.0020804016
211	0xbdf1e0a6	-0.118104264
212	0xbd2df389	-0.04246858
213	0xbdfc28f8	-0.12312502
214	0x3d9f4bbe	0.077781186
215	0x3db82dc9	0.08993108
216	0x3dced5fa	0.100994065
217	0x3e131fe1	0.1436763
218	0x3cf92fe1	0.030418338
219	0xbd94b6ff	-0.07261466
220	0xbdf46a78	-0.1193437
221	0x3adbd9a2	0.0016773234
222	0x3d95106b	0.07278522
223	0x3dc255c5	0.094890155
224	0x3df40b63	0.11916234
225	0xbdf17090	-0.11789048
226	0xbddb2f1b	-0.10702344
227	0xbe0eb7a4	-0.13937241
228	0x3d85d540	0.06534815
229	0xbcb034d4	-0.021509565
230	0x3d2a0784	0.041511074
231	0xbd0d6d69	-0.03452817
232	0x3d1d6c00	0.038433075
233	0xbc984998	-0.01858978
234	0xba709577	-0.00091775454
235	0x3de89a47	0.11357551
236	0xbc94d606	-0.01816846
237	0x3d86ff27	0.06591635
238	0xbe0935ec	-0.13399476
239	0x3d97113a	0.073763326
240	0xbc546bab	-0.012965123
241	0xbe18105a	-0.14849988
242	0x3c6e0c77	0.014529339
243	0xbdae1591	-0.08500207
244	0xbe0d18e8	-0.13779032
245	0x3ca4fb09	0.020139234
246	0x3e184263	0.14869075
247	0xbe1652ed	-0.14680071
248	0xbda50f14	-0.080595165
249	0xbd68eb5f	-0.056865092
250	0xbd5b48c0	-0.053536177
251	0xbe0bb22e	-0.13642189
252	0x3de18f86	0.11013703
253	0xbe01dd67	-0.12682115
254	0x3c9102d6	0.017701548
255	0x3df51a35	0.11967889

actor.0.bias f4 [256]
0	0x39e7ab9d	0.00044187615
1	0x3a3a541a	0.0007107869
2	0xb9d57b6c	-0.00040718482
3	0xba0b867c	-0.0005322469
4	0xb9e7a7d5	-0.00044184798
5	0xba3104bd	-0.000675272
6	0x38bee2bb	9.102138e-05
7	0xb92683f7	-0.00015880154
8	0xb9dd3328	-0.0004219052
9	0xba2dc182	-0.0006628261
10	0x390be946	0.00013342974
11	0x3a444e41	0.00074884674
12	0xbb72ceac	-0.0037049456
13	0xbb0d9177	-0.0021601596
14	0xb90aeee1	-0.00013249695
15	0x39f9ef0b	0.00047671082
16	0xba67de45	-0.00088450714
17	0x3b41fdd3	0.0029600754
18	0xb99e5c6b	-0.00030204965
19	0xb94d8fc7	-0.00019603885
20	0xb9277b11	-0.00015972207
21	0x38878557	6.462138e-05
22	0xb99f2780	-0.00030356273
23	0x3a7555fb	0.00093588204
24	0xb987d6da	-0.00025909283
25	0xb9cd7900	-0.000391908
26	0xbaa20bf9	-0.0012363187
27	0xbb810567	-0.0039374116
28	0x39202b05	0.00015274815
29	0x3a27b046	0.0006396811
30	0x39df50b3	0.00042594
31	0x39b63eeb	0.00034760623
32	0x3a8fbd4b	0.0010966448
33	0x3a61e1d4	0.000861672
34	0xbb05b61a	-0.002040273
35	0xb846df86	-4.741505e-05
36	0x3b9c68bc	0.0047732275
37	0xb946a4a9	-0.00018944092
38	0xc36185f3	-225.52324
39	0xb9a0a6d0	-0.00030641863
40	0x3877d383	5.9086375e-05
41	0x3a148b50	0.0005666511
42	0xbc9863dd	-0.018602306
43	0xba6a0c93	-0.00089282653
44	0xb96f9830	-0.0002284951
45	0x3a9a5360	0.0011774115
46	0xbd48bbf9	-0.04900739
47	0x390c79e7	0.00013396853
48	0x3a5e57fa	0.00084817375
49	0xbb9f947b	-0.004869995
50	0x387fc819	6.0983093e-05
51	0xbb0f2de3	-0.002184742
52	0xbab9f0f2	-0.0014186187
53	0xb80f4346	-3.415651e-05
54	0x3ab52a5c	0.0013821828
55	0xba9744a8	-0.0011540847
56	0x3cc4660a	0.023974437
57	0x391abd46	0.00014757094
58	0xb8ad15eb	-8.2533654e-05
59	0x393afb1d	0.00017831889
60	0x3a6e5c61	0.0009092745
61	0x3aa1954d	0.001232782
62	0x3a946b85	0.0011323547
63	0xba8231d9	-0.0009933069
64	0xba509030	-0.0007956056
65	0xba564fac	-0.0008175324
66	0x39a45dce	0.00031350408
67	0x39e078af	0.00042814526
68	0x3a0382ad	0.00050167256
69	0xba200573	-0.00061043276
70	0x392ea887	0.00016656714
71	0x3972f654	0.00023170683
72	0x3a323b36	0.0006798984
73	0xba3dc50d	-0.00072391407
74	0xb8bbb92e	-8.951347e-05
75	0x3b028779	0.0019917174
76	0x39af9643	0.00033490555
77	0xb9a77b5b	-0.0003194463
78	0xb8e90b9a	-0.00011112467
79	0xba7897df	-0.000948308
80	0xbacad217	-0.0015473989
81	0xba7e52ae	-0.0009701651
82	0xb8c86de8	-9.557215e-05
83	0x3a494e8b	0.00076792453
84	0x39eacd8c	0.00044785102
85	0xb82a4628	-4.0596497e-05
86	0xb9fbfbd2	-0.0004806207
87	0xba441218	-0.0007479503
88	0x3a647c2a	0.00087160117
89	0xba82f39e	-0.0009990816
90	0xb990beb4	-0.00027607905
91	0xba7b84c2	-0.00095946726
92	0x39943bbe	0.0002827327
93	0x3bb7e3c8	0.0056118704
94	0x39c13a79	0.00036855394
95	0x39a4c700	0.00031428784
96	0xbbc8fd95	-0.006133745
97	0xbb5dd5eb	-0.003384943
98	0xb97b76d8	-0.00023981498
99	0x3a8fd024	0.0010972065
100	0xba1b0896	-0.000591406
101	0x36b6ccbd	5.4478573e-06
102	0xba288b75	-0.0006429472
103	0x3bfab1dc	0.007650597
104	0xba2875b4	-0.00064262305
105	0x3976dedc	0.0002354341
106	0x388ebb40	6.805966e-05
107	0xbb047db5	-0.0020216529
108	0xb9b6fb0a	-0.00034900784
109	0xb901448b	-0.00012327933
110	0x3a425684	0.00074134045
111	0x392144bc	0.00015379762
112	0x3a81b935	0.0009897115
113	0x3a56e2d2	0.0008197251
114	0xba110c6d	-0.00055331626
115	0x39582e45	0.00020616602
116	0xb9cb4a05	-0.00038774326
117	0x3a67da4d	0.000884448
118	0xb9b941a0	-0.00035334844
119	0xba2846b5	-0.00064192276
120	0xba1e5c59	-0.00060409826
121	0x3a4406fe	0.00074778486
122	0x3a64451c	0.0008707808
123	0xba014256	-0.00049308443
124	0x399f1c97	0.00030348144
125	0x3a1e876e	0.0006047402
126	0x3ac02f5a	0.0014662549
127	0xba453377	-0.00075226225
128	0xba1c3c6c	-0.00059599313
129	0x3a99fb08	0.0011747787
130	0x3a78f217	0.00094965234
131	0x3982a4ad	0.00024918225
132	0x36d22529	6.2628137e-06
133	0x39a6e8d3	0.00031835455
134	0xbaa29564	-0.0012404141
135	0x38bb177c	8.921229e-05
136	0xba6b1eae	-0.000896911
137	0xbafca96f	-0.0019276569
138	0xba1b52ba	-0.0005925108
139	0x3a30511a	0.0006725952
140	0x3a88c4d0	0.0010434631
141	0x3a673e09	0.00088211946
142	0xb9eedc89	-0.0004555921
143	0xb9b1abb4	-0.00033888
144	0xb7e32435	-2.7077369e-05
145	0x3a9555a7	0.0011393324
146	0x3a65da98	0.000876823
147	0x3845315b	4.7014426e-05
148	0xb9b58fc8	-0.00034630136
149	0xba7230c9	-0.0009238837
150	0x39053f09	0.00012707351
151	0xb9ebec85	-0.00044998914
152	0xb9e49a37	-0.00043602448
153	0xb9850802	-0.00025373703
154	0x3a8afdae	0.0010604167
155	0xba54daf0	-0.00081197824
156	0x3a92b25b	0.001119207
157	0xb94277da	-0.0001854593
158	0x3a503a7a	0.0007943284
159	0xba79bab6	-0.0009526418
160	0xb91a6b2e	-0.00014726512
161	0x3a42811b	0.0007419751
162	0xb989ea13	-0.00026305075
163	0x390e10fc	0.00013548502
164	0xb96cd60e	-0.00022586455
165	0xba7f9201	-0.00097492343
166	0xbaf8e246	-0.0018988333
167	0xb96038bd	-0.00021383441
168	0xba4a2c00	-0.0007712245
169	0xb9527069	-0.00020069037
170	0x39f70725	0.00047116834
171	0x3a4cd8b9	0.00078142766
172	0xb910bdeb	-0.0001380366
173	0x396b7d07	0.00022457923
174	0x3c4d6fe5	0.012538885
175	0x3c6aa4d1	0.014321522
176	0xb9a9fccc	-0.0003242254
177	0xba1919a7	-0.00058403093
178	0xb8e04d30	-0.000106955296
179	0x380e66b4	3.3951088e-05
180	0x3a13bb1d	0.0005635487
181	0xba8179fb	-0.0009878272
182	0x39ad2d89	0.00033031058
183	0x39da647c	0.00041655067
184	0x3a25611a	0.000630872
185	0xba4a09e8	-0.00077071646
186	0xb9df9d7a	-0.00042651204
187	0x393577b7	0.00017306102
188	0xb85527e2	-5.08203e-05
189	0xba0c95fe	-0.0005362927
190	0x3a02b799	0.00049864646
191	0xb9ce62d5	-0.00039365017
192	0x3b58d0e2	0.0033083488
193	0xba8b75d9	-0.001063998
194	0xbaad276d	-0.0013210602
195	0x3a8c03b3	0.0010682255
196	0x3a7f2162	0.00097324525
197	0x38ede563	0.00011343767
198	0xbab3cc0c	-0.0013717427
199	0xb9ff400c	-0.0004868511
200	0xb9475040	-0.00019008014
201	0x3a8f5fd5	0.0010938594
202	0x3d8ec656	0.06971423
203	0xb9136f6b	-0.00014060519
204	0x3bde07e2	0.006775842
205	0xbaa9e5c3	-0.0012962151
206	0x38cefd72	9.870053e-05
207	0x399fe1d2	0.00030495093
208	0xbab69047	-0.0013928496
209	0x39d7752c	0.00041095295
210	0x3aa38030	0.0012474116
211	0xbb2b0244	-0.002609388
212	0xba39f869	-0.0007094206
213	0xb9cd795c	-0.00039191067
214	0x35266af6	6.199547e-07
215	0x3aa0b8b4	0.0012262077
216	0xba6e33b8	-0.0009086686
217	0xbaa69843	-0.0012710172
218	0x3a188804	0.0005818608
219	0xb9e5c54c	-0.0004382528
220	0xb9dea024	-0.00042462454
221	0xb9ffc5d7	-0.00048784792
222	0xba4d7d08	-0.00078387605
223	0x3a18d7d8	0.0005830503
224	0x380028dc	3.055563e-05
225	0x3a98abf0	0.0011647921
226	0x3be55bb4	0.0069994573
227	0xb899c07c	-7.3314615e-05
228	0x39693669	0.00022240881
229	0xba2b8498	-0.00065428903
230	0x38f148a2	0.000115053044
231	0x3a4f74e0	0.0007913839
232	0x38d40631	0.00010110101
233	0xb9a9b995	-0.0003237246
234	0xbad1efef	-0.001601694
235	0x3b2132cc	0.0024596928
236	0x3a43dda6	0.0007471688
237	0x38b35daf	8.552835e-05
238	0xba07cf8b	-0.00051807676
239	0xb98c935b	-0.0002681267
240	0x3a0ef075	0.0005452701
241	0xb8f4992e	-0.000116633586
242	0x39f6beb0	0.0004706285
243	0xbc299059	-0.010349357
244	0xb8f09ca0	-0.000114732655
245	0xba6e7ed0	-0.0009097876
246	0xb9ba76b4	-0.00035565125
247	0x3a0ae615	0.0005298567
248	0xbb1451c0	-0.0022631735
249	0x3a955864	0.001139414
250	0xba6943bf	-0.00088983396
251	0xba6b6a5a	-0.0008980386
252	0xb8e824bb	-0.00011069464
253	0xbad4ddfa	-0.001624047
254	0xb99e6b89	-0.00030216228
255	0x3a2b99c2	0.0006546044

actor.2.weight f4 [128, 256]
0	0x3d3b6197	0.045747366
1	0xbc900d49	-0.01758446
2	0x40d91703	6.784059
3	0x3dbc403e	0.09191941
4	0xbda0b2ee	-0.07846628
5	0xbd0101d8	-0.0314959
6	0xbd484866	-0.04889717
7	0xbd08f689	-0.03343824
8	0xbdf29a98	-0.11845893
9	0x3fd9a6d9	1.7004043
10	0xbd0ba05c	-0.034088477
11	0x3d49718a	0.049180545
12	0x3b992920	0.004674092
13	0x3d45e977	0.048318353
14	0x3de42a08	0.11140829
15	0xbd89d783	-0.06730559
16	0x3dfd900c	0.123809904
17	0xbd9af586	-0.07566361
18	0xbdf81193	-0.12112727
19	0xbd15e3d5	-0.03659423
20	0xbd801f40	-0.062559605
21	0xbd3ef825	-0.046623368
22	0xbdbcc813	-0.09217849
23	0xbd4eac43	-0.05045725
24	0x3dc84275	0.09778301
25	0xbdfdb26e	-0.123875484
26	0xbc336a50	-0.01095064
27	0x3cd5bdfc	0.026091568
28	0x3df34874	0.11879054
29	0x3dfc6c92	0.12325396
30	0x3c659c08	0.0140142515
31	0xbd9387f6	-0.07203667
32	0xbd5b90c5	-0.05360486
33	0x3dc64506	0.09681134
34	0xbd46437a	-0.048404194
35	0xba90b556	-0.001104037
36	0x3d53bf84	0.051696315
37	0x3de627d1	0.11238063
38	0xc10a98cf	-8.662307
39	0xbdee0774	-0.11622515
40	0x3d9ff39a	0.07810135
41	0x3da58a0b	0.0808297
42	0xbde2cba9	-0.11074001
43	0xbd6e14ce	-0.05812531
44	0x3d6a21c0	0.057161093
45	0x3c4894e9	0.012242534
46	0xbd2c5fcd	-0.04208355
47	0xbde63483	-0.112404846
48	0x3b75ad82	0.0037487452
49	0x3dac1875	0.08403102
50	0xbd949d4a	-0.07256563
51	0xbdaae4b9	-0.08344407
52	0xbd140354	-0.036135986
53	0x3d8ff77e	0.07029627
54	0x3c1b986b	0.0094967885
55	0x3dcd3fd7	0.10021942
56	0xbd710077	-0.058838334
57	0x3d278840	0.040901423
58	0xbddd3064	-0.108002454
59	0xbdcf8964	-0.10133627
60	0xbd9cb0d8	-0.07650918
61	0x3d21a39a	0.039462663
62	0x3dd8e268	0.105900586
63	0x3d044868	0.032295614
64	0xbdf017b8	-0.11723274
65	0xbdd9cc37	-0.10634654
66	0x3c895a2f	0.016766636
67	0xbc96da7f	-0.018414734
68	0xbbde0000	-0.0067749023
69	0x3db2a788	0.0872336
70	0x3c9bf172	0.019036029
71	0x3d95822b	0.07300218
72	0xbd8aea72	-0.06782998
73	0xbd82eab4	-0.06392422
74	0x3d4648d2	0.04840929
75	0x3deb752d	0.11496959
76	0x3d1eee0e	0.038801245
77	0xbaca0202	-0.0015411975
78	0xbdb5cf8a	-0.088774756
79	0xbdd72939	-0.105059095
80	0xbc7f9e28	-0.015601672
81	0x3d9882ec	0.07446846
82	0x3d0e998f	0.034814414
83	0xbc066a05	-0.008203988
84	0xbd5d7d4e	-0.054074578
85	0x3da1c8f3	0.07899656
86	0x3df1c4c8	0.11805111
87	0xbd03837a	-0.032107808
88	0xbde3dac0	-0.111257076
89	0x3db9b7f5	0.0906829
90	0xbf87834b	-1.0586942
91	0x3d86faca	0.06590803
92	0xbd446b2e	-0.047953777
93	0xbdbbe155	-0.09173838
94	0x3da81eba	0.082089856
95	0x3cda4b93	0.026647365
96	0x3de19975	0.11015598
97	0x3c8dc381	0.017305138
98	0x3f56a659	0.83847576
99	0x3d9be8cf	0.07612764
100	0x3de96c14	0.113975674
101	0x3dcbf0a1	0.09958006
102	0x3d3bc5e5	0.045843024
103	0x3d99c55c	0.075083464
104	0x3d7dda04	0.061975494
105	0x3dfb2274	0.12262431
106	0x3bb166ea	0.0054138796
107	0xbd92e4a5	-0.07172517
108	0xbde81848	-0.11332756
109	0x3d76ee01	0.060285572
110	0x3d875c4d	0.06609402
111	0x3c36b847	0.011152334
112	0xbd07d0b4	-0.03315802
113	0xbd4ebf08	-0.05047515
114	0xbcfcdf83	-0.030868297
115	0x3de50e83	0.111844085
116	0xbd745a6b	-0.05965654
117	0x3c67a068	0.014137365
118	0xbd8d0d24	-0.06887272
119	0x3f8a7104	1.081574
120	0x3c0d999b	0.008642579
121	0xbd24ebb4	-0.040263847
122	0x3dfbf141	0.12301875
123	0x3c1f0404	0.009705547
124	0xbd246eff	-0.040144917
125	0x3c2cf5b2	0.010556625
126	0x3dde47bc	0.10853526
127	0x3c649824	0.013952289
128	0x3dac9974	0.08427706
129	0x3b79543e	0.0038044597
130	0x3dc6d945	0.097094096
131	0xbd956193	-0.072940014
132	0x3d7cdbf6	0.06173321
133	0x3d5faefd	0.05461024
134	0x3c92af94	0.017905988
135	0x3b2bc463	0.0026209585
136	0x3d120d38	0.035657138
137	0xbdd18eeb	-0.102323376
138	0xbd640b36	-0.055674754
139	0x3c1ae434	0.009453822
140	0x3be14950	0.0068751946
141	0x3d9b871a	0.07594128
142	0x3de0c6c3	0.10975411
143	0xbd10ecaf	-0.03538197
144	0x4147c426	12.485388
145	0x3b964b94	0.0045866463
146	0x3cccf558	0.025019333
147	0x3d1df4c9	0.038563523
148	0x3da77475	0.08176509
149	0x3db030f6	0.086030886
150	0xbca0782b	-0.01958855
151	0xbd81d9ac	-0.06340346
152	0xbdce3156	-0.10068004
153	0x3de8cf45	0.113676585
154	0x3cf1e2dd	0.029527122
155	0xbda6206f	-0.08111655
156	0x3d017e2a	0.03161446
157	0xbcf8cb14	-0.030370273
158	0xbc47a472	-0.012185203
159	0x3d8b4d9c	0.06801912
160	0xbdffe0d3	-0.12494054
161	0xbda5aa50	-0.08089125
162	0xbd892217	-0.06695955
163	0xbde6dce6	-0.11272602
164	0xbbda3e56	-0.006660263
165	0x3c327c88	0.010893948
166	0xbbc24b86	-0.0059294133
167	0xbde479e8	-0.11156064
168	0xbae30250	-0.0017319415
169	0x3d7ed879	0.062218163
170	0xbd9bb94d	-0.07603703
171	0xbdca55cd	-0.098796465
172	0xbd9b9319	-0.07596416
173	0xbdcffa5d	-0.10155175
174	0xbd604bf7	-0.054759946
175	0xbddfce27	-0.10927992
176	0x3d93aa37	0.072102
177	0x3da36a59	0.079792686
178	0xbcdb7970	-0.026791304
179	0x3d6cbdbc	0.057798132
180	0xbc5d818c	-0.013519656
181	0xbdffb1b7	-0.12485068
182	0xbda6f8e1	-0.08152939
183	0x3bb8b55b	0.0056368536
184	0x3d8fd756	0.07023494
185	0xbdd21284	-0.10257438
186	0x3dc818c1	0.097703464
187	0x3d0d7f5e	0.034545295
188	0x3de4b79f	0.111678354
189	0x3d9a7308	0.07541472
190	0x3dded31c	0.1088011
191	0x3dd3d373	0.10343065
192	0x3dc1d2d5	0.09464041
193	0x3d8d6643	0.069042705
194	0x3da41a0e	0.08012782
195	0x3cdb8988	0.026798978
196	0xbd8019db	-0.062549315
197	0x3d2531de	0.04033076
198	0xbd2e4dd4	-0.04255469
199	0xbd2b26e8	-0.04178515
200	0x3caa7165	0.020806024
201	0xbde05aa9	-0.10954792
202	0xbfb334f6	-1.4000537
203	0x3dda396c	0.106554836
204	0xbdecc089	-0.11560161
205	0xbde9569b	-0.11393472
206	0xbd6ebf50	-0.05828792
207	0xbdb575dd	-0.08860371
208	0xbdb0da0a	-0.08635338
209	0x3dc3fb9e	0.095694765
210	0xbd11e87d	-0.03562211
211	0xbcd15b4d	-0.02555623
212	0xbf70a3ba	-0.93999827
213	0x3d0bb53e	0.034108393
214	0xbde35258	-0.1109969
215	0xbd6d111c	-0.057877645
216	0xbdcd3003	-0.10018923
217	0x3bb3b8bb	0.005484668
218	0xbc9da1d9	-0.019242214
219	0x3cc646f5	0.024203757
220	0xbca5a8c8	-0.020222083
221	0xbc684637	-0.014176897
222	0xbcc86e3f	-0.024466632
223	0x3d3123d7	0.04324707
224	0x3db0f8e3	0.086412214
225	0xbaf1a0c4	-0.0018434753
226	0xbe209fe1	-0.15685989
227	0xbd8e5fd3	-0.06951871
228	0x3dbaf842	0.09129383
229	0x3dc6319b	0.0967743
230	0xbd4126dd	-0.047156204
231	0x3dc54202	0.096317306
232	0x3f8e90a0	1.1137886
233	0x3ce38738	0.027774438
234	0xbd8e8e2e	-0.069607124
235	0x3dacc05e	0.08435129
236	0x3d154be9	0.036449347
237	0x3de8283e	0.113358006
238	0xbd4365d9	-0.04770455
239	0xbd7cd721	-0.0617286
240	0x3db65538	0.08902973
241	0xbda76a85	-0.08174614
242	0xbdb2307d	-0.08700655
243	0x3a2a302f	0.0006492165
244	0xbd83dcad	-0.06438575
245	0x3cef2770	0.02919361
246	0x3c82a934	0.015949823
247	0xbdd0db8a	-0.10198124
248	0x3d8ae747	0.06782394
249	0x3de8866c	0.11353764
250	0x3db5d247	0.08877998
251	0xbdde87b9	-0.10865731
252	0xbc896b25	-0.016774723
253	0xbddd9cab	-0.10820898
254	0xbfa0ab6e	-1.2552316
255	0x3b2c0cb8	0.0026252698

actor.2.bias f4 [128]
0	0xb9a6fdb0	-0.00031851
1	0xba11b354	-0.0005558033
2	0x00000000	0.0
3	0xb9a259ff	-0.000309661
4	0x39a16f91	0.00030791436
5	0xb8b44242	-8.59541e-05
6	0x3a321983	0.00067939627
7	0xb9e23ac6	-0.0004314987
8	0xb8237269	-3.896878e-05
9	0xba38e91f	-0.0007053781
10	0xb9a259fd	-0.00030966094
11	0xba57029c	-0.0008201988
12	0x3995c7b7	0.00028568294
13	0xb9dd2cc1	-0.0004218575
14	0x396372b5	0.00021691139
15	0x39e880b4	0.0004434638
16	0xb9f22374	-0.00046184252
17	0xb8ae1ef6	-8.3027335e-05
18	0xb90b98a3	-0.00013312935
19	0x3a0d5503	0.0005391391
20	0xb9a259fc	-0.0003096609
21	0x00000000	0.0
22	0xba114375	-0.0005541363
23	0x3a264f33	0.0006344199
24	0xba8b2f9f	-0.0010619051
25	0xba5c6ea9	-0.00084088236
26	0x3896807e	7.176491e-05
27	0x39d14c8d	0.0003992062
28	0x3a59a1a4	0.00083019794
29	0x39078819	0.00012925304
30	0x3a391b05	0.0007061216
31	0x3a986e60	0.0011629574
32	0xb95bce9a	-0.00020962433
33	0x3a182fa5	0.00058054394
34	0xb991afc8	-0.00027787522
35	0xba275748	-0.00063835504
36	0x00000000	0.0
37	0xb8f60281	-0.000117306605
38	0x3a27f90d	0.0006407656
39	0xb9aa834a	-0.00032522745
40	0xb8816ac7	-6.171088e-05
41	0xb9a259fb	-0.00030966089
42	0x3958db14	0.00020680978
43	0xba5be3b3	-0.0008388117
44	0xb9f89713	-0.00047414805
45	0xba175c95	-0.00057739887
46	0xba0553ca	-0.0005086033
47	0x3a5bd283	0.00083855557
48	0xb9f04aaf	-0.0004583201
49	0x39702166	0.00022900625
50	0xba1a1152	-0.0005877215
51	0x39c218c6	0.0003702102
52	0xb9f81fc7	-0.00047325922
53	0x3916f01d	0.00014394564
54	0x39c08e8d	0.00036727302
55	0xb9aa834d	-0.00032522753
56	0x00000000	0.0
57	0x39a31fe4	0.00031113543
58	0xb9bb11ad	-0.0003568059
59	0x39a259fb	0.00030966089
60	0xba4ee3d9	-0.00078922283
61	0xba2852d9	-0.00064210367
62	0xb9f8973d	-0.00047414927
63	0x39883e98	0.00025986577
64	0xb9a25a00	-0.00030966103
65	0x39b8b816	0.0003523237
66	0xb9a199dc	-0.00030822947
67	0xb9a25a02	-0.0003096611
68	0xba175c99	-0.0005773991
69	0x3a31e570	0.0006786203
70	0xb9865e72	-0.0002562884
71	0x39aa28aa	0.00032455224
72	0xb97a01ad	-0.00023842482
73	0xb93fe296	-0.0001829959
74	0x399c79d5	0.0002984541
75	0xb9cdc28c	-0.00039245596
76	0x36b89362	5.500785e-06
77	0xba14bc19	-0.00056737807
78	0x3a321ac9	0.00067941524
79	0xba5ab3d8	-0.0008342839
80	0x39f7339c	0.00047149963
81	0xba1421ac	-0.00056507695
82	0x38895ebd	6.5503154e-05
83	0x3985a589	0.0002549107
84	0xba0729d0	-0.0005156072
85	0xba098441	-0.00052458426
86	0x399e05f2	0.00030140538
87	0xba175c87	-0.00057739805
88	0x00000000	0.0
89	0x3a5da9a9	0.0008455762
90	0x3a495b1c	0.0007681118
91	0x39fa223e	0.00047709228
92	0x39ffddb2	0.00048802566
93	0x39bc701e	0.00035941688
94	0x3a654d89	0.00087472104
95	0x3a3286a9	0.0006810227
96	0x3a7cef87	0.00096487295
97	0xba648bd8	-0.0008718348
98	0xb888f732	-6.531029e-05
99	0xb81718ed	-3.602442e-05
100	0xba312176	-0.0006757
101	0x3a74537c	0.00093203015
102	0x3868e33d	5.5524742e-05
103	0x3a419fc6	0.0007386174
104	0x3a568b6a	0.00081842265
105	0xba72693a	-0.00092472474
106	0xb9d2065e	-0.00040059065
107	0x00000000	0.0
108	0xb8ff8ac1	-0.000121851925
109	0xba4ded57	-0.0007855496
110	0x374e9612	1.2313498e-05
111	0x3a175c95	0.00057739887
112	0x39d6cbc0	0.00040969066
113	0x39c557e7	0.0003764026
114	0xba161ef8	-0.00057266606
115	0xba163941	-0.00057305774
116	0x3a1eb161	0.0006053653
117	0xb8629f4b	-5.4030952e-05
118	0x39c6226f	0.00037791158
119	0x3a175c91	0.00057739863
120	0x3a598cde	0.0008298884
121	0xba58e0f4	-0.0008273267
122	0x3657ba8c	3.2146081e-06
123	0x3a782508	0.00094659673
124	0xba3dff7a	-0.0007247847
125	0xb7071cfb	-8.053375e-06
126	0xba49effa	-0.0007703301
127	0xb8dd846f	-0.00010562769

actor.4.weight f4 [1, 128]
0	0xbe3641df	-0.17798565
1	0xbd23153a	-0.039815165
2	0x3d232f28	0.039839894
3	0xbe3a482b	-0.18191592
4	0x3e275d85	0.16344269
5	0xbaa8fb1f	-0.0012892223
6	0x3e7b4edb	0.245418
7	0xbdfc72be	-0.12326573
8	0x3d023bbb	0.031795245
9	0xbe345357	-0.17609917
10	0xbdcdf254	-0.10055986
11	0xbda4bbc3	-0.08043625
12	0x3cfec167	0.03109808
13	0xbd91ed8b	-0.07125386
14	0xbdff98e0	-0.124803305
15	0x3ce1f271	0.027581425
16	0x3e1f8055	0.15576299
17	0xc252f16a	-52.735756
18	0xbe116872	-0.14199999
19	0xbe42a2ea	-0.1900746
20	0xbde77289	-0.11301143
21	0xbe1a6e0e	-0.15081045
22	0xbde33033	-0.11093178
23	0x3d351917	0.04421338
24	0x3d79dd26	0.06100192
25	0x3db35e9f	0.08758282
26	0xbbb5311f	-0.0055295373
27	0x3e27d77c	0.16390795
28	0x3d442435	0.047886092
29	0x3e2ea1d4	0.1705392
30	0xbe106b24	-0.14103371
31	0xbda6a7c1	-0.08137465
32	0x3e117780	0.14205742
33	0x3dbce015	0.09222428
34	0xbe1095b8	-0.14119613
35	0xbc5db275	-0.013531317
36	0x3e49da14	0.19712096
37	0xbc67f4d2	-0.014157491
38	0x3d7370f9	0.05943391
39	0x3dd0a17f	0.10187053
40	0xbe55e990	-0.20889878
41	0xbe284df6	-0.1643599
42	0x3b003a2a	0.0019565918
43	0xbd640dc0	-0.055677176
44	0xbdc412fc	-0.095739335
45	0x421bf6cd	38.991016
46	0x3e221f57	0.15832268
47	0x3dac669b	0.08418008
48	0xbe382d08	-0.17985928
49	0x3df16173	0.11786165
50	0xbe228a3e	-0.15873048
51	0xbcc77a80	-0.024350405
52	0xbd9633e9	-0.0733412
53	0x3e2a3f19	0.16625632
54	0x3e3281cb	0.17432325
55	0x3d506c1d	0.050884355
56	0xbc3d29e0	-0.011545628
57	0x3e1b0602	0.1513901
58	0xbe2b1fd3	-0.16711359
59	0x3d8c5df6	0.06853859
60	0xbe18b317	-0.14912067
61	0xbe432508	-0.19057095
62	0xbd017196	-0.031602465
63	0xbdf0c9e5	-0.11757258
64	0xbe20a24f	-0.15686916
65	0xbd4b89bf	-0.04969191
66	0xbd8012e1	-0.06253601
67	0xbe59cdf9	-0.21269979
68	0x41b4e9a5	22.614084
69	0x3e33db13	0.17564039
70	0xbdf119a3	-0.11772468
71	0x3e1a9b5d	0.15098329
72	0xbd080d19	-0.033215616
73	0x3e156523	0.14589362
74	0x3e3e7057	0.18597542
75	0xbde3811a	-0.111086085
76	0x3d95a171	0.07306183
77	0xbca9e9f9	-0.02074145
78	0x3d9bdc17	0.07610338
79	0xbe00abe7	-0.12565576
80	0x3e1c9090	0.15289521
81	0xbe4360c1	-0.19079877
82	0x3cb483e8	0.022035554
83	0xbe246890	-0.16055512
84	0x3d93881f	0.072036974
85	0xbe596865	-0.2123123
86	0xbd48fa66	-0.049066924
87	0x40bf0054	5.96879
88	0x3d8a1440	0.06742144
89	0x3ccfea60	0.025380313
90	0x3e40d4f4	0.18831235
91	0x3de8a5c4	0.11359742
92	0x3dbc6ead	0.09200797
93	0x3cfeb79a	0.031093407
94	0x3d04545a	0.032307006
95	0x3e187c50	0.14891171
96	0xbdf80134	-0.121096045
97	0xbe0235ad	-0.12715788
98	0x3babe3eb	0.005245676
99	0x3e01f15b	0.12689726
100	0xbaf90cf2	-0.001900105
101	0xbd445469	-0.047932062
102	0xbd0cd0c5	-0.034378786
103	0x3e10d470	0.14143538
104	0x3df4bfae	0.119506225
105	0x3e193a47	0.14963637
106	0xbe03f944	-0.12888056
107	0x3c7cecf0	0.01543735
108	0xbdac4367	-0.084112935
109	0xbe244916	-0.16043505
110	0xbd582aaf	-0.05277508
111	0x434d5d6e	205.36496
112	0x3e2dbcad	0.16966505
113	0x3e1d1a3d	0.1534204
114	0x3d3c1d85	0.04592659
115	0xbe4b1b09	-0.19834532
116	0x3e1b8c2c	0.1519019
117	0xbe1aeb70	-0.15128875
118	0x3da14854	0.078751236
119	0x42f55f61	122.68629
120	0x3e2a3666	0.16622314
121	0xbe58f82a	-0.21188417
122	0xbe28c5a2	-0.16481641
123	0x3dffa70f	0.12483036
124	0x3e47c75b	0.19509642
125	0xbe1122b9	-0.14173402
126	0xbdb82e43	-0.08993199
127	0xb857fa96	-5.149337e-05

critic.0.weight f4 [256, 3]
0	0x3d928183	0.07153609
1	0x3deb147d	0.11478517
2	0x3da0893b	0.07838675
3	0x3c6ffaba	0.01464718
4	0x3d00038c	0.031253383
5	0x3d90d671	0.070721515
6	0xbd271be3	-0.04079808
7	0xbcec8e09	-0.028876321
8	0x3dbcb6c0	0.09214544
9	0xbeab73ff	-0.33486935
10	0xbe751013	-0.23931913
11	0xbe0ef4bc	-0.13960546
12	0xbe853696	-0.26018208
13	0xbe4ea74b	-0.20181005
14	0xbdf673eb	-0.12033828
15	0xbe01def9	-0.12682714
16	0x3d7fde4d	0.062467862
17	0xbdb0c8a6	-0.08632021
18	0x3e21a0df	0.15784024
19	0xbe1b635d	-0.15174623
20	0x3d920829	0.07130463
21	0x3de4e55c	0.11176559
22	0x3d8125d6	0.06306045
23	0xbd644ab8	-0.05573532
24	0xbd1dbcff	-0.03851032
25	0xbd95e19e	-0.07318424
26	0x3de7b912	0.11314596
27	0x3bd5588a	0.006510799
28	0x3bebbc98	0.007194113
29	0xbd922465	-0.07135848
30	0xbd5385e0	-0.051641345
31	0x3d9770b3	0.073945425
32	0x3d98bff5	0.07458488
33	0xbd300dcc	-0.042981908
34	0xbe43433c	-0.19068617
35	0x3de4cd93	0.11172023
36	0xbdcd64c1	-0.10028983
37	0xbc82a3f1	-0.015947314
38	0x3de4cc30	0.11171758
39	0x3e42f91d	0.19040342
40	0xbc45c292	-0.012070315
41	0xbd5f9783	-0.054587852
42	0x3e832c42	0.25619704
43	0x3d715aeb	0.058924597
44	0x3d48a70d	0.048987437
45	0x3e18c5b5	0.14919169
46	0xbe31a83d	-0.17349334
47	0x3d946a72	0.07246865
48	0x3f1e25a1	0.6177617
49	0x3e57a541	0.21059133
50	0xbd5e0d2e	-0.054211788
51	0xbd0da92e	-0.03458517
52	0xbdbb28b6	-0.09138624
53	0x3d9e88b2	0.07740916
54	0xbe852356	-0.26003522
55	0x3e2282bd	0.15870185
56	0xbd3092bb	-0.043108683
57	0xbd363662	-0.044485457
58	0xbe1fe216	-0.15613589
59	0x3dd81b26	0.10552053
60	0xbe34e9f4	-0.17667371
61	0xbe03b917	-0.12863575
62	0xbde338a3	-0.11094787
63	0xbbf72c71	-0.0075431396
64	0x3e2b5c9f	0.16734551
65	0xbd843bf3	-0.06456747
66	0xbbac01ff	-0.0052492614
67	0x3e1f8040	0.15576267
68	0xbd78db33	-0.06075592
69	0x3e11b3a9	0.14228691
70	0xbe1a32fa	-0.15058509
71	0x3dadb8c4	0.08482507
72	0xbe9ba7e4	-0.30401528
73	0xbe7ab1f4	-0.24481946
74	0xbe0440e7	-0.12915383
75	0xbe49e61c	-0.19716686
76	0x3e4a210e	0.19739172
77	0xbd611e7c	-0.054960713
78	0xbe83fa18	-0.25776744
79	0xbe2d42da	-0.16920033
80	0xbdf7806b	-0.12085041
81	0xbe8f5960	-0.27997875
82	0xbd978353	-0.07398095
83	0xbdfa48ac	-0.12220892
84	0x3e5deb17	0.21671711
85	0xbdbd673b	-0.09248205
86	0x3d5f3c5f	0.054500934
87	0xbceb8f2e	-0.028754797
88	0x3e17d74d	0.14828224
89	0x3d9bc4c8	0.076058924
90	0xbec7d182	-0.3902703
91	0x3db4ea4b	0.0883375
92	0xbcfb084e	-0.030643608
93	0xbdcc2829	-0.099685974
94	0xbd0cdfb8	-0.034393042
95	0x3decc1a4	0.115603715
96	0x3cbf3c61	0.02334422
97	0x3dbfebd9	0.09371156
98	0xbd6e0ef5	-0.058119733
99	0xbe261229	-0.16217865
100	0x3d177dfd	0.036985386
101	0xbdbe3720	-0.09287858
102	0xbe81a575	-0.25321546
103	0xbdd77b2f	-0.10521542
104	0xbde6fc0e	-0.11278544
105	0xb818b834	-3.6411177e-05
106	0x3e00d461	0.12581016
107	0x3d9ff6d5	0.07810751
108	0x3d2e8d53	0.042615246
109	0xbe52abc6	-0.20573339
110	0x3dc539bd	0.09630153
111	0xbebd87d8	-0.37017703
112	0xbd26c00a	-0.040710486
113	0xbb42d516	-0.002972906
114	0xbe8aba65	-0.27095333
115	0xbdfc17d9	-0.12309236
116	0xbdf47548	-0.11936432
117	0xbe6a4246	-0.22876844
118	0xbdbaef4a	-0.09127672
119	0xbdee583f	-0.11637925
120	0xbc934a34	-0.017979719
121	0xbd07fa11	-0.033197466
122	0x3dc052d4	0.09390798
123	0x3cf1e3a0	0.029527485
124	0x3dc44c53	0.0958487
125	0x3d8886d5	0.06666342
126	0x3da542bd	0.0806937
127	0xbe36127e	-0.17780492
128	0x3dc4f006	0.09616093
129	0xbe869fab	-0.26293692
130	0xbdd482c5	-0.10376505
131	0xbdef6176	-0.11688511
132	0xbd8bba3f	-0.06822633
133	0x3d860abd	0.06545017
134	0x3da72f9d	0.081633784
135	0x3e8fa0df	0.28052422
136	0xbe1bc855	-0.1521314
137	0xbd28994a	-0.041161813
138	0xbc8fedbe	-0.017569419
139	0xbc044ba3	-0.008074674
140	0x3db29bde	0.087211356
141	0xbe9a7e74	-0.301746
142	0xbe84881e	-0.258851
143	0xbe017b82	-0.1264477
144	0x3cb2c345	0.021821627
145	0xbbaee9b4	-0.005337918
146	0x3dbcb886	0.092148826
147	0x3e3568da	0.17715779
148	0xbc266735	-0.010156442
149	0xbd52b803	-0.05144502
150	0xbd6016ed	-0.054709364
151	0x3da61b88	0.0811072
152	0x3dc5660d	0.09638605
153	0xbc8932f6	-0.016747933
154	0xbe171b26	-0.1475645
155	0x3ddeeb15	0.10884682
156	0xbd4ce3dc	-0.05002199
157	0xbe54ea6e	-0.20792553
158	0x3defced6	0.11709373
159	0xbe2a5f64	-0.16637951
160	0x3e36268b	0.1778814
161	0xbd50a443	-0.050937902
162	0xbd54ce08	-0.0519543
163	0x3d952694	0.07282749
164	0x3dbfdd44	0.09368375
165	0xbc17b49e	-0.009259371
166	0x3e1fb5c3	0.1559668
167	0xbd76a620	-0.060217023
168	0xbe8d3a4e	-0.27583545
169	0xbde707b0	-0.11280763
170	0xbdf773de	-0.12082647
171	0xbd40ba40	-0.04705262
172	0x3d91632d	0.070989944
173	0x3dbcc2a8	0.09216815
174	0xbe984ea6	-0.29747504
175	0xbe81beab	-0.2534078
176	0xbe03cf9b	-0.12872164
177	0x3e00604b	0.12536733
178	0xbdcf4869	-0.10121233
179	0x3d9279f6	0.071521685
180	0x3e86135b	0.26186642
181	0xbdf0f43b	-0.11765333
182	0xbd383632	-0.04497356
183	0xbe95db18	-0.29268718
184	0xbe39b85a	-0.18136731
185	0xbdfb549b	-0.122719966
186	0xbe1aaf60	-0.15105963
187	0xbe2052e5	-0.15656622
188	0xbdd673aa	-0.1047128
189	0xbe4eeca7	-0.20207463
190	0x3e4a3313	0.19746046
191	0x3de250ba	0.110505536
192	0xbdbe719c	-0.09299013
193	0x3db3d781	0.087813385
194	0x3dc43202	0.09579851
195	0x3d5db9ca	0.05413226
196	0xbdac0d08	-0.08400923
197	0x3db26cb6	0.08712141
198	0xbd18811c	-0.037232503
199	0xbe1ec866	-0.15506133
200	0x3dcf3b63	0.10118749
201	0x3e7998f0	0.24374747
202	0xbe2ee953	-0.17081194
203	0x3d45a5cb	0.048253816
204	0x3e115ae8	0.14194834
205	0xbe0ebb52	-0.13938645
206	0x3dad53a7	0.08463221
207	0x3e1bd8dd	0.15219446
208	0xbc997f2b	-0.018737396
209	0x3d95b6ae	0.07310234
210	0xbd9b8147	-0.07593017
211	0x3d8f3260	0.0699203
212	0x3dc1a33f	0.09454965
213	0x3d910275	0.07080547
214	0x3dfb621b	0.122745715
215	0x3d9885c5	0.074473895
216	0xbe9b42d1	-0.30324414
217	0x3e2a066f	0.16604017
218	0xbd346d50	-0.04404956
219	0x3d5be6fe	0.05368709
220	0xbd86b07f	-0.06576633
221	0x3d8ade00	0.067806244
222	0x3d3f2134	0.046662524
223	0xbe11071a	-0.14162865
224	0x3da97472	0.08274163
225	0xbe03f3f3	-0.12886028
226	0xbdaa04e8	-0.08301717
227	0xbdd2dc80	-0.10295963
228	0x3e06c0c2	0.13159469
229	0xbe466e72	-0.19378069
230	0x3da44c8b	0.08022412
231	0x3e267b0f	0.1625788
232	0x3ddee7d5	0.10884062
233	0x3d7e0884	0.06201984
234	0xbd786644	-0.060644403
235	0xbdc81819	-0.09770221
236	0x3de987de	0.11402868
237	0x3d8be100	0.06830025
238	0x3dde2d10	0.10848439
239	0xbd792845	-0.06082942
240	0x3d3a9a29	0.045557175
241	0x3c63d21b	0.0139050735
242	0x3dad2acd	0.08455429
243	0xbe99dfb5	-0.30053487
244	0xbe76f734	-0.24117738
245	0xbe043c61	-0.12913658
246	0x3dad5ee5	0.08465365
247	0x3d5d0e53	0.05396874
248	0x3dac3241	0.08408023
249	0xbe2938fc	-0.16525644
250	0x3c64ea06	0.013971811
251	0xbc8cdac6	-0.017194163
252	0x3dca0665	0.09864501
253	0xbdccee43	-0.10006382
254	0x3d93f199	0.072238155
255	0xbe7f124f	-0.24909328

critic.0.bias f4 [256]
0	0x3efe2a83	0.4964181
1	0x3ebea78a	0.37237197
2	0x3ed2dd50	0.41184473
3	0x3e5c1851	0.21493651
4	0x3e48662b	0.19570224
5	0x3ea0a2bf	0.31374165
6	0x3f000458	0.5000663
7	0x3eafc7a8	0.34332013
8	0x3f02a682	0.5103532
9	0x3e9d57db	0.3073109
10	0x3eb521f9	0.35377482
11	0x3eff770e	0.4989552
12	0x3eea3d22	0.45749766
13	0x3ec4cf4a	0.384394
14	0x3eff6817	0.49884102
15	0x3eff9bb0	0.49923468
16	0x3eab44e6	0.33451003
17	0x3eade8d2	0.3396669
18	0x3e9d2340	0.30690956
19	0x3eee3372	0.46523625
20	0x3e7fb03f	0.24969576
21	0x3eb6b12b	0.35682043
22	0x3eabf116	0.3358237
23	0x3f0c5cc6	0.5482906
24	0x3e3adbed	0.18247958
25	0x3eb8876e	0.36040825
26	0x3e631889	0.22177328
27	0x3e8b605a	0.27221948
28	0x3ef25fe4	0.47338784
29	0x3ed5da02	0.4176789
30	0x3ea031a5	0.31287876
31	0x3ef1dd95	0.47239366
32	0x3ea5bdef	0.3237147
33	0x3e98b593	0.2982603
34	0x3e70946b	0.23494117
35	0x3ee20918	0.44147563
36	0x3f0271f1	0.5095511
37	0x3e66637f	0.22498892
38	0x3e778e0e	0.24175283
39	0x3e897ddd	0.2685384
40	0x3ee1983c	0.44061458
41	0x3ec9eb4c	0.3943733
42	0x3f0b2670	0.54355526
43	0x3e7c41dd	0.246345
44	0x3ebd845e	0.3701505
45	0x3eb6f649	0.35734776
46	0x3ed39719	0.41326216
47	0x3e28eb67	0.16496049
48	0x3ef36432	0.4753738
49	0x3eb904d5	0.361365
50	0x3eec9d89	0.4621394
51	0x3f02150a	0.50813353
52	0x3f04cb62	0.5187284
53	0x3ea3e38d	0.32009545
54	0x3ee51121	0.4473963
55	0x3eaa6057	0.33276626
56	0x3e7fc8a6	0.24978885
57	0x3ee2e132	0.44312435
58	0x3e36ac20	0.17839098
59	0x3eee04b6	0.4648797
60	0x3ebc9cda	0.36838418
61	0x3e563692	0.20919254
62	0x3e6594f8	0.22420108
63	0x3ecc46b3	0.3989769
64	0x3edbdac7	0.4294035
65	0x3ef16bf8	0.47152686
66	0x3ee77536	0.45206612
67	0x3ef5d3d8	0.48013186
68	0x3f0bdb34	0.5463135
69	0x3f00b711	0.5027934
70	0x3edc071a	0.42974168
71	0x3ef5d1b7	0.48011562
72	0x3ea5e848	0.3240378
73	0x3ec153d9	0.37759283
74	0x3ee3a9a3	0.4446536
75	0x3e8dfad3	0.27730426
76	0x3f0548ce	0.52064216
77	0x3efc1180	0.492321
78	0x3efbf98c	0.49213827
79	0x3eb4a149	0.352793
80	0x3eedf82d	0.46478406
81	0x3e3e471b	0.18581812
82	0x3f029cbb	0.510204
83	0x3ea676f4	0.3251263
84	0x3ee27e41	0.4423695
85	0x3eb5967e	0.3546638
86	0x3ed6663d	0.41874877
87	0x3efd4a55	0.49470773
88	0x3ede0a7e	0.4336738
89	0x3ebbe1ac	0.3669561
90	0x3ee332c5	0.44374672
91	0x3f0111a1	0.50417525
92	0x3efd7e02	0.495102
93	0x3ec9b28e	0.3939404
94	0x3e8b6fe7	0.27233812
95	0xbdee8ba3	-0.11647727
96	0x3f05c628	0.5225549
97	0x3e90ff2b	0.28319678
98	0x3eaebfc8	0.34130692
99	0x3ef927b5	0.48663107
100	0x3ec9ab36	0.39388436
101	0x3e9523a0	0.29128742
102	0x3e8accc4	0.2710935
103	0x3e4d94da	0.20076314
104	0x3ee7caf6	0.45272034
105	0x3eadd0a6	0.3394825
106	0x3ed39c03	0.41329965
107	0x3ec90f64	0.39269555
108	0x3e2e813b	0.17041485
109	0x3eaf1c6e	0.34201378
110	0x3eeac0cc	0.45850217
111	0x3efb455f	0.49076363
112	0x3eeebfa1	0.46630576
113	0x3efd5ad9	0.49483374
114	0x3e8c14f5	0.2735974
115	0x3efca505	0.4934465
116	0x3f00933b	0.50224656
117	0x3ef8a730	0.48565054
118	0x3ec24ca6	0.37949103
119	0x3ef84c45	0.4849569
120	0x3e2651b5	0.16242106
121	0x3eae6e75	0.34068647
122	0x3f022a5a	0.50845873
123	0x3f0780d4	0.5293095
124	0x3e8a1674	0.26970255
125	0x3ee32101	0.44361117
126	0x3ee67ad3	0.45015582
127	0x3f014f7d	0.50511914
128	0x3eb59436	0.35464638
129	0x3eafbe4f	0.3432488
130	0x3e7d2585	0.24721344
131	0x3ef9ded4	0.48802817
132	0x3eee643a	0.46560842
133	0x3e80a7bc	0.2512797
134	0x3e7dc056	0.24780402
135	0x3ee98756	0.45611066
136	0x3eaf557f	0.34244916
137	0x3f0141ae	0.50490844
138	0x3ec55c90	0.38547182
139	0x3ec0edc5	0.37681404
140	0x3e3f9416	0.18708834
141	0x3ee7b03d	0.45251647
142	0x3ed41a62	0.41426378
143	0x3edf326e	0.43593162
144	0x3eccd2ff	0.40004727
145	0x3ef41811	0.4767461
146	0x3ef5bb08	0.47994256
147	0x3e800937	0.2500703
148	0x3ef3493d	0.47516814
149	0x3ecd6fb7	0.40124294
150	0x3e8a88b0	0.2705741
151	0x3ede34f4	0.43399775
152	0x3e5af141	0.21381094
153	0x3eee26b9	0.46513918
154	0x3e9471c2	0.2899304
155	0x3ed956db	0.42449078
156	0x3e9033ce	0.28164524
157	0x3e8adac6	0.27120036
158	0x3eea12aa	0.45717365
159	0x3ee86184	0.453869
160	0x3efc1aa6	0.4923908
161	0x3ee668c6	0.4500181
162	0x3e379357	0.179273
163	0x3e8f4628	0.27983212
164	0x3edb19b2	0.4279304
165	0x3ebbe2aa	0.36696368
166	0x3eb07a14	0.34468138
167	0x3e93f0a1	0.28894523
168	0x3e67c983	0.22635464
169	0x3e37334a	0.17890659
170	0x3e83f8bf	0.25775716
171	0x3ed471bc	0.41493022
172	0x3ef01c80	0.46896744
173	0x3ebab42d	0.36465588
174	0x3eacc25a	0.33742028
175	0x3efc664f	0.49296805
176	0x3ef742ce	0.48293155
177	0x3ea45411	0.32095388
178	0x3e82118d	0.25404015
179	0x3eb8c450	0.36087275
180	0x3ede9537	0.43473217
181	0x3e513fac	0.20434445
182	0x3e4921a6	0.19641742
183	0x3eb6c772	0.3569904
184	0x3f00f37e	0.5037154
185	0x3ea39da5	0.3195621
186	0x3e3e8f63	0.18609385
187	0x3ef452c5	0.47719398
188	0x3eafecfa	0.34360486
189	0x3ed4249d	0.41434184
190	0x3efbfc11	0.4921575
191	0x3e3e7647	0.18599807
192	0x3ec66f89	0.3875697
193	0x3e3dd93f	0.18539904
194	0x3ea88616	0.329148
195	0x3ee4c47e	0.44681162
196	0x3ec802b0	0.3906455
197	0x3e642a54	0.22281772
198	0x3ed6e0ef	0.41968486
199	0x3ec8519b	0.3912476
200	0x3ec26cf7	0.3797376
201	0x3ee7d703	0.45281228
202	0x3eeb6edc	0.45983016
203	0x3ef41434	0.47671664
204	0x3e87e733	0.26543579
205	0x3e989513	0.29801235
206	0x3f035ae3	0.5131056
207	0x3e7f7422	0.24946645
208	0x3ee8da67	0.45479128
209	0x3ef5725a	0.47938806
210	0x3eb3c759	0.35113028
211	0x3eab0b1a	0.33406907
212	0x3e8e4396	0.2778594
213	0x3eeba096	0.46020955
214	0x3ee7c0a1	0.45264152
215	0x3efec4ec	0.49759614
216	0x3e94b522	0.29044443
217	0x3f04841f	0.517641
218	0x3ee47768	0.4462235
219	0x3ead2037	0.3381364
220	0x3e86e78f	0.2634854
221	0x3edef8c3	0.43549165
222	0x3e9cc3cf	0.3061814
223	0x3eb9f485	0.36319366
224	0x3f032220	0.51223946
225	0x3ef3a746	0.47588557
226	0x3ede1190	0.43372774
227	0x3eae31d6	0.34022397
228	0x3f08e989	0.53481346
229	0x3f004898	0.5011077
230	0x3eb2d807	0.3493044
231	0x3f060e75	0.5236581
232	0x3f0229da	0.5084511
233	0x3eafe99d	0.3435792
234	0x3ef16be6	0.47152632
235	0x3ee3b738	0.44475722
236	0x3e8f8a83	0.28035364
237	0x3ecd0610	0.40043688
238	0x3ec446fb	0.38335404
239	0x3ed5874a	0.4170478
240	0x3f036629	0.5132776
241	0x3efb0f35	0.4903504
242	0x3e8c9ecf	0.2746491
243	0x3ee846b9	0.45366457
244	0x3e8f1531	0.27945855
245	0x3e921fed	0.28539982
246	0x3ea10d97	0.3145568
247	0x3ee1d928	0.4411099
248	0x3ee5b8f2	0.44867665
249	0x3e46377e	0.19357106
250	0x3ef77237	0.48329327
251	0x3ee8e591	0.45487645
252	0x3ee67e33	0.45018157
253	0x3e8a808b	0.27051196
254	0x3eb9ae07	0.36265585
255	0x3eef0805	0.46685806

critic.2.weight f4 [128, 256]
0	0x3e0e11e7	0.13874017
1	0x3e0acd5a	0.13554898
2	0x3e886078	0.266361
3	0x3e706bc5	0.23478611
4	0x3e8eb52d	0.278726
5	0x3e8b5716	0.2721488
6	0x3e6238f2	0.22092035
7	0x3d8149d1	0.063129075
8	0x3e415249	0.18879046
9	0x3e742e5d	0.23845811
10	0x3e083eb0	0.13305163
11	0x3d5004fd	0.050786007
12	0x3e580f98	0.21099699
13	0x3ec915e7	0.39274523
14	0x3e5a1a38	0.21299064
15	0x3e8e8cfb	0.27841935
16	0x3ea8afc4	0.329466
17	0x3e2ec7b0	0.17068362
18	0x3e53256b	0.20619743
19	0x3e151f09	0.1456262
20	0x3e91864f	0.28422782
21	0x3ec42da1	0.38316062
22	0x3eb50501	0.3535538
23	0x3e949466	0.2901947
24	0x3dd0fe65	0.10204772
25	0x3e2c37f3	0.16818218
26	0x3e0fac2b	0.1403052
27	0x3e06c182	0.13159755
28	0x3eb17ced	0.34665623
29	0x3e8aa96d	0.27082387
30	0x3e8f1def	0.27952525
31	0x3e2a4821	0.16629077
32	0x3e7c948b	0.2466604
33	0x3e89ea68	0.2693665
34	0x3e2c8545	0.16847713
35	0x3e7c5635	0.2464226
36	0x3e6be35e	0.23035952
37	0x3e986911	0.2976766
38	0x3e900672	0.28129917
39	0x3e24233a	0.16029063
40	0x3ddcedbc	0.10787532
41	0x3eaafa58	0.33394122
42	0x3e719b75	0.23594458
43	0x3df90a1e	0.12160133
44	0x3e5da478	0.21644771
45	0x3ec1af3e	0.37829012
46	0x3ea4ee87	0.32213232
47	0x3eb4e000	0.35327148
48	0x3d7ef57b	0.062245827
49	0x3e2421d5	0.16028531
50	0x3e1a46da	0.1506609
51	0x3e6d2f11	0.23162486
52	0x3dbe5c4b	0.09294947
53	0x3dd21e29	0.10259659
54	0x3ce348fa	0.027744759
55	0x3dd9d651	0.10636581
56	0x3e2e3f05	0.17016228
57	0x3e158573	0.14601688
58	0x3dcacc4c	0.09902248
59	0x3e52063c	0.2051019
60	0x3eee4ee6	0.4654457
61	0x3ea074e8	0.31339192
62	0x3e81bec9	0.2534087
63	0x3e5965ad	0.21230192
64	0x3e8af70c	0.27141607
65	0x3e0d5b59	0.13804378
66	0x3d9ebca9	0.07750828
67	0x3e89929d	0.2686967
68	0x3d14ebae	0.036357574
69	0x3e917f0e	0.28417248
70	0x3e61463a	0.21999446
71	0x3e1f3228	0.15546477
72	0x3ea90a18	0.33015513
73	0x3e30d2dc	0.17267936
74	0x3e91713a	0.28406698
75	0x3d98750b	0.07444199
76	0x3e1ba214	0.15198547
77	0x3e40e461	0.1883712
78	0x3e729bc2	0.2369223
79	0x3e979952	0.29609162
80	0x3e3718b4	0.17880517
81	0x3e73bfba	0.23803607
82	0x3e6a2a7b	0.22867768
83	0x3e2df148	0.16986573
84	0x3ec63893	0.38715038
85	0x3e7a1046	0.2442027
86	0x3e9fb346	0.31191462
87	0x3e9dcb37	0.30819103
88	0x3ea981aa	0.33106738
89	0x3ec6bdca	0.38816673
90	0x3ec5b03e	0.38611025
91	0x3d05f98d	0.032708693
92	0x3e31428f	0.17310546
93	0x3e853cbd	0.26022902
94	0x3e97eb5e	0.29671758
95	0xbf6fd7cc	-0.93688655
96	0x3dd039a7	0.10167246
97	0x3eb36d2c	0.3504423
98	0x3e0b4817	0.13601719
99	0x3e3c574b	0.18392675
100	0x3ed76ee7	0.420768
101	0x3f14c136	0.58107316
102	0x3ecefbfd	0.40426627
103	0x3d902ee7	0.07040196
104	0x3dc64219	0.09680576
105	0x3e811299	0.252095
106	0x3ec6aa2f	0.38801715
107	0x3e2b7d1b	0.16746943
108	0x3e78eb68	0.2430855
109	0x3e2d9eec	0.16955155
110	0x3e134fa8	0.14385855
111	0x3eb1c6b5	0.34721914
112	0x3eb722a2	0.3576861
113	0x3e3c146c	0.18367165
114	0x3e97d636	0.29655617
115	0x3e6805e8	0.22658503
116	0x3e39fd4e	0.18163034
117	0x3db66f61	0.089079626
118	0x3e806fc1	0.2508526
119	0x3e599b78	0.21250713
120	0x3df31ceb	0.1187075
121	0x3e8ec630	0.2788558
122	0x3d28d1ff	0.041215893
123	0x3ded03c3	0.11572983
124	0x3e747051	0.2387097
125	0x3e4a5a80	0.19761086
126	0x3e6ccc7a	0.23124877
127	0x3e8820a6	0.2658741
128	0x3e734dd9	0.23760165
129	0x3e99216b	0.29908308
130	0x3e88059b	0.26566777
131	0x3e2eedec	0.17082947
132	0x3e9d2ff5	0.3070065
133	0x3e933b9d	0.2875642
134	0x3dec22b6	0.11530058
135	0x3dca9337	0.0989136
136	0x3e549d71	0.20763184
137	0x3e14770b	0.14498536
138	0x3e3e48c1	0.18582441
139	0x3e826d29	0.25473908
140	0x3ea2ac9a	0.3177231
141	0x3e963836	0.2933976
142	0x3eda0c89	0.4258769
143	0x3eac1693	0.33610973
144	0x3eb1d8bf	0.34735677
145	0x3dc48339	0.09595341
146	0x3e8343ef	0.25637767
147	0x3e142484	0.14467055
148	0x3e89bcfe	0.26902002
149	0x3e87893f	0.26471898
150	0x3e5abe2c	0.21361607
151	0x3dde3c01	0.108512886
152	0x3e1349fe	0.14383695
153	0x3e0c6d8f	0.13713668
154	0x3e9836cf	0.29729316
155	0x3db44ffc	0.08804318
156	0x3ee86409	0.4538882
157	0x3e8554ea	0.26041347
158	0x3dc116fa	0.094282106
159	0x3e96d16a	0.29456645
160	0x3e316092	0.17321995
161	0x3f1f2aeb	0.6217486
162	0x3e82947f	0.2550392
163	0x3df93738	0.12168735
164	0x3e7e44de	0.24830958
165	0x3ea4c439	0.32180956
166	0x3ddef042	0.10885669
167	0x3e940a35	0.28914037
168	0x3e7d871f	0.24758576
169	0x3eaf65c3	0.34257326
170	0x3e5beae8	0.21476328
171	0x3e132460	0.14369345
172	0x3e364bde	0.17802379
173	0x3ed51983	0.41621026
174	0x3dfd9858	0.12382573
175	0x3eb52594	0.35380232
176	0x3eb8583e	0.36004823
177	0x3e90993e	0.28241915
178	0x3e2839c5	0.16428287
179	0x3e9b58a9	0.3034108
180	0x3e93d165	0.28870693
181	0x3e5e0bff	0.21684264
182	0x3e1804c0	0.14845562
183	0x3ebb082b	0.3652967
184	0x3e4471df	0.19184063
185	0x3dd0eb7d	0.10201166
186	0x3e981c99	0.29709318
187	0x3ecd7bfd	0.40133658
188	0x3ea54a0f	0.32283065
189	0x3e8cc417	0.27493355
190	0x3e8caf56	0.2747752
191	0x3e31e738	0.17373359
192	0x3ef39d74	0.47581065
193	0x3e4ec687	0.2019292
194	0x3e216db7	0.15764509
195	0x3da29495	0.07938496
196	0x3e949a95	0.29024187
197	0x3e8c39af	0.2738776
198	0x3e8983b7	0.26858303
199	0x3e4cfeee	0.20019123
200	0x3e43cc17	0.19120823
201	0x3eafb6b7	0.34319088
202	0x3eab4477	0.33450672
203	0x3e3060cb	0.17224424
204	0x3eacd3f4	0.33755457
205	0x3e478ff2	0.19488505
206	0x3dbe4ba2	0.092917696
207	0x3e30bab6	0.17258725
208	0x3d907a82	0.070546165
209	0x3ea2847d	0.31741706
210	0x3dc816a9	0.09769947
211	0x3e8a48ee	0.27008766
212	0x3e864d5c	0.26230896
213	0x3e35f4dd	0.17769189
214	0x3e8ed722	0.27898508
215	0x3e9d0052	0.30664307
216	0x3ea365d8	0.31913638
217	0x3e61cff8	0.2205199
218	0x3e4cbf09	0.19994749
219	0x3e22cec7	0.15899192
220	0x3e908d36	0.28232735
221	0x3eacf293	0.3377882
222	0x3ea65127	0.3248379
223	0x3e4bc992	0.19901112
224	0x3dce35ed	0.10068879
225	0x3ea71e86	0.32640475
226	0x3e4d2e04	0.20037085
227	0x3ec8a38a	0.3918727
228	0x3d487ca1	0.04894698
229	0x3e6a0149	0.22852053
230	0x3e888d05	0.2667009
231	0x3e833c2d	0.25631848
232	0x3e17c2a4	0.14820343
233	0x3e374c48	0.17900193
234	0x3ec44f01	0.38341525
235	0x3eb24339	0.34816912
236	0x3e0b0c63	0.13578944
237	0x3e76c535	0.24098666
238	0x3ee74746	0.45171565
239	0x3e8b5964	0.27216637
240	0x3e0cd504	0.13753134
241	0x3e860500	0.2617569
242	0x3e362040	0.1778574
243	0x3e62fdd8	0.22167146
244	0x3ea54095	0.32275835
245	0x3d401ccc	0.046902463
246	0x3e6dface	0.23240206
247	0x3e2f7f09	0.17138304
248	0x3ea2dbcc	0.31808317
249	0x3e9503b6	0.29104394
250	0x3e4aacc2	0.19792464
251	0x3e9ee226	0.31031913
252	0x3e8a971a	0.27068406
253	0x3dc47b59	0.09593839
254	0x3e09b89e	0.13449332
255	0x3ea431e8	0.32069325
