A5/modelset/a3c/a3c_actor_critic.pt (torch, 277657 bytes, 11 tensors)

actor.0.weight f4 [256, 3]
00000000: 12f1 f9bc 8c36 adbd f170 0f3d 0e84 a73d
00000010: f495 953e d09a ca3d 6439 253d 5709 923e
00000020: 5ce8 58bc 8546 52be 53ba 86bd 18b8 c2bd
00000030: 9131 34be 402c 44be b6d9 113e a01e 17be
00000040: d0a7 c2bd d3f9 b73d 29d0 fb3d fe93 1bbe
00000050: 8042 d0bd 573c ddbc fa1f 9e3e 9e95 4e3d
00000060: 440e b33d 3edb 413e f929 b5bd a893 83be
00000070: f76b 26be 8d7e cdbd 51bb 023d dd96 9c3e
00000080: b354 3d3d 3369 69be 1da0 9d3d 7d3b b23d
00000090: c39e 83be 081b 1bbe 6555 b3bd 1d32 b23b
000000a0: 9048 a53c 87a7 a2bb a371 123e 563e 823e
000000b0: 97b9 07bd 56cb 9f3e 7b8d e3bb e30f 0abd
000000c0: f17a 1d3e a39c 68be dfaf 01be 6f86 c03d
000000d0: e276 8f3e 7906 913d 3a08 493e 0942 bbbd
000000e0: 9b6b a5bd 7258 17be e250 4bbd 97c8 103e
000000f0: 6f24 2c3d 3758 62be 93f9 c23c 50e9 3b3d
00000100: dd83 ad3e 7cdd 203e 35e4 853c b6e3 ad3e
00000110: dbf7 4b3d d0ff 0c3e 6bca 4ebe dd34 95bd
00000120: 182b 28be 5874 d43d 601d fd3d e283 a4be
00000130: 7802 edbd 8094 03bd 7095 f03d a9e5 933d
00000140: f446 d63d be90 60be 6efc ae3d d670 9b3d
00000150: 204c 08be b8f3 283e 9af9 003e 6d70 113c
00000160: 1dc2 cf3e 0626 803d f556 e23d d8bb 4cbe
00000170: c6c0 5bbd 72fa 2c3e 9520 84be 212f 03bd
00000180: 4b78 a1be 9d34 70ba 9d71 3dbd d632 a73d
00000190: 7b16 2c3e 1f84 253d ddea 7fbe 58b8 61be
000001a0: 60f1 65bd 0233 56be 4287 6e3c 7fe2 1cbe
000001b0: 9823 8e3e 57bb 21bd 04cf 00be 089d 233c
000001c0: c9ef 6c3d ef14 debd a4fe 493e 620e d9bd
000001d0: 4564 ddbd 9568 80be dd76 6f3d cee3 c13c
000001e0: b974 2a3e 83e9 aa3d cdf7 043e 6e1c 72be
000001f0: c8e9 5ebe 5086 b1bd 7ffd 243e 8e2a 6bbe
00000200: 2583 85bc 7eeb fbbc e2ed 403e 0fc9 d0bc
00000210: ee50 87bd a5d4 60bd a616 0b3d 14fd 403e
00000220: c10f ff3d 5c5d 073e aa36 6e3d 5af9 383e
00000230: 9af1 fe3d ecbe 64be e584 c8bd d0e6 54bc
00000240: fdde ff3d 46d6 793e 6900 793d d024 263e
00000250: 23b1 69be 7fdb fcbd 100c 6fbe 0786 8fbd
00000260: 7d31 0a3e 982c cf3c 5b71 923e a47d 223d
00000270: dba4 4b3d ef10 8b3e 542a 76bd 9928 19be
00000280: 4429 a13d a8be 17be e451 4cbe 3c35 b3ba
00000290: ea4c e63d 55ad 3c3e e37e 9fbd 61e1 abbd
000002a0: 7cae 77bd 8e14 04be 6971 af3d 8790 a03d
000002b0: 0300 a33e a8a4 343d 4a77 96be ed5e fbbd
000002c0: 4034 95bd 249c f43c 42c7 8c3e 1abc 1e3d
000002d0: 0275 7ebe bb28 38be f82a a1bd 99e7 2cbe
000002e0: 95c2 a63d 6b2f 1c3c dae9 df3d 923f ad3e
000002f0: 53ad 303e e7d1 333d c654 35bc f209 25bb
00000300: 166b 583d f564 d43b 61b7 313e fc67 b3bd
00000310: d661 5e3d b537 1dbe 11d4 55bd 3dec bd3e
00000320: 3305 883d ef08 1fbe 20b4 163e ddc1 f43d
00000330: 842a 41be ae0d 52be 91ab ffbc ef92 53bd
00000340: c4b1 723d 9255 d83d 2ba0 69be 3d6c 6fbe
00000350: df52 2ebd d36d 94be 891d b53c 6a21 80bd
00000360: 6cf0 b23d 2d48 53be 28c2 de3b d3c8 a4be
00000370: 489c 8f3a 5d6e 2fbd 7a17 4abe 84be 203d
00000380: 0e2a 27bd 5534 f03d d625 c93e 0548 cc3d
00000390: 6eae abbe aee3 fabd 4e54 bcbd e831 593e
000003a0: 81c6 11bd 20e5 93bc 04bc 9ebe 06a3 19be
000003b0: aab4 09bd 3a7d 983d bd8a 88be 740f 993c
000003c0: ca0b aebe 773e 04bd 41bf 5dbc 3de0 5b3d
000003d0: 657b 75be 4de4 823d 2892 3c3e 256a d8bd
000003e0: 7ca3 0abd 6bd1 133e 0fe5 d63e 7a26 db3d
000003f0: 4ec4 01be 7a63 dd3d dde0 e83c b252 aebe
-0.03051046 -0.084576696 0.03501982 0.08179484 0.29215968 0.098928094 0.040337935 0.2852275
-0.013238993 -0.20534714 -0.06578507 -0.09507769 -0.17597033 -0.19157505 0.14243206 -0.14757776
-0.09504664 0.08983197 0.12295563 -0.15193173 -0.10168934 -0.027006311 0.3088377 0.050435655
0.08742955 0.1893129 -0.08845896 -0.2569859 -0.16252123 -0.10033903 0.03191692 0.3058385
0.046223354 -0.22794037 0.07696555 0.08702753 -0.25707063 -0.1514703 -0.08756522 0.005438103
0.020176202 -0.0049638185 0.14301161 0.25438184 -0.033135977 0.3120982 -0.006944356 -0.033706557
0.1537893 -0.22716002 -0.12664746 0.09400641 0.28020388 0.07081313 0.19632044 -0.091434546
-0.08077165 -0.14779833 -0.049637683 0.14139019 0.042026933 -0.22103964 0.023800647 0.0458768
0.33889666 0.1570949 0.01634417 0.33962792 0.04979692 0.1376946 -0.20194404 -0.072854735
-0.16422689 0.10373753 0.123591185 -0.3213187 -0.115727365 -0.032124043 0.11747253 0.072215386
0.10462752 -0.21930215 0.08544241 0.07589881 -0.1331029 0.16499221 0.12595215 0.008876902
0.40577784 0.062572524 0.11051742 -0.19993532 -0.05365064 0.16892412 -0.25806108 -0.032027368
-0.3153709 -0.00091631134 -0.04625093 0.08163993 0.1680545 0.040409204 -0.24991937 -0.22042978
-0.056138396 -0.20917895 0.014558615 -0.15320776 0.2776153 -0.0394853 -0.1257897 0.00998617
0.057845864 -0.108438365 0.19726044 -0.105984464 -0.108101405 -0.2507979 0.058462966 0.023668196
0.16646089 0.0834532 0.12985153 -0.23643658 -0.21768868 -0.08668196 0.16112326 -0.22965452
-0.016297886 -0.03075194 0.18840745 -0.025486497 -0.06607233 -0.054890294 0.033957146 0.18846542
0.12454177 0.13219208 0.0581576 0.1806387 0.124484256 -0.22338456 -0.097909726 -0.012994483
0.124937035 0.24398145 0.060791407 0.1622498 -0.22821479 -0.12346553 -0.23344445 -0.070079856
0.13495441 0.025289819 0.28602108 0.0396706 0.049717765 0.27161357 -0.06009896 -0.14956893
0.07869199 -0.14818823 -0.19953114 -0.0013672481 0.11245139 0.18425496 -0.077878736 -0.08392597
-0.060469136 -0.12898466 0.08566553 0.078400664 0.31835946 0.04410234 -0.29387885 -0.12273965
-0.072853565 0.02985961 0.27495772 0.038753606 -0.24849322 -0.17984287 -0.07869524 -0.16885222
0.08142582 0.00953279 0.109332755 0.33837563 0.17253618 0.04390135 -0.011067575 -0.002518293
0.0528365 0.0064817616 0.1735511 -0.08760068 0.054292522 -0.15353282 -0.052204195 0.37094298
0.06641617 -0.15530752 0.1471715 0.11951039 -0.18863875 -0.20513031 -0.031209739 -0.0516538
0.05925156 0.10563196 -0.22815005 -0.23381133 -0.0425595 -0.2899004 0.02210881 -0.06256373
0.08737263 -0.20633002 0.0067980476 -0.32184467 0.001095661 -0.04282986 -0.19735518 0.03924419
-0.04081159 0.117287315 0.3928668 0.09974674 -0.33531517 -0.12250458 -0.09195767 0.21210444
-0.0355897 -0.018053591 -0.3100282 -0.15003595 -0.03361956 0.0744576 -0.2666835 0.018684126
-0.3399337 -0.032286134 -0.013534368 0.053680647 -0.23972853 0.06391201 0.18415129 -0.105671205
-0.033847317 0.14435355 0.41971633 0.10700698 -0.1267254 0.10809989 0.028427536 -0.34047467

actor.0.bias f4 [256]
00000000: f296 f13b e76f 1dbd 330a a23d 24da 083d
00000010: fc93 843d 27e5 6fbb 6fc6 b0bc 7967 ab3d
00000020: 8d9c eebd 50ad ed3a 445d 523d 6020 a63c
00000030: 775f 253c 0d01 80bd 4631 073d 1023 72ba
00000040: a0ca 1dbd fea5 8dbc 9e2d 2dbd 1f98 1b3c
00000050: ca69 2a3d b2a5 053d 923d 2e3d 6d63 57bd
00000060: 9930 7e3c a443 863d 7244 2b3c c0a0 38bb
00000070: 2584 423c 774a 913d 8be2 dfbc 1066 d4bc
00000080: da8d a53c 41e4 5b3c b776 30bd 2844 9c3c
00000090: 3b91 8bbd a23e c9bc fa5e 63bd 587b 6e3b
000000a0: 00c8 1ebd 5ff4 1e3c bf9e e9bc 8279 213d
000000b0: 781a d4bc 3b1f e5bc 7166 4abd 5f16 433d
000000c0: 8360 dcbc afe2 22bd ce60 233c 2c4e bb3c
000000d0: d65b 593d 8354 2d3d 7713 8b3c c22f b1bd
000000e0: 46d0 a83c 86d9 a33c 0f8f 43bc 6903 ea3c
000000f0: 627e 20bd 898e 353b 5fd6 7abc 8de4 80bd
00000100: adb9 30bd 79ed 643d d3e9 fe3d 51d4 a9bb
00000110: 63d8 853c 75ea 643d a452 1e3d 9bc4 f53c
00000120: e7f8 953c aec8 253d f734 5d3d 58d5 47bc
00000130: 3a5b 0b3c 2bfa 12bd 3a60 b23d f766 3a3d
00000140: 6160 c43d 5a50 203d d311 55bd 95c6 a8bc
00000150: 92a5 663d cdb1 a83c effa aebc f24b 50bd
00000160: 52e7 b7bc 7c66 fdbc b2b3 343d 8674 0dbd
00000170: e1bc 823d 0312 403c 9a81 10bd 8f05 503d
00000180: 9b52 1c3c 2206 993d 974b 743d a140 b2ba
00000190: 38ec a1bc a6b9 96bd a251 db3c bbe3 12bd
000001a0: 1668 57bb 7e34 90bc 9ea7 d53c 0846 fc3c
000001b0: ac00 6fbd 0cd0 90bd 60c3 413d 6a88 99bc
000001c0: 344a 553d e290 8dbb ad10 42bd 677e c7bc
000001d0: 8161 c23c d361 1c3d 0cb3 c1bc bfbb 34bd
000001e0: 3cd3 5cbd 8c93 61bd 5678 dabc 3cbf c53c
000001f0: 03e2 e33b a233 bfbc 9f4f 1f3c 8253 d43c
00000200: 7458 1ebc 998f 103d a114 7b3d 4c65 043d
00000210: d858 9f3a 1f51 113d 6aa5 1a3d 1333 293d
00000220: d53b 063d 42ca 78bd 17e2 99bd 7f28 ad3c
00000230: bbe6 443b 5762 0abc a62f 9dbb 0e62 39bd
00000240: 5fa3 8abd 77a6 2fbc 2db6 bebc e89c 593d
00000250: f2ca ce3c 6cc4 173c fd8c 5b3d d754 753c
00000260: e533 0bbd c217 43bd 2cb5 91bd b8b5 3ebd
00000270: 9d6d a5bb 486f 373d c466 0e3c f4bc 31bb
00000280: 8149 2ebc b6af 0abd 3c2d a3bc 5427 4ebd
00000290: 2baa 86bd ed31 053d 16bb d6bc 4963 833d
000002a0: e518 84bd 7f00 0a3b 1a93 393d 8e6e 8a3b
000002b0: fb60 01bc 45f0 dabc bc49 4dbd 2461 1abc
000002c0: 981a e83d a2ec 643d 3363 ac3c dd69 4dbd
000002d0: d650 a9bc 1902 9a3d 1184 87bc afc8 a13c
000002e0: 8f88 cb3d 1eda 133d 4fe2 2fbc a25c 20bc
000002f0: ea40 83bd 9b1e dc3c b50c 61bc 6c2d e2bc
00000300: 00e3 83bd e9fd 79bd 3309 e43c 5cb7 5ebc
00000310: 4b89 65bd fb5c 29bd fbe3 c0bc 0f34 40bd
00000320: 20b3 03bd 16cd 82bd 8ab8 ec3b 8656 cebd
00000330: f6fd 86bd a0a0 54bd 75db 963b 9d12 1cbd
00000340: 8871 35bb e3e7 11bd 9044 183d 59b7 e03b
00000350: 43a0 a1bc a95c ddbc bb13 00bc 91cf 94bc
00000360: a5f6 2e3c 5d86 d3ba a6f5 c7bc 4417 fc3c
00000370: 5f3c b33b 91be c6bc 7fbc dabc 1e75 b93c
00000380: 1046 75bd 5915 b83b e3e0 133d cba0 ac3c
00000390: 24ea 233d 8e4b 7d3c 4637 263c 82b0 583c
000003a0: 6593 87bd 6daa eebc d935 42bd a527 83bd
000003b0: ee7c 30bd 6ba8 7cbd 85ed 15bd 1b53 6dbd
000003c0: a7ba 29bd da70 623d b35e 83bc a006 90bd
000003d0: 3a0e 213d 60ac 0bbc 65a1 e5bb ba3e d33d
000003e0: 119a 58bc 8ba8 f53c c183 743c 6072 843c
000003f0: 824f 763d 8d2b 8ebd f607 563d 4d65 56bd
0.0073727304 -0.038436797 0.079121016 0.03341116 0.06473538 -0.0036605091 -0.021578996 0.08369345
-0.116509534 0.0018133316 0.051358476 0.02027911 0.010093561 -0.062502004 0.033005975 -0.0009236792
-0.038523316 -0.017291065 -0.042279832 0.009496718 0.041604795 0.032628722 0.042539187 -0.052585054
0.015514516 0.0655587 0.01045333 -0.0028171986 0.011872326 0.07094281 -0.027329704 -0.025927573
0.020209242 0.013421119 -0.043081965 0.019075468 -0.0681481 -0.024565998 -0.0555105 0.0036389437
-0.038764954 0.009701817 -0.028518079 0.03942252 -0.025891528 -0.027968993 -0.049414102 0.047628757
-0.02690149 -0.039766964 0.0099718105 0.022864424 0.053066097 0.042316925 0.016977055 -0.08651687
0.020607125 0.020001184 -0.011935963 0.02856608 -0.039183028 0.0027703366 -0.015309899 -0.062935926
-0.043145824 0.055890534 0.12446942 -0.005182781 0.016338533 0.05588766 0.03865303 0.030000975
0.018307162 0.040474586 0.05400559 -0.012196861 0.008505637 -0.03588311 0.0870976 0.04550835
0.09588695 0.03913913 -0.05201895 -0.020602504 0.056310244 0.020592595 -0.021359889 -0.050853677
-0.02244917 -0.030932657 0.044116683 -0.034534954 0.06383682 0.011723044 -0.035279848 0.05078655
0.009541179 0.07471873 0.0596424 -0.0013599583 -0.019765958 -0.073596284 0.026772324 -0.035861712
-0.0032868437 -0.017603155 0.026080903 0.030795112 -0.05835025 -0.07070932 0.047305465 -0.018741805
0.05207272 -0.00432025 -0.047379185 -0.024352266 0.023728134 0.03817923 -0.023644947 -0.04412436
-0.053912386 -0.055072352 -0.026668709 0.02413904 0.006954433 -0.02334005 0.009723573 0.025918726
-0.009664644 0.035293195 0.06129897 0.032323167 0.0012157215 0.035477754 0.037755407 0.041308474
0.032771904 -0.060739763 -0.07513826 0.021137474 0.0030044753 -0.008446298 -0.00479694 -0.045259528
-0.06769442 -0.010720841 -0.023280228 0.053128153 0.025243256 0.009263139 0.053601254 0.014973841
-0.033985037 -0.04763008 -0.07114634 -0.04656002 -0.0050484673 0.04478386 0.008691493 -0.0027120681
-0.010637642 -0.033858977 -0.01991903 -0.050330475 -0.06575426 0.032518316 -0.026212256 0.064154215
-0.06450061 0.0021057425 0.045306303 0.004224605 -0.007896657 -0.026725898 -0.050119147 -0.009422574
0.11333197 0.055889733 0.021043396 -0.050149787 -0.020668428 0.07519931 -0.016542466 0.019749014
0.09938156 0.036096685 -0.0107351085 -0.00978771 -0.06408866 0.026870063 -0.01373594 -0.02760955
-0.06439781 -0.061033163 0.027836418 -0.013593521 -0.056039136 -0.04134844 -0.02354621 -0.046924647
-0.03215325 -0.06386773 0.007224147 -0.10075097 -0.06591408 -0.051910996 0.004603798 -0.03810369
-0.0027686078 -0.035621535 0.03717476 0.0068577942 -0.019729739 -0.027021723 -0.007817204 -0.018165382
0.010678922 -0.0016138066 -0.024409126 0.030772813 0.0054698433 -0.024260791 -0.02670121 0.022638854
-0.05988127 0.005617779 0.03610314 0.021072766 0.040018216 0.015459908 0.010145014 0.0132256765
-0.0661991 -0.029134 -0.047414634 -0.06404046 -0.043087892 -0.061684053 -0.03660347 -0.057940584
-0.04143777 0.055283405 -0.016036367 -0.070325136 0.039320208 -0.008524984 -0.007007765 0.103146985
-0.013220326 0.029987594 0.014923991 0.01616782 0.06013442 -0.069419004 0.052253686 -0.0523427

actor.2.weight f4 [128, 256]
00000000: 78b0 40bd d177 6cbb e63e b03d d6b4 8e3d
00000010: a593 af3c 3762 96bd d432 b93d 6f6b 4c3d
00000020: 3817 803c 1139 643d a235 453e d700 263e
00000030: 1e63 913d 16ae 2e3c 0240 babd 9aa5 9bbd
00000040: a3a1 663d caa0 f53d 8f44 993d 6ff3 133e
00000050: 8def 943d 563a 1bbc 60b1 043e 220b 7abd
00000060: 1fa5 a43d 5b2a 673d f15a 2fbd bc74 3dbc
00000070: 2ecf 4c3e 284a 203e 8143 783d 1604 b63d
00000080: 79e7 a13d d4b4 f73d ab97 d23d 5c59 a73d
00000090: a223 2abc b0c9 a3bd f8d6 fabd 4a6d 3ebb
000000a0: 2986 2a3e a27d 093e f755 8ebd 90e8 95bd
000000b0: e13c 0a3d fb05 f23d fcbd 2c3e e613 1cbd
000000c0: dd1c 5b3d 8b7a 3a3d 1020 253e 3efc e63d
000000d0: 88d3 db3c e076 7a3d 6ad2 253e 6c16 b3bc
000000e0: 285c eabc 3e6d 793e 6d5c 153e a842 f83c
000000f0: 11d2 1fbd 4788 5e3d 61aa ce3d 2af3 33bd
00000100: 3e65 493d 1724 b83d 4e64 8a3d 2a34 373e
00000110: 7a46 2b3e c3b1 44bd 1ab7 2f3e 8cbb 23bd
00000120: 5eae e4bd 46e7 9c3c c553 3a3b 26ee a23c
00000130: 7e7a 3cbd 8cd5 afbd 1bfd dc3d e661 673d
00000140: 40af 033e 5a0d b5bc 8939 773d 0be0 7db9
00000150: 8eb6 083e 3f65 a93d 09bf 073d ac9f 78bd
00000160: 8bba a43d afbc 353d c156 a3bc 912c b5bc
00000170: 7a74 403d 771e 033e 4a80 4d3d c438 273e
00000180: 26cf e8bc cd18 273e 4f70 803d 8148 593d
00000190: e5de 293d fee5 69bd 7aa6 013e bd4c e8bc
000001a0: 7216 4c3d 3b10 b8bc ca91 d3bd 01f3 633d
000001b0: cf52 9abc 6938 bcbd 949b b43d 4c69 fa3d
000001c0: 9669 2b3e 5424 b1bd 4ebc 8dbd 544b 203d
000001d0: 44cd 35bc d831 143e a4a9 d23d 103f f8bd
000001e0: 1584 07bd 1f87 aa3d 5538 4e3e 4b9e 263e
000001f0: 874b 09bb 6a10 2d3d 1337 e53b f885 9b3d
00000200: b02a 063e 51ea 763c dc3d bebc cb20 49bd
00000210: f030 13be 3b38 50bc 9c00 ee3c 84f2 c0bd
00000220: c50a 353d 8020 f43a 4fb0 ebbd 290e 8d3d
00000230: e354 c43c 7190 273e 8783 713d 52dd 2e3e
00000240: 18fa 263e 63e7 f13d 58f2 d63d b04d c93c
00000250: 69d7 61bc 7ab8 ecbc a67d bebd 0672 533d
00000260: 6e31 ba3a 298e 353d 12af 8f3c 18f4 0e3e
00000270: 2d46 ff3d 3896 113e 47da f13d de11 083e
00000280: 5e3c 7abd 0859 103c 356e ce3d 82c0 6d3c
00000290: c3bb 6b3d c4fb 763d 0db2 cc3d 91e4 f53d
000002a0: 350c 01be e265 4e3e 3e1d 833d 15f5 d4bc
000002b0: d14b 8c3d b737 0b3e ef47 12bd 1267 cabd
000002c0: a014 5d3e a4ac 1ebd be2e fd3d a000 0dbd
000002d0: 6a0f 0f3e 8788 053e 2c88 d8bb 4a07 213d
000002e0: 469c 133e f7a3 b1bd 4eb5 0d3e 273d d33b
000002f0: 71db 87bc 6f0d e63d 6433 c2bd 9165 9f3d
00000300: 1641 893d 74b9 dd3d 9c88 69bd 10b4 cbbc
00000310: ca34 dc3b d704 06be 59f7 0ebd eff7 babc
00000320: 604a 0abd 56bd d03d f527 af3d c08f 663d
00000330: 5198 0a3e a67d c83d 2cb0 f43c 5d7f c93d
00000340: a340 c33d 987b 5f3c 79e6 0d3c cb2d f7bd
00000350: 99b8 d1bd e707 0bbd 59e8 d8bc be6d e3bc
00000360: fa4c 4e3d 297d 02be a9a1 37bb 11ec a23d
00000370: 2b60 b83d dff0 463d a779 5ebd 7b9e c23d
00000380: e124 673d a0d7 67bd b79c 1c3e 5725 bf3d
00000390: 3d82 83bd af6f d93d c82f 173e 3bd1 003e
000003a0: c119 ddbd bf84 dfba c6cd c5b9 65a0 c0bd
000003b0: 2bda fabd 036c 4dbc 45db 633b 3c83 a23d
000003c0: 48db d03c a77c 033e 1571 323d 58db a1bd
000003d0: ac95 343e 5024 8fbd c2ef 743e 6db1 d23d
000003e0: 8b32 86bd 828d 0d3d b823 633d eaff 753d
000003f0: 39ba ae3d 7553 dcbd 66cd 083e c797 d1bd
-0.047043294 -0.0036082158 0.08605747 0.069680855 0.021432707 -0.07342952 0.09042898 0.049907144
0.015636072 0.055718485 0.1925874 0.16211258 0.07098983 0.0106616225 -0.0909424 -0.07599945
0.056306493 0.11993559 0.0748378 0.14448331 0.07272253 -0.009474358 0.12958288 -0.061045773
0.08039307 0.056436878 -0.042811338 -0.011563476 0.20000908 0.15653288 0.06061125 0.08887498
0.07905478 0.12095037 0.102828346 0.08171341 -0.010384472 -0.07997453 -0.12248033 -0.002905684
0.1665274 0.13426831 -0.0694999 -0.073197484 0.033749465 0.11817547 0.16869348 -0.038104914
0.053494323 0.045527022 0.16125512 0.1127858 0.026834264 0.061148524 0.16193548 -0.021861278
-0.028608397 0.24358079 0.14586039 0.030305222 -0.039018694 0.054329183 0.10091091 -0.04393307
0.049168818 0.089912586 0.06757413 0.17890993 0.16726103 -0.04802109 0.17159691 -0.03997378
-0.111660704 0.019153249 0.0028431278 0.019888949 -0.046015255 -0.08585653 0.107904635 0.056489848
0.12859821 -0.022101093 0.060357604 -0.00024211423 0.13350889 0.08271264 0.03314117 -0.06069915
0.08043393 0.044369396 -0.019938828 -0.022115977 0.04698608 0.1280459 0.050171174 0.16330248
-0.028419089 0.16318054 0.06271421 0.05304766 0.041472334 -0.057104103 0.12661162 -0.028356904
0.049826093 -0.022468677 -0.103305414 0.05565167 -0.018838314 -0.09190447 0.08818737 0.12227115
0.16739497 -0.08649507 -0.06920682 0.03913434 -0.011096302 0.14472139 0.10286263 -0.12121403
-0.033084948 0.083265536 0.20138676 0.16271321 -0.0020949559 0.04225198 0.0069950907 0.07593912
0.13102221 0.015070514 -0.023222856 -0.04910354 -0.14374137 -0.012708719 0.029053025 -0.09421256
0.044199724 0.0018625408 -0.115082376 0.068874665 0.023966258 0.16363694 0.058963325 0.17076614
0.1630634 0.11811712 0.10495442 0.024573177 -0.013784268 -0.028896559 -0.09301309 0.051622413
0.0014205405 0.044325028 0.017539535 0.13960302 0.12464557 0.1421746 0.11809211 0.13288066
-0.061092727 0.008810289 0.10079614 0.0145112295 0.05755211 0.060298696 0.09994898 0.12006486
-0.12602313 0.20156053 0.06402062 -0.02599577 0.06850398 0.13595472 -0.035713132 -0.0988294
0.21589899 -0.03873886 0.12362431 -0.034424424 0.13970724 0.13040362 -0.00660803 0.039313592
0.14415082 -0.08673852 0.13838693 0.006446499 -0.01658413 0.11233031 -0.09482458 0.07783044
0.06701867 0.10826388 -0.057015046 -0.024866134 0.00672016 -0.13087784 -0.034903858 -0.022823302
-0.033762336 0.10192363 0.08552543 0.056289434 0.13534667 0.097895905 0.029869162 0.09838746
0.09533813 0.013640307 0.008660906 -0.12069281 -0.10240287 -0.033943083 -0.02647798 -0.02776229
0.05036638 -0.12743057 -0.002801994 0.07955182 0.090027176 0.048569556 -0.054315235 0.09502884
0.056431655 -0.05660212 0.15294157 0.09333294 -0.06421325 0.10617005 0.14764321 0.12579815
-0.10795928 -0.0017053111 -0.0003772808 -0.09405593 -0.122486435 -0.012537959 0.0034768146 0.07935187
0.025495186 0.1284052 0.043564875 -0.079031646 0.1763522 -0.06989348 0.23919585 0.102877475
-0.06552609 0.03455878 0.055453986 0.06005851 0.08531613 -0.10758106 0.13359603 -0.10234027

actor.2.bias f4 [128]
00000000: a932 873d 2a5b 923b ea54 45bb fd46 803d
00000010: 62bf 2d3c 46cd 523d d88c 8dbc e149 31bc
00000020: bd07 e33c 4588 bcbc 6a28 5c3d 3a5a 063c
00000030: 9735 2bbc 5633 ed3a 97c2 0cbd 244d f1bc
00000040: 373e e3bc 5376 1abd 6198 203d 10d3 3fb9
00000050: a8fc 093d b2aa 8b3b ecb3 f8bc 9da6 493d
00000060: 2535 d23c 9cdd 313c 793d 4dbc a557 40bc
00000070: 2cba 6f3c 7533 d1bc 40bc 06bd 96b0 073c
00000080: 2c8e 3e3d 5840 83bc 269d 6f3c feb6 2e3d
00000090: 0000 0000 1b9d 4c3c eafb eabc b635 c7bc
000000a0: f20e 24bd 5afd 88bc f08c 2f3d 138c 873d
000000b0: 7747 3f3a 3ee4 0a3d e820 853d 1f36 08bd
000000c0: 6942 563d 3636 a63d 9e01 2f3c 0e4a ecbb
000000d0: e0f2 bbb9 9359 aabc 2cdf 8f3d a220 f4bb
000000e0: e9c1 1e3d f342 1a3d 482c 783d a32e cdbc
000000f0: bd07 ef3c 3d93 5ab9 1cbd ec3c f810 393d
00000100: a1d9 b0bc 8b09 b73c 4d9d 083d c95e 713d
00000110: f58e 983d 742a 89bb b49d 64bd f132 fb3c
00000120: 26d7 563d af36 b3ba 4f4f 25bc 57ce 98bc
00000130: 588a 0cbd e578 c33c 5c8d 3f3c 988d ae3c
00000140: 7eaa 4a3d 80bb b9bb 4724 96bc b362 223d
00000150: f382 9b3d 65a7 d2bc a69a 853d 827e fd3c
00000160: 6c34 f6bc d63e ddbc c2c6 1ebd 0ecd 313d
00000170: 9bad 543c 87b0 e7bc a159 9d3c 8612 a83c
00000180: 023d 8bbb 4b7a 213d e5ad 5c3c 18ee 423d
00000190: 723c 80bc 638c ba3c be2e 993d 1aa7 903d
000001a0: 1189 403d 6743 063c b342 95bc 7153 8bba
000001b0: 40bf 8dbb 3b6c 793c d50a 87bc 2898 20bd
000001c0: 3d01 543d c51d 06bd 2404 5d3d fb41 963c
000001d0: 348c 4cbc 33da 803b b8e9 feb8 9f65 c839
000001e0: da2a c7bc a108 953c 5aa3 183d 5950 24bc
000001f0: 60c3 acbb 8892 fb3c abc6 1b3d 54bf ae3d
0.066014595 0.004466434 -0.0030110427 0.0626354 0.010604711 0.051465295 -0.017279074 -0.010820837
0.02771365 -0.023014197 0.05374948 0.008200223 -0.0104497885 0.0018096964 -0.034365263 -0.029455729
-0.027739627 -0.0377105 0.03920782 -0.00018293806 0.033688217 0.004262292 -0.030359231 0.04923116
0.025660107 0.010856058 -0.012526863 -0.011739646 0.014631789 -0.025537232 -0.032894373 0.008281847
0.046522304 -0.016021892 0.014624869 0.042654984 0.0 0.012488629 -0.028684575 -0.024317604
-0.040053315 -0.01672237 0.042859018 0.06618514 0.0007296721 0.033909075 0.06500417 -0.03325474
0.052309427 0.08115809 0.010681538 -0.0072109764 -0.00035848375 -0.020794665 0.070249885 -0.007450179
0.038759146 0.037661504 0.060589105 -0.025046652 0.029178495 -0.0002084495 0.028898768 0.0451822
-0.021588149 0.022343418 0.03335314 0.058928285 0.07449142 -0.004185969 -0.05581446 0.03066394
0.052451275 -0.0013672913 -0.010089709 -0.018653078 -0.034311622 0.023861358 0.011691418 0.021307752
0.049479 -0.0056681037 -0.018327845 0.03964491 0.07593336 -0.025714586 0.065236375 0.030944113
-0.030054294 -0.027007502 -0.03876377 0.043408446 0.012980844 -0.028282417 0.019207777 0.020516645
-0.004249216 0.03942327 0.013469194 0.047590345 -0.015653823 0.02277202 0.074796185 0.07063122
0.047005717 0.008194781 -0.018220281 -0.0010629726 -0.0043257773 0.015223558 -0.016484657 -0.039207608
0.051758993 -0.032743234 0.053959027 0.018342009 -0.012484599 0.0039322614 -0.00012155197 0.00038222686
-0.024312425 0.018192591 0.03726516 -0.010028922 -0.005272314 0.03070952 0.03803126 0.08532587

mu.0.weight f4 [1, 128]
00000000: 938e 4cbe 5b30 763e 954f ed3d cee5 26bd
00000010: 495b 983e f9c1 88be d78d 9d3c 3fec 48bc
00000020: b870 053e ee43 893d 077a 8b3e a1a3 8a3e
00000030: 174d 423e 9193 89be e664 483e e389 ba3e
00000040: 1c24 a93e 9c4c 0e3d fb87 8c3e e0ad 8d3e
00000050: 36dd 2abe 361e 093e e969 363e 996a 3f3d
00000060: 7174 20be 34b9 9dbe d4cf 15be c0d5 2ebe
00000070: 236c cebd e834 3b3e f3ad 353d 299e a9be
00000080: 9ce5 8bbe 1cc0 e03d ada5 8b3e 6eff 46be
00000090: 2fe8 41be e877 be3d fe6c fe3d c5d8 643e
000000a0: 5dba 2a3e f72b ed3c 71be a4be 9e95 7dbe
000000b0: 99e6 91be 2666 4cbe b709 42be 1f13 9fbb
000000c0: 99dd 203e edf3 58be 3432 9cbe 609c 0e3e
000000d0: a00d c3be 91aa 113d 3716 2fbe e4e9 4bbe
000000e0: f63e 8dbe 4dd2 91be cb78 2cbe a482 f83d
000000f0: be78 b33e 49f4 f53d 3609 05be a1d3 e0bd
00000100: d960 e83d 39bd 363d 93af 3dbe 6ff6 12bc
00000110: 35c1 19be 6ebd 06be 85de 15bb 39d7 6fbe
00000120: 53de a7be 5bd2 0ebe bbda 20be 450d c0bc
00000130: 6581 5c3e 112c 3c3e 2a61 7339 c407 e43d
00000140: 9545 87be b002 d83d b103 353e 2abb 803e
00000150: e663 1fbe 64be 073e 35fa 5cbe 5f3a 59be
00000160: 6a77 bd3d 245a 713e 79bb d73d 7aad 80be
00000170: 0a6a 83bd e9f0 893e 6c2b 8d3e ad65 c33e
00000180: 2e03 35be 95b4 3abe bf46 3c3e 56a5 90be
00000190: 6296 14be 45c0 96be e1d3 71be de09 75be
000001a0: f674 49be 5cb2 bebd cfc8 9a3d a397 be3d
000001b0: 3250 483d 7a9b 5abe 5a2d 483d d1ad 013e
000001c0: 77f6 b2be 1087 6b3e f178 733d a30f b9be
000001d0: 35a1 4e3e 57d0 113e 78ff 1f3e 40a7 94be
000001e0: 590e e83c 9160 72be ad51 42bd 6cc0 fd3c
000001f0: 90b8 413d 0e46 a0be ff28 7c3e 6de7 01be
-0.19976263 0.24041884 0.11587445 -0.040746503 0.29757145 -0.2671049 0.019232674 -0.012263357
0.1303128 0.0670241 0.27241537 0.27077964 0.1897472 -0.26870397 0.1956974 0.36433324
0.33035362 0.03474103 0.27447495 0.2767172 -0.16685948 0.13390431 0.17813839 0.04673252
-0.15669419 -0.3080536 -0.14630061 -0.17073727 -0.10079219 0.18281901 0.044355344 -0.3312848
-0.27323616 0.10974142 0.27274838 -0.19433376 -0.18936227 0.09300214 0.12423132 0.22348316
0.16672654 0.028951628 -0.32176545 -0.24764106 -0.28496245 -0.19960842 -0.18949018 -0.0048545743
0.15709533 -0.211868 -0.30507052 0.1392684 -0.38096333 0.035563055 -0.17098318 -0.19913441
-0.27587098 -0.2848076 -0.16842954 0.12134293 0.35053056 0.12009484 -0.12991795 -0.10977865
0.11346597 0.04461405 -0.18524007 -0.008969887 -0.15015109 -0.13158199 -0.0022868228 -0.23421945
-0.32786807 -0.13947432 -0.15708439 -0.023443827 0.21533735 0.18376185 0.00023210482 0.11134294
-0.26420274 0.105473876 0.1767719 0.25142795 -0.15565452 0.13256222 -0.21579821 -0.21213673
0.09251292 0.23569542 0.105338044 -0.25132352 -0.0641671 0.26941612 0.2757219 0.3816351
-0.17676994 -0.18232949 0.18386362 -0.2825114 -0.14510491 -0.29443565 -0.23615982 -0.23929545
-0.19673523 -0.09311363 0.075578324 0.09306266 0.048904605 -0.21348372 0.048871376 0.12663962
-0.34953663 0.23000741 0.05944151 -0.36144742 0.20178683 0.14239632 0.15624797 -0.29033852
0.028327154 -0.2366965 -0.047441173 0.030975543 0.047295153 -0.31303447 0.24625014 -0.12685938

sigma.0.weight f4 [1, 128]
00000000: 0ad8 033e 2bb9 043e e4a3 66be c161 6bbe
00000010: 1e9d 293e c0e1 7abd 36ca 543d a72b f53d
00000020: 1b45 f53d fa09 b2bc 1bcd 213e c7ce af3c
00000030: bdbd 4cbe 867f 85be 5d60 bcbd cba0 93bd
00000040: b010 583c 4c7f 49be d2b1 443d 4606 96be
00000050: 6f3a 9ebe 7d19 f63d 9d4d 95be 25ee 4e3e
00000060: dd7f 42be 82b1 e63d f37d 26be 23f3 ca3d
00000070: c7de 94be bf17 16be 08b4 c6be 97ea 71ba
00000080: 8154 643e d7d2 543e 6973 333e 6dc0 853d
00000090: 057b 90bd 1491 c53d 4116 0f3e f5d1 14be
000000a0: 48ca a4be d17b 01bd 40b5 83be f16f 3c3e
000000b0: d25e 9abe 364c 5dbe c1ab 603e 4e99 aa3d
000000c0: 930e 893e a987 833d fa62 e4be fdcc 1fbe
000000d0: 7f4a c5be b932 80be 0f2b 033e 0a5d 3c3e
000000e0: f333 00be af35 0b3e 312f 593e 1e96 c3be
000000f0: d9db 1f3e f180 b4be 1e2c 03be 90d0 43be
00000100: 77c5 b9be e6f5 58be dcbc 8ebe 2e34 493e
00000110: 90a0 713e 62fa 94bd 263e 50be 5937 49be
00000120: f598 8fbd 317f d5bd 2dbf 02be db28 063e
00000130: 0893 81be 2931 1d3e 9a55 89be 9baa 8a3e
00000140: 015b 8fbe e096 823d 0c75 3dbe 0e0c fc3d
00000150: 0cd9 733e 264c 23be 5b9f 473e 1fb1 87bd
00000160: 16ff 5cbe fcad 8dbe bd18 7f3d 72fa b3bd
00000170: bb5b 7abe 254d 12be 9c72 483e ee64 5e3e
00000180: 8b77 5abe 7689 db3d 8be6 3b3e 3290 b13d
00000190: 258e c43d d2a5 47be 157c 3d3e 43ab 243e
000001a0: 5218 9a3c 4666 1a3d 4875 8cbe 87d7 14be
000001b0: 9cc3 a7be 06eb d4be d12a b7bd b2b6 24be
000001c0: caec 8dbd 42e7 95be a7fd 6f3e c05c 8abe
000001d0: 7337 3c3d 77fe 913d d4ff b5be 591b 39be
000001e0: a2c5 bb3d ad86 dfbe 1c1e 243e f878 943d
000001f0: 6d01 52be b5ef 6abe 624c 3f3e ffc0 ba3d
0.12875381 0.12961261 -0.22523457 -0.22986509 0.16563842 -0.06125045 0.051950656 0.11971217
0.119760714 -0.021733273 0.15800898 0.021460904 -0.19994254 -0.26073855 -0.09198067 -0.07208403
0.013187572 -0.19677466 0.048021145 -0.2930166 -0.30903956 0.1201658 -0.29160777 0.20208032
-0.18994088 0.11264326 -0.16258983 0.09909656 -0.29076216 -0.14657496 -0.38809228 -0.0009228377
0.2229786 0.20783554 0.17524494 0.06530843 -0.07054714 0.09646812 0.13973333 -0.14533217
-0.32185578 -0.03161222 -0.2572422 0.18402077 -0.30150467 -0.21611103 0.21940519 0.08330022
0.26768932 0.064223595 -0.44606763 -0.1560554 -0.38533399 -0.25038698 0.12809394 0.18394867
-0.12519817 0.13594697 0.21209408 -0.38200468 0.15611209 -0.35254624 -0.12809798 -0.19122529
-0.36283466 -0.21187553 -0.27878463 0.19648811 0.23596406 -0.07274319 -0.20336208 -0.1965002
-0.07011596 -0.104246505 -0.1276824 0.13101523 -0.25307488 0.15350784 -0.2682312 0.27083287
-0.27999118 0.06376433 -0.18501681 0.12306987 0.23813266 -0.15947017 0.19494383 -0.0662558
-0.21581683 -0.27671802 0.06227945 -0.08788003 -0.24449055 -0.14287241 0.1957497 0.21718189
-0.21334665 0.10719578 0.18349664 0.08670081 0.095974244 -0.19496849 0.18504365 0.16080956
0.018810425 0.03769519 -0.27433228 -0.14535342 -0.32766426 -0.4158556 -0.089437135 -0.16085318
-0.069299296 -0.29277998 0.23436604 -0.27023888 0.045951318 0.071286134 -0.35546744 -0.18076839
0.09168555 -0.43657437 0.16027111 0.072496355 -0.20508356 -0.22943003 0.18681481 0.09118842

critic.0.weight f4 [256, 3]
00000000: ccfa bebe 4d87 743e 1f7b 293e 26d1 70be
00000010: fb52 14bd f06c c43d a5f1 2cbf 86e2 23bf
00000020: e166 05be fe80 dabe 7136 e7bd f4da 4bbe
00000030: 26a9 dcbd 7498 363e 15ac 01be b07c 05bf
00000040: 3079 8a3e 4942 2c3e 4c7e b5be 30d3 20bb
00000050: b585 2abe 03e5 35be 2de0 8a3e 8375 10be
00000060: ca45 0f3e 1299 36be 4793 0abe 9928 4dbe
00000070: 95cd a53e 1d05 dbbc 81ca 29bf caef 1abf
00000080: 7f02 a6bc a553 4abf f5cb 84be 8165 12be
00000090: 4a1f 093e 686e 073e 0521 2cbd 619a 07bf
000000a0: cda7 c23e 2dd9 323e a17a 63bb 2d1f 473e
000000b0: 2836 a8bd d125 0dbf 8640 013f c9f3 3d3e
000000c0: 5bef e03e f235 593e e663 2abd 7ec4 d9bd
000000d0: 9af3 f0bd fb7b 8e3d 261d 2d3c 468a 8a3e
000000e0: ce60 a7bd f20c 0b3e 3023 dd3d 62ad cebd
000000f0: e47f d0be 21f3 88be b654 fbbd 02de f7bc
00000100: b80d 7dbd 25a3 b1bd 00f7 f03b 99c4 22bd
00000110: 856e 86bd 7c97 febe 7243 cd3e d9c8 a1bd
00000120: 3a9c 913d 4e94 283e 40a4 8dbd eb66 1cbd
00000130: e6aa 0ebe 2086 debd 17f5 0abd 5178 293d
00000140: 6a51 62bd 8470 b83d 0201 1bbe 5568 2bbd
00000150: 0ab0 9cbc a8bd 75bc 74a1 8abd 6c6a 8c3d
00000160: 1ee1 92be 1f92 a2bd 33d1 b7be 19e5 6dbf
00000170: 97b8 54be 0adf 05be f79d 753d 7b44 9ebd
00000180: b4d9 7e3e 3d88 4ebd bf49 fcbd 5994 713e
00000190: 467c 8b3c 5f97 85bd 7e93 16be 7892 7c3e
000001a0: 0bee e2bd 92ec 14bf 97f7 1c3f 714a 513e
000001b0: b70f e03e 5d01 113e 971d 383e 5e22 76bd
000001c0: 0a55 8fbd 0b71 8bbd 3c4c 04be 7fa7 db3d
000001d0: 17ea 00be 1c58 a5be 0ccf fc3c 572d 17be
000001e0: a8a7 1a3e f2db cc3c 0461 edbd 11ed afbe
000001f0: 2a0a 7b3f 4400 853e 748e 10bf 75e3 0c3f
00000200: 0266 3d3e 09b8 ddbe 8fe0 603f f448 733e
00000210: 6d95 c6be 0dd8 853e c21c 043e e50a 2cbf
00000220: b4c7 81be a379 cc3d a6e6 abbf 6942 0e3e
00000230: 6c35 82be f8ea 26bf 705f 87be ad13 803d
00000240: a9cb 29be a9ac f8bd e4b2 b13d a8bd bc3d
00000250: 1e1a bbbc 9dd6 83bd ac5d 09bf 4fd1 003f
00000260: 636f 5dbc 1059 a4be a31e 653f 4a2d 743e
00000270: d473 203e 6b88 f53d 7541 0ebd f564 13bf
00000280: 7705 da3e 3226 413e 8c16 06bf 0ad7 b43e
00000290: acda 2e3e b070 16bf 1e5a 0d3f 31d1 4a3e
000002a0: aed5 12bf f123 48bc e867 47be 33d6 c6be
000002b0: 7d95 75bf 4d61 acbe 41b3 1bbe 5977 653e
000002c0: 34f7 efbd 0028 17bf 4c78 823e 0dc2 3dbe
000002d0: 754f 8a3c 8ee0 463e 5e55 8fbd a83e 3d3d
000002e0: 4ec7 87bd dd50 d3bd a8cd 2fbd d375 363e
000002f0: 9e72 adbd 7357 9d3f 5c89 ddbd 1796 0fbe
00000300: 3251 febe b673 4e3f b3dc 6c3e 2604 c93d
00000310: 25c7 5b3e c438 5dbd 8d42 a33d e199 35bc
00000320: 269d 57bd 6ee1 88be c321 b43d 3bf4 e53d
00000330: 9799 dbbe 3198 7e3f 5ce1 853e 035b 8cbe
00000340: 549b b93d 9e8b ed3d 0398 fcbe 5b1b e63e
00000350: 2735 a63c 6208 723d 7563 1a3e a0d8 d6bd
00000360: 85ea 13bf a11d e23e 942c 423e 9692 513f
00000370: 15db f53d ac8b b7bd 65c9 c1be effb 693e
00000380: 56d1 29be 875c 73be 4c14 9fbc 7d48 ce3d
00000390: b752 ccbd 9b82 9ebe 9842 fb3e e25e f2be
000003a0: 0d77 803e 4935 1d3e 1f8e 7ebe 0a09 b73d
000003b0: 487a dc3d cbd1 1b3f 0402 a3bd a578 92bd
000003c0: 5c96 28bf 06ab 8bbe eddc 663d e1ce 0bbf
000003d0: 2fa4 013f 7e6f 3a3e d168 81be f1aa a0be
000003e0: 59a2 863d faba 77be bcd0 133c e19b ca3d
000003f0: caca 7dbf 897f 2fbe 86e9 36be 8e8c 8c3f
-0.37300718 0.23879738 0.16550873 -0.23517284 -0.03621195 0.09591091 -0.6755622 -0.6401752
-0.13027526 -0.42676538 -0.11289681 -0.19907743 -0.1077445 0.17831594 -0.126633 -0.52143383
0.27045584 0.16822161 -0.3544792 -0.002453994 -0.16652568 -0.17763142 0.27124158 -0.14107327
0.13991466 -0.17831829 -0.13532744 -0.20035018 0.3238341 -0.026735837 -0.6632462 -0.6052214
-0.020264862 -0.7903388 -0.25936857 -0.14296533 0.13390842 0.1322571 -0.042023677 -0.5296994
0.38018647 0.17465658 -0.0034710544 0.19445486 -0.082134545 -0.5513583 0.5048908 0.18550028
0.43932614 0.21211985 -0.041599177 -0.10633181 -0.11765213 0.06957241 0.010566032 0.2705862
-0.08172761 0.13579157 0.10797727 -0.10091664 -0.40722573 -0.26747993 -0.12272017 -0.030257229
-0.06178066 -0.086736955 0.0073536634 -0.03973827 -0.06564049 -0.49724948 0.4009052 -0.07899637
0.07109876 0.16462824 -0.06916094 -0.038184088 -0.1393238 -0.10865426 -0.033925142 0.04137451
-0.055253424 0.09005836 -0.15137103 -0.041847546 -0.01912691 -0.014998831 -0.06769076 0.06856236
-0.28687376 -0.07938027 -0.35901794 -0.929277 -0.2077354 -0.13073364 0.0599651 -0.07727905
0.24887735 -0.050422896 -0.123187535 0.23591746 0.017027032 -0.06523012 -0.14704701 0.24665248
-0.11080559 -0.5817348 0.6131529 0.20438553 0.4376199 0.14160676 0.17980038 -0.06009137
-0.06998642 -0.068086706 -0.12919706 0.10725307 -0.12589298 -0.32293785 0.030860446 -0.1476339
0.15103018 0.025007222 -0.1159077 -0.34360555 0.98062384 0.25976765 -0.56467366 0.5503457
0.18495944 -0.4330447 0.8784265 0.23758298 -0.38785878 0.26141396 0.12901595 -0.67204124
-0.25347674 0.09984138 -1.3429763 0.13892521 -0.25431383 -0.65202284 -0.2644 0.06253753
-0.16581596 -0.12142307 0.08676699 0.092158616 -0.022839602 -0.064374186 -0.53658557 0.5031938
-0.013515326 -0.320992 0.8949987 0.23845401 0.15669185 0.1198891 -0.034730393 -0.57575923
0.42582294 0.18862227 -0.52378154 0.35320312 0.17075604 -0.587657 0.5521563 0.19806363
-0.573573 -0.0122156 -0.19473231 -0.38835296 -0.95931226 -0.33667985 -0.15205099 0.22408809
-0.11717072 -0.5904541 0.25482404 -0.18531056 0.016883591 0.19421598 -0.069987044 0.04620233
-0.06629811 -0.10318158 -0.04292074 0.17818384 -0.08469127 1.2292312 -0.10817215 -0.14022098
-0.49671322 0.8064531 0.23131065 0.098152444 0.21462686 -0.054009214 0.07971678 -0.011084051
-0.052640103 -0.2673449 0.08795502 0.11228224 -0.42890617 0.99450976 0.26148498 -0.27413186
0.090628296 0.115988955 -0.49334726 0.44942746 0.020289017 0.059090026 0.15077002 -0.10490537
-0.57779723 0.4416323 0.18962318 0.818643 0.12004677 -0.08962187 -0.37848964 0.22850011
-0.16583762 -0.23765765 -0.019418858 0.1007242 -0.09976714 -0.3095902 0.49074244 -0.47338015
0.2509083 0.15352358 -0.24858902 0.08937271 0.10765511 0.60866994 -0.07959369 -0.07151917
-0.6585443 -0.27278918 0.056363035 -0.5461255 0.5064115 0.18206593 -0.2527528 -0.31380418
0.06573934 -0.2419242 0.009021934 0.09893013 -0.99137557 -0.17138495 -0.1786252 1.0980394

critic.0.bias f4 [256]
00000000: ae19 023f 8556 a63e 0098 fd3e 788a 083f
00000010: ff0d 103f 7a7d c33e e246 003f 22b6 183f
00000020: d21b f83e 950a a83e a327 df3e 5294 a73e
00000030: 29f6 fa3e 9fd4 b83e 9039 f43e d8c3 b13e
00000040: da74 ef3d 4a3e b13e 976e 243f b95e b73e
00000050: e895 043f a8c1 c33e 6387 f83e cfa3 af3e
00000060: ad38 ed3e cf3a 113f 8f83 063f 79a1 a83e
00000070: b721 053f 7a37 a83e 9e15 0d3e 435b 0d3f
00000080: bd71 0d3f d399 a63e b855 153f 0d26 ad3e
00000090: 7bd7 bd3e f584 eb3e fad5 ea3e 99ff fb3e
000000a0: 8ba7 0b3f 117d ca3c 55d5 a83e 29a3 073e
000000b0: a5f9 883e 9a00 623e 931f 0b3f 088b 193e
000000c0: 8d4b af3e 8cc6 d63e cddb a63e e8ff cd3c
000000d0: b684 003f 2f01 c93e c2ea c13e 0377 ba3e
000000e0: bd1d 8c3e 6759 be3d c039 f83e 1ae6 013f
000000f0: bf4b 173f d6ae 123f f75d de3e 4ab0 6d3e
00000100: b7d2 5a3e 1a37 223f 582d ed3e 575e a93e
00000110: 1012 d03d 3cb6 ae3e e243 953e 7098 c93e
00000120: 5a42 c93e c65c 3c3e cd20 073f a4f4 9b3e
00000130: ffe6 d13e aab6 ac3e e0c2 a53e fac1 473e
00000140: bdc0 133e b07c ae3e 0924 af3e dff3 9a3e
00000150: 7369 e13e 751b 873e 60f5 a43e 0564 be3e
00000160: 341f f53e 91df fc3e c38d 8c3e 6da4 f83e
00000170: 12c8 9c3e e411 1c3f 5506 c83e ac9f a03e
00000180: 0914 eb3e 7226 f83e adb9 ed3e 3310 363e
00000190: cb61 de3e c321 b23e 3f08 b23e 2cd9 243f
000001a0: f4f8 d83e c7f6 083f f34f 0f3e 6f78 063f
000001b0: 77b1 cc3e 304a bd3e 1d30 8c3e d269 f93e
000001c0: 8661 c03e 77fe ba3e 9c94 d13e f7a9 d03e
000001d0: 415d c73e 0326 413e 3f63 9b3e bfbb 0e3f
000001e0: 99c3 c33e 5f42 923e 57d3 fb3e 790f ac3e
000001f0: 36ad b23e e114 1b3f 7712 143f f1c3 cc3e
00000200: 6413 063f 7668 a73e 436c 1e3f 3645 093f
00000210: d57e 073f d212 f23e a5b7 9b3e abc6 883e
00000220: cffd dfbc 1bc6 9f3e c189 243f bf10 093f
00000230: ffe1 f63e b5db 84bc 120f 1a3f 7cda b23e
00000240: e3d5 a33e c517 6ebe 436b 1d3f cf31 b6bb
00000250: 8a7c 963e 3128 1b3f de30 e03e 8888 e53e
00000260: cdba e33e 68b5 093f 2675 093f 2053 af3e
00000270: b1ad c83e da35 6b3e f041 0e3f c937 a53e
00000280: c7e4 6e3e ad69 af3e f393 163f 251f 573e
00000290: 8ed5 e13e b13c 8abd f21a e13e d2f9 333d
000002a0: 588f a83e 43f4 12be 8f29 cd3e 4bbe 093e
000002b0: d1a6 d23e e6a1 bf3e b193 3b3e 270d f73e
000002c0: 75d3 863e 9a53 2e3f 351d a23e 1ec8 cf3e
000002d0: 5ced f13e bb9f b63e 5910 003f 4361 b53e
000002e0: 5078 043f 50da b53e d37a e53e 9f10 f93e
000002f0: e50c f53e ad5a fc3e 804c 5a3e ffcc dd3e
00000300: 270c d53e 98a4 033f 40e9 c13e c151 bf3e
00000310: 19f3 0f3f d456 bf3e 903a b03e df11 313d
00000320: 7ef4 c33e 6ca5 f83e 61cf 173f fac0 e33e
00000330: 7912 123f 37f5 df3e 23e9 0d3e 607a 973e
00000340: 8308 063f a15f ac3e 271a 013f 152b 983e
00000350: c0e8 d43e ce7d 9e3e dd04 2d3d 1fc6 b63e
00000360: f25e 323e ecda 1b3f 6111 bd3e ea4f a93e
00000370: 5d00 0e3f e105 173e 589c f13e dd2b 8f3e
00000380: e0c3 cf3e 89d2 833e 0056 003f 52f3 833e
00000390: b571 f53e e2b5 c03e 9a96 fe3e 4b80 ee3e
000003a0: 2d39 5f3e 2ef4 a93e 3810 7c3e 86b3 c73e
000003b0: a0e0 a83e a13b 223f 0ec4 a63e 1cfd da3e
000003c0: 02b4 083f c30b a53e be35 8a3d 0f81 b53e
000003d0: 8480 f13e 84a2 a93e 8dfd f73e 4fe0 c23e
000003e0: 4f9a 8f3e 6f23 963e 2961 df3e 5cfd 1b3e
000003f0: b1b9 cd3e 4ffd 123f aa79 603e cfa6 a03e
0.50820434 0.32487884 0.4953003 0.53336287 0.56271356 0.3818167 0.5010816 0.5965291
0.48458725 0.32820573 0.43584928 0.32730347 0.4901593 0.36099717 0.47700167 0.3471973
0.116922095 0.34617835 0.64231247 0.35814455 0.5179124 0.38233685 0.48540792 0.34304664
0.46332303 0.5673036 0.5254449 0.32935694 0.5200457 0.32854825 0.13777778 0.5521738
0.55251676 0.32539234 0.5833392 0.33818093 0.3707846 0.45999876 0.45866376 0.49218443
0.54552525 0.02471784 0.3297526 0.13245834 0.26752964 0.22070542 0.54345053 0.14994442
0.34237328 0.41948354 0.3258957 0.02514644 0.502025 0.39258716 0.37874418 0.36418924
0.27366439 0.09294396 0.4848156 0.5074173 0.59099954 0.5729803 0.43431064 0.2321178
0.21369444 0.6336533 0.46323657 0.33079788 0.10159695 0.3412341 0.29153353 0.39374113
0.39308435 0.18394765 0.52784425 0.30460083 0.4099655 0.33733112 0.3237524 0.1950759
0.14428993 0.34079504 0.3420718 0.30264184 0.44025764 0.26388136 0.32218456 0.37185684
0.4787537 0.49389318 0.27451906 0.48562947 0.30621392 0.609648 0.3906733 0.3137182
0.45913723 0.4846683 0.46430722 0.17779617 0.43433985 0.34791383 0.34771916 0.6439388
0.42377436 0.5350155 0.13995342 0.5252752 0.39979145 0.36970663 0.27380458 0.48713547
0.37574404 0.36522266 0.40933692 0.40754673 0.38938335 0.18862157 0.30349156 0.5575523
0.38235167 0.28566262 0.49184677 0.33605555 0.34897774 0.60578734 0.57840675 0.3999324
0.5237334 0.32696885 0.61883944 0.5362123 0.52927905 0.47279984 0.30413547 0.26714072
-0.027342705 0.3120583 0.64272696 0.5354118 0.48219296 -0.016218046 0.60179245 0.34932315
0.3199912 -0.23251255 0.61491793 -0.005560137 0.2939189 0.606082 0.43787283 0.44830728
0.44478455 0.5379243 0.5369438 0.34243107 0.39195016 0.22969761 0.5556936 0.32269123
0.23329459 0.34260312 0.588195 0.21007974 0.44108242 -0.06749857 0.4396587 0.04393942
0.32921863 -0.14350991 0.4007077 0.13451497 0.41142896 0.37428206 0.18318059 0.48252222
0.26333204 0.68096316 0.31662908 0.40582365 0.47251403 0.3566874 0.50024945 0.35425767
0.5174608 0.35518122 0.4482027 0.48645493 0.478614 0.4928793 0.21318245 0.43320462
0.41610834 0.51423025 0.37873268 0.3736706 0.5623031 0.37370932 0.3441968 0.043229934
0.3827247 0.48563707 0.5930081 0.44483167 0.5705944 0.43741772 0.13858466 0.29585552
0.5235674 0.3366671 0.5043053 0.2972037 0.41583824 0.30955356 0.042240966 0.3569803
0.17419031 0.60880923 0.36927322 0.33068782 0.55469304 0.14748336 0.47189593 0.27963153
0.40579128 0.25746563 0.50131226 0.25771576 0.47938314 0.37638766 0.49724275 0.46582255
0.21799155 0.33194107 0.24615562 0.39004153 0.32983875 0.63372236 0.32571453 0.42771232
0.5339967 0.32235536 0.06748532 0.35450026 0.47168362 0.33131802 0.4843563 0.3806176
0.28047416 0.2932391 0.43628815 0.15233368 0.40180734 0.5741777 0.21921411 0.31377265

critic.2.weight f4 [128, 256]
00000000: c3f6 4abf d51f 60be 8232 753e 3265 043f
00000010: a36b 1a3f 99da 93bf 7653 073f 12e8 373f
00000020: 8dac df3e 37c1 3a3e 3cc6 ff3d 2a91 0c3f
00000030: 4245 123f c96b c2bf f656 2e3f 9744 16c0
00000040: 9984 863e 76eb 00be b236 033f fc5c 623e
00000050: af70 e53e 984b e83e 1c8c b53e ed1a 9cbf
00000060: f351 1b3f 1ccb e43e 5fce c93e c90f 763c
00000070: 0cf0 b53e 4c48 d83e 2da1 6ebe 252d 043f
00000080: 0875 db3e ba8e bb3d 9615 233f c907 12c0
00000090: c586 18bd ed8b be3e 270f a13e 37da f33e
000000a0: 349f 113f ecbb 01c0 d693 06c0 cc5e f1bf
000000b0: 1588 81bf 4303 84bf d3fd 183f 35e0 66bf
000000c0: fe19 99be e5e9 b33e 0052 04c0 c2a7 f5bf
000000d0: ef84 023f ac06 ebbf cb6e 87bf 0db4 07c0
000000e0: 3118 cd3e b853 b9be c025 083f d751 033f
000000f0: a85b 133f 02d7 013f 2e69 2a3f 8c58 a33e
00000100: 370f 0bc0 1170 223f e2f7 0d3f 228c 26be
00000110: 0414 01c0 14f0 8cbe 12b7 dcbf aad4 b03e
00000120: aed2 f8bf 4b58 4dbd 38c6 023f f2de 46be
00000130: 7e1a 513d 02df 87bf 42de 80be 1086 4e3e
00000140: 168d 11bf b85d d7bf 4a67 bfbe 7099 61be
00000150: 7c23 013f 4f75 c43e 0b6f dbbf 4606 063d
00000160: 878d ae3d 9d11 a03d bc51 a23d 675a 8cbf
00000170: da12 9bbf 72b6 ef3e 2eb0 b4bf 9bfc 07c0
00000180: e857 523e 0aeb d43d 0e29 0d3f f50a 49bf
00000190: 7a0d 87bc 605b 13c0 51bc 04c0 7816 103f
000001a0: 564a ad3e 81b3 003f 82e0 72be 6b85 193f
000001b0: f02a aa3e 23c6 363f 0c9f 12c0 f1be 1b3f
000001c0: 4b33 eabf 0139 1bc0 e960 dcbf 456e e13e
000001d0: 0313 ff3e e174 a1bf 6bc5 c73d e372 b23e
000001e0: 1916 d63e a7e9 8e3d 4282 213f 7f3a 35bd
000001f0: 4efd 16c0 11cf 343f 16c8 023f 85f3 7e3e
00000200: fa73 053f 8720 fabf bdb4 1b3f 0c26 c63e
00000210: 0a20 b73e c3f6 e53e fe57 67be f8db a9bf
00000220: 1128 4ebe e111 01c0 6523 103f b2d2 4a3f
00000230: a9d7 a43e ac54 b4be 13b6 e53e c462 03be
00000240: 200e 80bf 2791 8dbe 279b 1f3f 34e0 9ebe
00000250: c022 5ebf 8327 153f 0033 d03e 3fa3 90bf
00000260: 4c67 f23e 9f71 fb3e 35c8 20bd c912 b6bf
00000270: 3f25 853e 7d0b 93bf 9df2 023f 5305 15bf
00000280: 20a6 e93e b3dc 12c0 ee71 f83e 7204 033f
00000290: 8199 de3e 874c 67bf 5b10 023f 9e0e f4bf
000002a0: 8d34 adbe 62e7 35bf b8fa e0bf 28f8 0bc0
000002b0: 4efb cc3e 2dd8 bc3e 5424 0ac0 33f5 e93e
000002c0: 7f53 0a3f cdf4 0e3f 8d03 d03e 0c1f b83e
000002d0: eb0b 4f3f 4d46 a83e bce3 273f 15be 333f
000002e0: 229c f93e 332b 14c0 9b56 d53d 4d7c a03e
000002f0: 4886 f23e 763b 013f ded1 48be d7ed d53e
00000300: afed a03c 8d88 173f 51e8 bdbf bfd5 f63e
00000310: 6068 0b3f 3467 b03e 0e2e 07c0 ed04 7dbe
00000320: ac87 9b3e 1c9f 973e 2d05 103f d73a fb3e
00000330: 29fd fd3e f962 073f 158b b7be 0ee5 16c0
00000340: 8453 e93e a898 9ebc 7370 e63e cab1 08c0
00000350: 3c3b bebf 81cc 18c0 715c 2dbe e3b1 13c0
00000360: 0647 9b3e 2977 0e3f dae6 01c0 6b5e 98bf
00000370: 58b6 1b3f 460c bbbe fe14 1d3d 35dc cdbf
00000380: fced c83e da30 913c b23a 013f be71 3fbe
00000390: cf1c 183f 731c 1dc0 8973 d53e 0099 353f
000003a0: e1d0 a5bd d2f4 82bf 0101 aa3e 9862 92bf
000003b0: c856 fcbd b9b3 3b3f 7605 f0bf ce93 bb3e
000003c0: 4727 f93e 1f4b f0bf 0ebf 00c0 6bda c4bf
000003d0: 5a3c 253f f37f 16bf 4271 b93e 95a6 a33e
000003e0: 8c80 04c0 afa7 1ebd 6e54 fabd daa6 803e
000003f0: e903 e5bd a4cf 163f c372 e0bf 2c9b b7be
-0.7928278 -0.21887143 0.23945048 0.5171691 0.6032049 -1.1551086 0.52861726 0.71838486
0.43686333 0.18237768 0.12488982 0.54909 0.5713693 -1.5189143 0.6810144 -2.3479364
0.2627304 -0.12589821 0.51255333 0.22105783 0.44812533 0.45370173 0.35458457 -1.2195717
0.6067192 0.4468621 0.3941526 0.015018412 0.35534704 0.42242658 -0.23303671 0.51631385
0.42862725 0.09158082 0.6370481 -2.2817252 -0.0372379 0.3721613 0.31456873 0.47627422
0.5688355 -2.0270948 -2.1027732 -1.8857055 -1.0119654 -1.0313495 0.59762305 -0.9018586
-0.29902643 0.35139385 -2.067505 -1.9191821 0.5098409 -1.8361411 -1.0580686 -2.1203644
0.4005752 -0.36196685 0.531826 0.5129675 0.5756173 0.507187 0.6656674 0.31903493
-2.1728036 0.6345225 0.55456364 -0.16264394 -2.0168467 -0.27526915 -1.7243369 0.3453725
-1.9439294 -0.05013303 0.5108371 -0.19420984 0.051050656 -1.0614932 -0.2516957 0.20168328
-0.56855905 -1.6825476 -0.3738349 -0.22031188 0.5044477 0.3837075 -1.7143263 0.032720827
0.08523088 0.078158595 0.07925746 -1.0965089 -1.2115128 0.46818882 -1.4116266 -2.1247928
0.20541346 0.10396393 0.5514077 -0.78532344 -0.016485918 -2.302452 -2.073994 0.56284285
0.33845776 0.502739 -0.23718455 0.59969205 0.33235884 0.7139608 -2.2909575 0.6083823
-1.8296903 -2.4253542 -1.7217075 0.4402944 0.49819192 -1.2613794 0.09754451 0.34853277
0.41813734 0.069781594 0.6308938 -0.04424524 -2.3592105 0.7062846 0.51086557 0.24897583
0.5213009 -1.9541177 0.6082266 0.38700902 0.3576663 0.44914827 -0.2259216 -1.3270254
-0.20132472 -2.0167162 0.5630401 0.79227746 0.32195786 -0.3522085 0.44865474 -0.12830645
-1.0004311 -0.27649805 0.6234612 -0.31030428 -0.86771774 0.58263415 0.4066391 -1.1299819
0.47344434 0.49110124 -0.039253432 -1.4224483 0.2600498 -1.1487881 0.5115145 -0.5821125
0.45634556 -2.2947204 0.4852442 0.5117866 0.4347649 -0.90351146 0.50806206 -1.9066961
-0.33829156 -0.7105619 -1.7576513 -2.1870213 0.4003548 0.3688368 -2.1584673 0.45694885
0.54033655 0.55842286 0.4062771 0.35961187 0.8087756 0.32866135 0.6558187 0.7021192
0.48751932 -2.3151367 0.10416909 0.31344834 0.47368073 0.50481355 -0.19611308 0.4178302
0.019644586 0.59192735 -1.4836522 0.4820995 0.5445614 0.34453738 -2.112186 -0.2470891
0.30376947 0.29613578 0.562579 0.4906833 0.49607208 0.52885395 -0.358483 -2.3577304
0.4557153 -0.019359902 0.45007667 -2.1358514 -1.4861827 -2.387482 -0.16929795 -2.3077323
0.30327624 0.55650574 -2.029715 -1.1903814 0.6082511 -0.365328 0.038350098 -1.6082827
0.39244068 0.01772349 0.50480187 -0.18695733 0.5941896 -2.4548614 0.4168971 0.70936584
-0.08096481 -1.0230963 0.3320389 -1.1436338 -0.1232124 0.7332111 -1.8751667 0.36636204
0.4866278 -1.8772925 -2.011661 -1.5379156 0.64545214 -0.58788985 0.3621922 0.3196303
-2.0703459 -0.038734134 -0.12223135 0.25127298 -0.111823864 0.58910584 -1.7535022 -0.35860574

critic.2.bias f4 [128]
00000000: 1f67 b73e a6ce 993d 5d3a 0e3d 7983 8a3e
00000010: 7025 603e 0883 43bc 97eb 09bc 9ed2 f93d
00000020: 67c7 173e cbac 9d3d 0a9b 52bc 5219 8b3d
00000030: a352 833d 6753 513d 753a e23d 1509 093e
00000040: aa7e 0cbc 096e b13e 2b6a 853e a8db d13d
00000050: ce05 ab3d 27d1 7d3d 392c 1f3e 6a12 c43d
00000060: 4615 1dbc 1136 3a3e 1b60 673e 8fd9 833d
00000070: b627 6bbc f7f3 d83d 838f a83d bec5 30bc
00000080: db6b 773d 71f4 003d c71c 933d 3b0b 8b3e
00000090: d01e 913d 2725 e03d 65bc b33d 1049 b03d
000000a0: fe21 8c3d 2e9d 073e b7fd 22bc 4059 70bc
000000b0: d6fb 2abc 71d6 9d3d b8a7 f93d 6827 50bb
000000c0: f519 4abc e29a 63bc 6f8a ec3d 71db 863e
000000d0: 57ff 2bbc 77c0 a1bc baca 67bc 605b 75bc
000000e0: 7a54 893d 9f44 0e3e 9463 c4bb 5afe fc3c
000000f0: 75f5 483e 251e cd3d e35f 9f3d bb93 113e
00000100: a0f9 7e3d 48fc 4fbb d5e1 4abc c1cf c73d
00000110: 0795 083e ce9e b9bc c92f 12bc 2531 60bc
00000120: 294a 643e 3982 943e 57b6 0abc 4604 223d
00000130: 3311 9a3d d57d 58bc 49c2 543d 2c6c 463e
00000140: 78d6 93bb e54e 2bbc 5428 a3bb a01d 85bb
00000150: 0b49 3fbc 0249 bc3d e478 cfba ff37 d43d
00000160: dae1 0ebc 3814 0abc 79ac 9c3c 5a40 293d
00000170: c63a 93bc ecaf 15bc fcb8 36bc 344d 82bc
00000180: 7cd8 313e ae17 36bc d393 a6bc b1e0 583d
00000190: c0d7 123e e7d9 81bc 2589 6b3e c63e 40bb
000001a0: ba24 293e 5ae7 54bc e825 5e3e 4e12 c83d
000001b0: e991 ae3d ebd7 a33d 897a b53d 4bb0 383d
000001c0: 99aa 553e 7990 133e 4b0b e43d e616 923e
000001d0: c079 7f3e 667c 593e ed97 6c3d e819 f73d
000001e0: 73cb 943d 7a17 b13d 5418 9f3d 7811 a33d
000001f0: 93d9 60bc 0f86 733a 979a a2bc 02aa ba3d
0.35820863 0.07510118 0.03472363 0.2705343 0.21889281 -0.011933096 -0.008417985 0.12198375
0.1482216 0.07698973 -0.012854347 0.06791939 0.06412246 0.05110493 0.11046306 0.13382371
-0.008575121 0.34654263 0.26057562 0.10246974 0.083507165 0.06196704 0.15544213 0.09573825
-0.0095875915 0.18184687 0.22595255 0.064379804 -0.01435273 0.105934076 0.08230498 -0.010789333
0.060405593 0.031483117 0.07183223 0.27157006 0.07085955 0.10944586 0.08776168 0.086076856
0.06842421 0.13243553 -0.009948186 -0.014669716 -0.010436019 0.07706917 0.12190193 -0.003176177
-0.01233529 -0.013891907 0.115498416 0.26339296 -0.0104978895 -0.019745095 -0.014147455 -0.014975399
0.06705566 0.13893364 -0.005993316 0.030883003 0.19624884 0.10015515 0.07781961 0.14216511
0.06224978 -0.0031736065 -0.012382944 0.09756423 0.133381 -0.022658732 -0.008922526 -0.013683592
0.22293915 0.29005602 -0.008466325 0.039554857 0.07522812 -0.013213594 0.051943097 0.19377202
-0.0045116507 -0.010455822 -0.0049791727 -0.0040623695 -0.01167513 0.09193613 -0.0015828875 0.10362243
-0.008720839 -0.008427672 0.01912521 0.041321136 -0.017972361 -0.009136181 -0.011152502 -0.015905954
0.17367738 -0.011114044 -0.02033416 0.052948657 0.14340115 -0.015850974 0.23001535 -0.002933429
0.16517916 -0.012994612 0.21694148 0.09769116 0.08523924 0.080001675 0.08861262 0.04509
0.20865859 0.1441058 0.111349665 0.28533095 0.24948788 0.2123886 0.057762075 0.12065488
0.07265367 0.08647056 0.07768312 0.07962316 -0.013723749 0.00092896906 -0.019849105 0.09114458
