A5/modelset/a3c/a3c_actor_critic.pt (torch, 276479 bytes, 10 tensors)

actor.0.weight f4 [256, 3]
00000000: 5524 313d ca63 8e3d 4921 343d 95e9 1f3d
00000010: e7e1 5b3d bcaa 623d 0b5b 9fbb 756f ac3d
00000020: d60f 0d3d 3aee 9a3b c034 2cbd 41f9 91bd
00000030: d885 fcbd b768 98bd f210 20be 620e 153e
00000040: b364 0c3e 2ad3 12be 75c1 04be 6aa6 0f3d
00000050: 292d 983d 7b3b 253d de11 f5bd 630a 0f3d
00000060: b2b2 c9bd 02e3 60bd a3c1 98bd 56a2 da3d
00000070: 1f88 5abd 8709 343c 41f4 023e 5bff c73d
00000080: 0322 a13c 518c 0fbe 1c9e 11be 86f1 a43d
00000090: 4608 703d f321 ebbc 8e2a f6bc dc40 8bbc
000000a0: af24 14be 7a5d df3d 5684 323d 671c 8c3d
000000b0: c03f babd c90f ab3d 393b b73c 7831 2ebd
000000c0: 3041 14be afaa 82bc 494e d1bd e866 5b3b
000000d0: 2bff 463d b77a 37bd 0e84 9dbd e5b0 22be
000000e0: 4988 343c 2701 183e aa4f a0bd bfd2 83bd
000000f0: d6df 063e 3ac7 3bbd b966 efbc 3186 f53c
00000100: 167b 043d 5fc9 d3bd 5c91 af39 7b78 1abd
00000110: d285 76bd 34f7 5cbd 71d9 ed3d 2520 e6bd
00000120: 7357 4c3d 9900 f93d 0457 59bd 3091 2bbd
00000130: ae7e 14be 1334 b4bd a676 67bc e4c0 c23c
00000140: 556f c7bd dd91 133e be49 0bbe 8adb 993c
00000150: edee ae3d cf58 113c f44e bfbd 3f30 00be
00000160: e10d 07bd 771d 073c a52c a83d 0a36 bc3a
00000170: 8bf5 32bd 5576 09be a081 b03d 93be 9cbd
00000180: 94d6 afbc 2f6f 3c3d 01c2 91bd 1fe6 123c
00000190: e041 cdbd cb1a 5abd 9009 dd3c 2ace fa3d
000001a0: 743d 63bd b6b6 e3bd d4c5 e7bd cccb 24bd
000001b0: 94b7 8c3d 68cc 12bd 6b5d cf3d 0b2b b03d
000001c0: e462 18bd 569c 363c c8f5 ba3d de00 8cbd
000001d0: ca2b cc3c 9f11 06be 2fed c7bd 03eb 03be
000001e0: 90cf 98bc 9d54 073e 9307 313c d6be 0bbd
000001f0: a970 82bc 2dc1 0f3e f2ba 49bd 6058 31bc
00000200: f056 2ebd 820b 9abd a027 bfbd 5589 eabd
00000210: ea41 d0bc 6f1e 3cbd 0ee9 dabd 38ca 9cbd
00000220: 53f9 fbbd a242 b1bd 9492 0b3d 2b09 a7bd
00000230: bf72 b5bd 63c9 163e 4724 bbbb 7afe ea3d
00000240: c58d 7bbd e3ab 243c 239d d1bd 429a e6bd
00000250: 8628 68bd 121b f43d a46a 1c3e e5a1 4a3d
00000260: 1df7 dabd 49cc edbc d65b 1a3e d22a 89bd
00000270: b5f0 8c3d 029c bf3d de29 6a3d 9d3f a5bd
00000280: 0915 903d 5d11 8fbd e528 02bd 626f da3c
00000290: 7c42 513d 428b 90bc ebe9 a73c afd2 1b3d
000002a0: 41ab d43d a30e 643d 0c6f dabd a07a 8dbd
000002b0: d884 5dbc d617 1f3b 66cd 90bc d431 01be
000002c0: b36d 963d 609c 853d 397f 1d3e 745b c6bd
000002d0: 67cb 0c3e bde3 203c e97b 2a3d 8a84 dc3d
000002e0: 19de 05be 1bb1 bbbd b2cb 4d3d ff3b ab3d
000002f0: 8dba 68bd 5bc5 573d c90c ca3c 873b 54bd
00000300: b948 5e3c 1c56 acbd 3314 59bd bcdd 00be
00000310: 7db0 68bd 6cc0 cfbd e180 82bd fc9a 0b3e
00000320: 2742 863d 854f a93d 694d 653d e575 a63d
00000330: 111a 6f3d fc05 733d fa5d bbbd 0694 0abe
00000340: c7bd 0abe 5dc0 f03d c764 183d 4214 d83c
00000350: 271d bcbd eba2 a4bd dffb 11be 4182 183d
00000360: b368 2d3d 5294 2d3d 2d43 993b 9ad9 b8bd
00000370: f91c d0bd 056a 13be fe28 debd 3441 f2bd
00000380: 14ff c6bd 95fc eb3a 08a6 ac3d 4930 cb3b
00000390: e6a8 eb3d 1467 9cbc 6a37 ba3d e8b1 183e
000003a0: 55f0 303c 8ac8 43bc df09 10be 12ad b4bc
000003b0: 40fa 4fbd 8f4b 933d 1b02 f23d 6e5e 5c3d
000003c0: bdeb 023e 0517 b2bd 7c1c c83d a468 7fbd
000003d0: 1bc9 87bd 9355 0bbe c058 e5bd f296 133e
000003e0: 48b4 f23d f624 a8bd 3b9e 60bd 69a8 123e
000003f0: ada6 bd3d df84 e8bd f862 55bd 8434 62bb
0.04324754 0.06952627 0.043977056 0.03904112 0.053682234 0.055338606 -0.004863148 0.08419696
0.03443893 0.004728106 -0.042042494 -0.071276195 -0.12330216 -0.07441848 -0.15631464 0.14556268
0.13710289 -0.14338365 -0.12964423 0.035070814 0.074304886 0.040339928 -0.119662985 0.034922015
-0.098485366 -0.05490399 -0.07458808 0.106754944 -0.05335247 0.0109886 0.12788488 0.09765502
0.019669538 -0.1401837 -0.1422047 0.080538794 0.05860164 -0.028702712 -0.030049589 -0.0169987
-0.14467119 0.10906501 0.043583237 0.06841355 -0.090941906 0.0835262 0.022367107 -0.042527646
-0.14477992 -0.015950529 -0.1022001 0.0033478085 0.04858319 -0.044794764 -0.07691203 -0.15887792
0.011018821 0.1484419 -0.07827695 -0.06436681 0.13171324 -0.045844294 -0.029223787 0.029971214
0.032343946 -0.10341143 0.00033486902 -0.037712555 -0.060186215 -0.05394669 0.11613739 -0.112366
0.049888086 0.12158317 -0.0530615 -0.04188651 -0.1450145 -0.08798995 -0.014127409 0.023773618
-0.09738032 0.14411111 -0.13602349 0.018781442 0.08541665 0.008871271 -0.09341231 -0.12518404
-0.03297222 0.008246771 0.0821164 0.0014359367 -0.0436912 -0.13424046 0.08618474 -0.07653537
-0.021464624 0.04600447 -0.071170814 0.008965998 -0.1002233 -0.053248208 0.026982099 0.12246354
-0.05547853 -0.11118834 -0.113170296 -0.04023342 0.06870952 -0.03583947 0.1012524 0.0860196
-0.037203684 0.011145672 0.0912891 -0.06836103 0.024923224 -0.1309266 -0.09762036 -0.12882619
-0.018653661 0.13215871 0.0108050285 -0.034117542 -0.015922861 0.14038534 -0.04925055 -0.010824293
-0.04256338 -0.07521726 -0.0933373 -0.11451975 -0.025422055 -0.04592746 -0.10688983 -0.07655758
-0.12303414 -0.08655287 0.034075335 -0.081560455 -0.08859777 0.1472526 -0.0057111117 0.11474319
-0.0614145 0.010050747 -0.102350496 -0.11259891 -0.05667927 0.11919226 0.15275055 0.0494708
-0.10691664 -0.029028075 0.15074095 -0.066976205 0.06881849 0.09355928 0.057168834 -0.08068774
0.07035262 -0.06985734 -0.03177728 0.02666444 0.051088795 -0.017644528 0.020497283 0.03804272
0.103842266 0.05567802 -0.10665712 -0.069081545 -0.013520442 0.0024275682 -0.017676067 -0.12616664
0.07345142 0.06523967 0.15380563 -0.09685412 0.13749467 0.009819922 0.041622076 0.10767467
-0.13073005 -0.091646396 0.050243087 0.08361053 -0.056818534 0.052678447 0.0246643 -0.051814582
0.013567143 -0.084148616 -0.05299778 -0.12584585 -0.056808937 -0.101441234 -0.06372238 0.1363334
0.06555586 0.0826712 0.055982027 0.08127955 0.05837447 0.05933188 -0.09148784 -0.13533029
-0.13548957 0.117554404 0.037205484 0.026376847 -0.09185248 -0.08038887 -0.14256237 0.037233595
0.042336177 0.042377777 0.0046771974 -0.09025879 -0.10161776 -0.14395912 -0.108476624 -0.11828843
-0.09716621 0.0018004352 0.084301054 0.0062008244 0.11506824 -0.01909212 0.09092601 0.14911616
0.010799487 -0.011949668 -0.14066266 -0.022055183 -0.050775766 0.07192146 0.11816808 0.053800993
0.1278524 -0.08695797 0.09771058 -0.062355652 -0.06630155 -0.13606863 -0.11198568 0.1441305
0.11850792 -0.08210175 -0.0548384 0.14322056 0.092603065 -0.11353468 -0.052096337 -0.0034516165

actor.0.bias f4 [256]
00000000: 16e8 eb39 e18a 90b9 2d71 f139 cea4 9f3b
00000010: 85c8 27bb 91dc d539 e892 fa3b 4116 a43b
00000020: 5225 fc3a 1356 c4ba b0bf f63a 8622 d5bb
00000030: bbd3 7d3b 2cbd 8d3a 2448 083a ffcd 563b
00000040: ab5f 693b b1ea 39bb 8126 9f3b ed1d c03b
00000050: 2b7c 183c 77e2 913a 2641 c73b 0dfa 4aba
00000060: 186e 42bb 5a6e c13b a4a5 913b d9ee c13b
00000070: 7467 853b a187 34b9 9cb5 5dbb 5671 863b
00000080: e6d6 6bba c734 8bbb b83b 21b9 bc8a 4fbb
00000090: c118 3cbb 5395 5c3b 21c0 053c 71b3 2b3a
000000a0: 83e4 0e3b fb6b f23b 839c 36bb 6744 ad3b
000000b0: fd27 353b 6808 d33a 970c be39 bb8e aebb
000000c0: 9195 b3ba 2346 7439 423b c0b9 5663 f43a
000000d0: a670 b7bb c354 be3a eee0 c33b c1f3 e83a
000000e0: a5e7 a8bb 7616 adb9 3146 20bc f698 a939
000000f0: 40df cebb 2805 1539 1e0d 9abb 7232 d9bb
00000100: 205c 943b 833e 893b e64a 9e3b bd50 93bb
00000110: db79 003a e661 a33b efae af3b 4473 37bb
00000120: 9c21 bdba 9d90 343b 25aa 12bb f1c4 85b9
00000130: 93e0 7cbb 12f3 3fb9 b315 863b 344a c3bb
00000140: 1fb4 3f3c 0d97 0aba e7d3 aebb a4a1 8e3b
00000150: 1927 85bb 5979 3f3b fbae a03a d347 d63b
00000160: 8a26 dc3a bf63 64bb 4d50 f13b 034f 273b
00000170: 3a10 a33b b452 c0bb 7f87 5bbb eb89 173a
00000180: 856c db3a 7191 46bb efb7 843b 312e 9b3b
00000190: f342 3c3b 6e84 9238 a770 d1bb b131 74bb
000001a0: 659b ad3b 118b d33b 488d e9bb 45b8 61bb
000001b0: dee5 7fbb ec1d 423b ad06 b93b 0aa4 3a3b
000001c0: b9a7 0f3b 6ab3 0dbb 4260 c63b 4d39 003a
000001d0: 6292 8bbb fd68 ccb9 b559 8d3b 9cc7 d939
000001e0: 0d88 4ebb 4d0f 06bc 2e6d 563b a3c6 553b
000001f0: a81a 3bbb 5ed4 7ebb b281 28bb 8844 e7ba
00000200: 45ae ac3b 3936 b1bb 11d3 0ebc 6fde cc3b
00000210: dbd1 3e3b da6d 24bb 2664 d43a c449 63bb
00000220: 4ad3 7ebb 3216 08bb 12cc bd3b e56e a5bb
00000230: 58f3 16ba bc15 c4bb 74c7 a43b 6680 81ba
00000240: 9b00 7e3b 1d0a 2939 8e97 2d3b 3eb2 883b
00000250: e52c 9d3b d067 bd3b 371e b23b 0ab5 c3bb
00000260: 1738 c0ba b6b1 583a b57f 173b 36d3 84ba
00000270: 5848 9cbb dc5d 0d3c 0696 a83a a328 eb3b
00000280: 0c4f 82b9 a401 90bb 9209 dc3b b54c 98bb
00000290: af22 97bb 30eb f4ba 4521 38bc bcc7 ee3a
000002a0: bed8 84bb 09f9 acb9 9217 593b 3557 b53b
000002b0: 0e63 283b 98ef 34bb dafc 04bc 383a 10bc
000002c0: 1290 9b3b cf59 2f3b 9428 8dbb b8f7 9e3b
000002d0: 198e abbb 0acc afbb 8ff3 03bc c25e 633b
000002e0: b5f5 83bb fa70 ed3a aaa7 993b c5fb 13bb
000002f0: 0ed6 fdb9 1bde e639 968e ccbb 097c 2a3b
00000300: 09a5 f4ba b139 8bba 844a 973b cd31 84bb
00000310: f1ee 06bc f719 5d3b 98bb 88b9 fed1 fabb
00000320: be34 af3b e079 f7b7 313b 683b 46c8 72ba
00000330: 7dae 683a 1716 6b3a e7ff cebb 20a8 f9b8
00000340: c4f4 8038 f04e 7cbb b0cf cb3a 78af 07bc
00000350: fd06 1ebb fb33 343b 6f17 3dbb 786b a33b
00000360: 6603 68b8 3d3a 4bba 7d29 9e3b 4057 1d3b
00000370: acc0 9fbb 9353 09ba 332e d439 efd2 a4bb
00000380: 8a50 cbbb a3fa 22bb 4b52 e3bb a79b 42bb
00000390: 13fb babb 4d0c b13a a4fb 0d3b 57f9 13bb
000003a0: f4b5 d73b 0334 c83b 88cc 853b b913 0c3c
000003b0: bbad 833b e6b5 d83b 50d9 6f3b fa46 a03b
000003c0: ba4d 1a3c 92dc a4bb 66bd 97bb 915d 163b
000003d0: ab1a 95bb b34a 52bb cfa4 76bb 54b3 cfb8
000003e0: 73cb f639 fffd 0ebb 3d7a 0cbc 6ec9 4b3b
000003f0: eec6 f53a 80c2 99bb d404 f53b 276e fdbb
0.0004499561 -0.00027569293 0.00046051425 0.004871941 -0.0025601697 0.0004079086 0.007646907 0.0050075357
0.0019237197 -0.0014979265 0.0018825438 -0.0065043597 0.0038730938 0.0010813824 0.0005198738 0.0032776592
0.003561 -0.0028368647 0.004856885 0.0058629424 0.009306948 0.0011130114 0.0060807643 -0.0007742949
-0.0029667672 0.0059030475 0.0044447947 0.0059183654 0.0040711705 -0.00017216663 -0.0033830171 0.004102866
-0.0008996561 -0.004248235 -0.00015376403 -0.0031668385 -0.0028701278 0.003365834 0.008163483 0.0006549871
0.0021803684 0.007398126 -0.0027864284 0.005287695 0.0027642243 0.0016100528 0.00036249004 -0.0053270734
-0.001370119 0.00023295781 -0.00036665244 0.0018645327 -0.0055981455 0.001452111 0.0059777414 0.001777284
-0.0051545673 -0.00033013866 -0.00978236 0.00032348157 -0.0063132346 0.00014211668 -0.0047012707 -0.006628328
0.0045275837 0.00418836 0.004830706 -0.0044957087 0.00049009704 0.0049860356 0.00536143 -0.0027992288
-0.0014429572 0.0027552017 -0.0022379246 -0.0002551447 -0.0038586005 -0.0001830573 0.004091942 -0.0059597734
0.011700659 -0.00052867905 -0.0053353193 0.004352765 -0.0040634987 0.0029216616 0.001225918 0.006539324
0.0016796154 -0.0034849492 0.007364309 0.0025529272 0.0049762996 -0.005869234 -0.003349751 0.0005780744
0.0016740715 -0.0030299092 0.004050247 0.004735731 0.0028726428 6.9864895e-05 -0.006391603 -0.0037261064
0.0052980655 0.006455787 -0.0071274377 -0.0034442109 -0.0039046924 0.0029619886 0.005646548 0.0028479123
0.002192004 -0.0021621832 0.0060539553 0.0004891351 -0.0042593936 -0.00038988134 0.0043136724 0.00041538186
-0.0031514198 -0.008182359 0.0032718885 0.0032619617 -0.0028549824 -0.0038883905 -0.002571207 -0.0017644325
0.005269798 -0.005408075 -0.008717314 0.006252102 0.0029116783 -0.002508989 0.0016204163 -0.003468142
-0.0038883262 -0.0020765183 0.0057921493 -0.00504862 -0.0005758307 -0.0059840363 0.0050286595 -0.0009880185
0.0038757685 0.00016120863 0.0026488039 0.0041716387 0.0047966116 0.0057801977 0.005435731 -0.0059725093
-0.0014665154 0.0008266227 0.002311689 -0.0010133747 -0.0047693662 0.008628335 0.0012862093 0.007176475
-0.00024854427 -0.004394727 0.006715008 -0.004647816 -0.004612289 -0.0018685814 -0.011238401 0.0018217484
-0.004054158 -0.00032991942 0.0033125621 0.0055340775 0.0025693807 -0.002760863 -0.008116925 -0.008802943
0.004747399 0.002675641 -0.004307816 0.0048513077 -0.005235445 -0.0053648995 -0.008053674 0.0034693931
-0.0040270933 0.0018115335 0.0046891766 -0.0022580486 -0.00048415404 0.000440345 -0.0062425835 0.0026013872
-0.0018664907 -0.0010622052 0.0046170373 -0.004034257 -0.008235679 0.00337374 -0.0002607971 -0.0076544276
0.0053468635 -2.9501447e-05 0.0035435671 -0.00092614105 0.00088760984 0.000896783 -0.006317127 -0.00011904561
6.149107e-05 -0.00384992 0.0015549567 -0.008281581 -0.0024113052 0.0027496803 -0.002885308 0.0049871765
-5.5316275e-05 -0.00077525136 0.004826723 0.0024008304 -0.004875263 -0.0005238589 0.00040470212 -0.005030028
-0.0062046694 -0.002486863 -0.0069373003 -0.0029694827 -0.0057062 0.0013507694 0.0021664882 -0.0022579038
0.00658297 0.006109716 0.00408322 0.008549624 0.004018513 0.006613481 0.0036598034 0.0048912736
0.0094179455 -0.005031177 -0.0046307324 0.0022943954 -0.004550298 -0.0032087981 -0.0037634855 -9.903932e-05
0.00047072358 -0.0021818874 -0.008574066 0.0031095403 0.0018751302 -0.0046923757 0.007477382 -0.0077340784

actor.2.weight f4 [128, 256]
00000000: bd81 2cbd b75a cabd 5c1a 9bbd 3e86 1a3d
00000010: 0f30 05bd 572d 49bd 8a05 b0bd 54a5 db3d
00000020: b778 753b 048d c13c 490c aebd f447 4a3d
00000030: 7119 8ebd 120b e73c e5f4 f4bd 266e dd3c
00000040: b3cf 9a3d e772 3a3d 4812 d43d 125c 56bd
00000050: f643 9c3d cd08 243d 0161 bebd cb13 dbbd
00000060: 6185 9ebd 46e4 5d3a 7282 6bbd 6186 aabd
00000070: 26a6 053e c533 e8bd 5e70 ab3d 4628 d63d
00000080: 7a75 8b3d 76ce 5c3d d62d c63d 0b15 a0bd
00000090: 9f2f 61bc c291 4c3d ba0a 7c3d 2dc1 a9bd
000000a0: 3c46 963d cbbe edbd edd2 413d 15df 82bd
000000b0: 46b1 2b3c d019 1fbc a765 83bd d197 1b3d
000000c0: 2ea5 8bbd b65b 5d3b 9e80 903d e549 60bd
000000d0: 6853 463c f7ca 9abd e033 f4bc 2f27 b5bd
000000e0: f490 36bc 9bc2 4e3b 1b89 e1bc 0d78 183d
000000f0: 36e3 14bd 25fb bebd de2b 373c 5d8f a5bd
00000100: f51b 0b3d 1979 65bc ade9 a5bb 4b5c 95bb
00000110: 2b66 c83c 3f97 acbd 55b7 7d3c 9fcb d23d
00000120: 9dc6 0d3d 3a43 ca3d c7d5 cebd 39bc a73d
00000130: f8f8 a3bc bd75 96bc f6f3 edbd ac2c 83bd
00000140: 8080 913d e985 9b3d f87e e93b 10ff 443c
00000150: abfd 533d 46a2 cabd 8c9c bcbd 18ca c7bc
00000160: 8dda a9bc 8ae9 f33d b638 9e3d 79f0 de3d
00000170: a76d 313d dabe 47bd 6d78 c63d b2fa ebbd
00000180: bfd0 9bbd 34f3 a53d 543c a83c a31e 003e
00000190: 5577 d0bd efee cdbd e36b dabd 6398 6d3d
000001a0: 9aab efbd fe5d 363d 0352 8b3c 349d a43d
000001b0: 3f0a 7bbd f798 c1bd 24e8 e33d bc9b 893c
000001c0: 7492 b2bd 3175 fabc 2d15 fb3d bd42 72bd
000001d0: 5308 cbbd f0be e2bd 479e e4bd 2ccb 6bbd
000001e0: 958b 123d c813 b13d a78d 6d3d 7d8f 9d3d
000001f0: 1775 88bb 0618 133c 3407 393d 0e81 cd3b
00000200: fc9b c43d 4bed 633c 3131 f4bd 5273 003d
00000210: 13ef 083c 8980 f8bc 2ec5 d8bd 57c9 913c
00000220: 57e0 9d3d 67fa f43d f207 74bd 9821 5ebb
00000230: b753 bc3b f3b7 ea3d ec38 703d 22b4 b53d
00000240: 0c3e f53c 44db 82bd cf5d 4ebd b4fe b43c
00000250: 9f9c c73c b32f 94bc c546 dabc 1406 26bd
00000260: ab8e 533d 49a9 563d e2e9 9cbd bb76 a3bd
00000270: 45d1 d4bd cf12 91bd 6961 013d 9dbd eebd
00000280: 85b7 81bd e482 eabd 1274 e8bd 9838 c53c
00000290: 02dc c0bc a4ca d33d 4238 d23c bc8e 053d
000002a0: f706 893d ef29 b03d ad57 e63c 099b 483d
000002b0: 4217 493d bb15 823d ffed c83d 1aec 913c
000002c0: a2f9 9a3c 1784 8abd fe7f 3e3c 5ab3 29bd
000002d0: 37aa ecbd eed2 9d3d 3803 9b3d 3a3e 463d
000002e0: 95cb b1bd be8d 85bc 0d19 c0bd ad47 603d
000002f0: f8c6 ac3d f033 dc3d b698 b6bb b21d 633d
00000300: 12ce 83bc 9f81 eebd c307 1a3d 0f08 80bd
00000310: bf31 a0bd 5ffc 34bd db14 83bd b22b 883d
00000320: 59da e4bd 641a b33d 4747 aabd a2db 28bb
00000330: 18bc 9e3d 0974 d3bc b1ad 2cba a23b e9bc
00000340: adfa d1bd 9559 8b3d 01a6 dc3d aa2b 1a3d
00000350: 7ffb 7dbd ea88 8f3d 7e08 ff3d 8a3e b63d
00000360: b22e e13d 6900 fd3c 78ae 983d c5bc dc3d
00000370: b20c 7f3c fcef bd3d 769c 893b b573 f83d
00000380: a0c4 ae3d 85cd 923c c828 bfbd a479 e8bd
00000390: ccf2 aebc 5329 b5b7 a34e 7d3d 945a ce3d
000003a0: 59fa 2b3d 6c23 c73c 4a63 99bc 6bca 91bd
000003b0: 3c64 ce3c 1396 4fbd f55c b93b 8780 2cbc
000003c0: b60b f03c 3e2f c43d 1fd5 ca3d e567 e33d
000003d0: 827c cbbd a7d6 ccbd 1cfc 3bbb bdfd cbbd
000003e0: 461d 3c3d be92 b53d be7e 923d cc3d a8bc
000003f0: a723 6ebd 312b 6a3d 3b2b c33d 15c4 19bd
-0.042115916 -0.09880584 -0.07573387 0.03772568 -0.032516535 -0.049115505 -0.085948065 0.10724893
0.0037455985 0.023626812 -0.08498437 0.049385026 -0.06938446 0.02820352 -0.119607724 0.027030062
0.07559147 0.045519736 0.10355049 -0.0523339 0.0763015 0.040047456 -0.09295846 -0.106971346
-0.07740284 0.00084644963 -0.05749745 -0.08326412 0.13051662 -0.11337999 0.08371042 0.104569
0.06809516 0.053907834 0.09676711 -0.07816514 -0.013744264 0.049943693 0.061533667 -0.082887985
0.07337615 -0.116086565 0.047320295 -0.06390206 0.010479277 -0.009710744 -0.06415873 0.03798658
-0.06818615 0.0033776588 0.07055782 -0.05475797 0.012104847 -0.07558244 -0.029809892 -0.08845364
-0.011142958 0.00315491 -0.027531197 0.037223864 -0.036349498 -0.09325246 0.011179892 -0.08083985
0.03396221 -0.014005923 -0.0050632567 -0.0045581213 0.02446278 -0.084272854 0.015485604 0.10292744
0.03461324 0.09876104 -0.100993685 0.081901975 -0.020016178 -0.018366689 -0.116187975 -0.06405005
0.071045876 0.07593901 0.0071257316 0.012023702 0.05175559 -0.098942325 -0.092095464 -0.024388358
-0.020734096 0.119097784 0.077256605 0.1088571 0.043317463 -0.048765995 0.09690938 -0.11522426
-0.076081745 0.08103028 0.02053658 0.12511687 -0.10179011 -0.100553386 -0.10665109 0.058006655
-0.11702652 0.04452323 0.01700688 0.080377966 -0.06128907 -0.09453004 0.11128262 0.016797893
-0.0871934 -0.03057346 0.12259898 -0.059145678 -0.09913697 -0.11071575 -0.111630015 -0.057566807
0.035777647 0.08646351 0.05799642 0.07693384 -0.004164349 0.008977896 0.045172885 0.006271488
0.09600064 0.0139115555 -0.11923445 0.031359978 0.008357781 -0.030334728 -0.10584484 0.017796202
0.07708805 0.11961823 -0.05957789 -0.0033894535 0.0057472843 0.11460867 0.058648035 0.08872248
0.029936813 -0.06389478 -0.05038243 0.022094108 0.024366675 -0.018089151 -0.026645074 -0.04053314
0.05164973 0.052407537 -0.07661797 -0.079816304 -0.103914775 -0.070836656 0.03158704 -0.116572596
-0.06333832 -0.11450747 -0.11350264 0.024074838 -0.023542408 0.10341385 0.025661591 0.032606825
0.066907816 0.08601748 0.028117979 0.048975978 0.049094446 0.06351801 0.09811019 0.017812777
0.018917862 -0.067634754 0.011627195 -0.04143081 -0.115559034 0.07706247 0.07568973 0.048399188
-0.08681408 -0.01630294 -0.09379778 0.054755855 0.08436388 0.10752094 -0.005572404 0.05544824
-0.016089473 -0.11645817 0.03760506 -0.06251537 -0.07821988 -0.044185992 -0.06400462 0.06648959
-0.11174459 0.08745268 -0.08314376 -0.0025765677 0.0775072 -0.025812166 -0.00065871613 -0.028470818
-0.10252891 0.06804196 0.1077385 0.037639298 -0.062007423 0.07008536 0.12452792 0.08898647
0.109952345 0.030883985 0.07455152 0.107781924 0.015566992 0.09274289 0.00419956 0.12131444
0.08533597 0.017920265 -0.0933395 -0.11351326 -0.021356009 -2.1596124e-05 0.061842572 0.1007587
0.041986797 0.024308883 -0.018724103 -0.07118686 0.02519428 -0.05068023 0.0056568333 -0.01052869
0.02930246 0.09579323 0.09903931 0.11103801 -0.09935857 -0.10001879 -0.0028684204 -0.09960506
0.045926355 0.088658795 0.071530804 -0.02053728 -0.05813947 0.057170097 0.0952973 -0.037540514

actor.2.bias f4 [128]
00000000: 1887 2a3b 3bc8 fdba 4b2e e4bb 2da5 84ba
00000010: e925 d53b 3d5d cf3b 755a ad3b 5140 e6ba
00000020: fccd 653b 8f87 cd3b a4be 75ba ddf2 0dba
00000030: 6412 bcbb b59a e13b 4d56 b33b 1a0b 18ba
00000040: f24e cbbb e7d4 c0bb f246 7c3b c49c ad3a
00000050: fcdf 94b8 c3c1 943b ecc9 073b 8e9e b4ba
00000060: e005 a93b 7729 c3bb cf9b 68bb fbd6 e03b
00000070: 6bdd 0bbc 3b85 c9bb 6067 38bb 6f11 a2bb
00000080: 88a6 863b d1bf e8bb 87d8 d6bb 1238 27bb
00000090: 3ce4 ddba 8e73 ccba b214 b33b 6c74 cbbb
000000a0: 0000 0000 18ff f737 5842 d2bb c473 41bb
000000b0: 11c4 f73b cc11 dd3b a984 0fbb 65c1 be3b
000000c0: 7c9e eb3b 539e f83b 7358 a4bb d86b 663b
000000d0: 4ebc 433c 645a d2bb f06a bdba 931f 04bc
000000e0: 4bd4 343b 7c3a ce3a 5cee d43b bbb3 83bb
000000f0: f1ca 2fbb fa8b bcba 1d9a ecbb ad01 fe3b
00000100: 1b0e df3b a016 5f3b 2371 123c aff2 173c
00000110: 27b9 30bb b231 1cbb be1b 9abb a345 87ba
00000120: c790 f23b 8d21 2dbb c305 713a 6426 893b
00000130: ee83 c5bb de8b bfba 3cdc fe3a feda 6dbb
00000140: 60a6 013c 9b5d d83b 4576 c63b efdf 5cbb
00000150: ac5b 0f3a 48ea e9bb a452 f0bb 2c58 b7ba
00000160: 9f7e ec3b 1a90 7abb ef88 9e3b c302 763b
00000170: 2348 8bbb 4957 c0ba f59a ec3b 4a37 52b9
00000180: 033a 8c3b b564 34bb 0bc2 01bc 7344 2e3c
00000190: 7610 b3bb 39d2 af39 a5f0 45b9 25a1 bf3b
000001a0: 962b 9e3b ef42 84bb 547f a63b e0bd 14ba
000001b0: da59 f83b bd09 463b 5033 f4ba da99 42bb
000001c0: f474 f23b 130f a93b 092a 8b3b 72da 0a3c
000001d0: b1b7 cabb 165c 52bb fe80 c63a 6e95 423b
000001e0: db41 e33b 10cc b3bb 9129 9fbb 7a44 ec3b
000001f0: c797 61bb 9437 063c b70c f33b 3caa aeba
0.0026020464 -0.0019362041 -0.0069635264 -0.0010120027 0.0065047634 0.0063282535 0.0052903243 -0.0017566775
0.0035065403 0.0062722634 -0.0009374416 -0.00054149126 -0.005739497 0.0068848976 0.0054729343 -0.0005799994
-0.0062044794 -0.005884755 0.0038494435 0.0013245572 -7.09891e-05 0.0045396998 0.002071972 -0.0013780163
0.005158171 -0.0059558707 -0.003549326 0.006861565 -0.008536677 -0.0061499155 -0.0028137788 -0.004945926
0.0041092075 -0.0071029444 -0.006556574 -0.0025515598 -0.0016928981 -0.0015598403 0.0054651136 -0.006208947
0.0 2.9563482e-05 -0.0064166 -0.0029518465 0.0075612147 0.0067465063 -0.002189914 0.0058213943
0.0071905237 0.007587233 -0.005015427 0.0035159495 0.011946751 -0.006419467 -0.0014451426 -0.0080641685
0.0027592357 0.0015733982 0.006498141 -0.0040192283 -0.0026823843 -0.0014384978 -0.00722052 0.0077516646
0.0068071014 0.0034040585 0.008938107 0.009274169 -0.0026965828 -0.0023833332 -0.004703014 -0.0010320436
0.0074025127 -0.0026417703 0.0009194279 0.0041854847 -0.00602769 -0.0014613827 0.0019444297 -0.003629386
0.007913202 0.0066029555 0.0060565793 -0.003370281 0.0005468677 -0.007138524 -0.0073340703 -0.0013988069
0.007217243 -0.0038232864 0.004838101 0.0037538267 -0.0042505427 -0.001467445 0.0072206208 -0.00020047757
0.0042793765 -0.0027525846 -0.007919799 0.010636437 -0.005464609 0.0003353523 -0.00018877031 0.0058480673
0.004826973 -0.0040362994 0.0050810967 -0.00056740455 0.0075790705 0.0030218207 -0.0018631015 -0.0029693753
0.007399196 0.0051592677 0.0042469543 0.008474933 -0.0061864485 -0.0032098345 0.0015144644 0.0029691118
0.006935341 -0.0054869726 -0.00485725 0.0072103115 -0.0034422742 0.008191962 0.007417287 -0.001332588

actor.4.weight f4 [1, 128]
00000000: 1d09 debd 9dd5 9c3d fa95 1c3e 5c83 65bd
00000010: 0bc3 d0bd fe7a d2bd 61ad 53be 4517 2cbd
00000020: 59f8 c5bb b3a2 4cbe 386b 73bd 71da 363d
00000030: 3930 4f3d c2fb c2bd 6af4 e73c 22bc 2a3e
00000040: e629 323d 2cd7 1c3e 4ede 81bd 1c24 7d3d
00000050: 8b37 df3d d25c 8ebd 844d 013e b07b d03c
00000060: 1506 84bd 896c 4e3e 0f19 773d 07e6 f4bd
00000070: 4ea9 b43d 70c2 7f3c 60c9 5d3c 13ba 573e
00000080: e3f9 07be 4de8 1a3e 737a 323e 78fc db3c
00000090: 5be0 453e 68a4 e43d 16bd 03be 5c05 343e
000000a0: b42c db3d 31d6 89bd cdb3 8e3b 5c10 1b3e
000000b0: 16e6 2cbe 8465 44be b17a 683c ba24 a1bd
000000c0: 6203 17bd 8b53 15be cea5 113e 16a8 57bd
000000d0: 8fd3 c7bd 9c08 553e 8ada 233e 0d20 d93d
000000e0: e092 40be c260 18be 0435 56be 5100 ad3d
000000f0: 8069 573e c8b8 a2bd b95d 3c3d ac68 46bc
00000100: af9b 23be 88d2 8dbc ddfc efbc 2f70 53be
00000110: 480a d63b 7357 253d 80a4 0d3d 4a5a 0abd
00000120: 2018 0cbe e160 47be f2b0 5cbe 634d 10be
00000130: 2282 023e c11d 413e 6c05 443e 14c9 543a
00000140: f3ea 03be f029 2bbe b674 ddbd 0935 0f3e
00000150: ac92 fa3d 385f 983d 4bc2 0c3e 8798 d6bd
00000160: 5c94 63be 15eb 0f3e 0d8d 3dbe 4d6c 38be
00000170: 1811 3f3e f0a9 2a3c 9a9e d2bc 4844 5f3d
00000180: 19bd 36bd d350 403e 7789 113e 2c5c 1bbd
00000190: ede5 563e 1a39 103e cb28 f5bd 68c3 adbd
000001a0: 8d93 a2bd 51b8 3d3e 9873 4bbe c00a 993d
000001b0: ef60 25bd 0bbd 47be 7503 d73d 4d59 3abe
000001c0: a92e 46be 3d43 18be 45ef 1abc 91ed 7bbc
000001d0: 083f e43d 207a 143c 52d0 17be 3ac2 dc3d
000001e0: 0258 25be b1e0 c53d 2cd2 523e 80b5 c5bc
000001f0: 0528 3b3e 10dc 83bd a427 1bbe a64f c53d
-0.10841582 0.07657931 0.15291587 -0.056033477 -0.101934515 -0.10277365 -0.20671608 -0.04201438
-0.0060415682 -0.1998394 -0.059428424 0.044641916 0.050583098 -0.09520675 0.028314788 0.1667333
0.04349699 0.15316457 -0.063412294 0.061802015 0.10899266 -0.06951298 0.12627226 0.025449604
-0.064464726 0.2015859 0.060326632 -0.11957937 0.08821355 0.015610322 0.013536781 0.21067075
-0.13278918 0.15127678 0.17429523 0.026853785 0.19323866 0.111641705 -0.128651 0.1758017
0.10701886 -0.06730307 0.00435493 0.1514296 -0.16884646 -0.1917935 0.014189408 -0.07868333
-0.03686846 -0.1458265 0.14223406 -0.052650534 -0.097571485 0.20804065 0.16001335 0.10601816
-0.18806028 -0.1488066 -0.20918661 0.08447326 0.21036339 -0.079454005 0.04598782 -0.012109917
-0.15977357 -0.017312303 -0.02929538 -0.20648263 0.0065319873 0.0403666 0.034580708 -0.033777513
-0.13681078 -0.1947055 -0.21551874 -0.1409202 0.12744954 0.18859006 0.19142693 0.0008117121
-0.12882595 -0.16715217 -0.108132765 0.13985075 0.12235007 0.074400365 0.13745992 -0.10478311
-0.22224563 0.1405452 -0.18510838 -0.18010063 0.18658864 0.010416493 -0.025710393 0.054508477
-0.04461393 0.18780832 0.14212595 -0.0379297 0.20986147 0.14084283 -0.11970671 -0.084845364
-0.07938299 0.18527342 -0.19868314 0.074727535 -0.040375646 -0.19505708 0.10498706 -0.18198128
-0.19353737 -0.148694 -0.00945646 -0.015376464 0.11144835 0.00906232 -0.14825562 0.10779233
-0.16146854 0.09661997 0.20587987 -0.024134398 0.18276985 -0.06438458 -0.1515184 0.09634332

critic.0.weight f4 [256, 3]
00000000: c32d d93d feb8 7abd 2065 c1bd 2d43 21be
00000010: 8248 e5bd d11b 04be 4a33 c1bd 512b c8bd
00000020: 4392 b53d a92b bdbd 9bc0 da3d 8791 333e
00000030: 753b 0ebe 3063 453e 18cd ba3d e295 cb3c
00000040: 3041 3fbe 05ac 1abe 9696 1ebd 0cd9 183e
00000050: 9738 913d b5b5 ff3c 6fda 2c3e 082e 053e
00000060: b0a7 7abd abd3 c9bd 94c9 10be 474e debc
00000070: d5d7 823e fa04 033e 9f98 c1bc a6d6 f63c
00000080: 173b 01be 87e0 b2bd fe21 94bd dc21 dfbd
00000090: 4d13 11be 5923 0bbc 84f9 343e d336 eabd
000000a0: 3164 913c 0d6d 0ebe fd2a 60bd 9dc2 1ebe
000000b0: d74e 013e f14b 3ebd 79da 2dbd 757f 3d3d
000000c0: b895 56bd a5e2 e2bd a841 d03d f466 0dbe
000000d0: 53be 7d3e 64d9 2f3e 89af 01be ef6a 653e
000000e0: 70ee 113e e4ca 493d ed41 483e 97a5 113e
000000f0: a9d8 28be 69c7 b63d 6292 0ebe fd19 83bc
00000100: 0df7 52be 276f 863d 02e0 61be 2ff5 1f3e
00000110: 2fbe 223d a9d3 cfbd d84b 70be 5919 a4bc
00000120: f26e 63bd 80b5 6a3e bb79 5b3e c643 45be
00000130: afa7 3fbe 53f7 25be 6520 23be 2a90 b63d
00000140: eeba 203e b193 21be 9e75 15be a169 00ba
00000150: 4dc1 28bd da83 4ebe f583 3abc 0efe 7ebc
00000160: 0f39 24be 7b8d df3d 55ec 803c 7b62 36be
00000170: 641f 04be a4b6 8e3c e474 693e 1c79 dc3d
00000180: ca8d 0dbd ddfb eabc 4bb6 563e 9f2b c6bc
00000190: 700b 743e a05b 293e 6a3e 9fbd 0fef f73d
000001a0: 1eb2 13be d189 0ebe 0264 2a3e 852b 7cbc
000001b0: 31a8 623d fcfa 753e e60c 443e e6bb 3dbe
000001c0: b002 42bb bf6a bcbd e6f4 c7bb 540a 44be
000001d0: d7b2 98bd 7ad7 283d a829 433e 6fa7 993d
000001e0: 603d 68be 89cd 3a3e ccc2 733d 43e6 d4bd
000001f0: d5d6 85bd c2f4 4c3e 8a16 37be da28 ed3d
00000200: 232b 123e cdc1 e2bd 7557 3f3e f0c9 033e
00000210: 0247 443d 905b 8a3c f1f6 34be 4625 4dbc
00000220: 1aae 32bd 9cce 5e3e c0a2 47be 8a9f 433e
00000230: bfc5 3d3e 225f cb3d 26c1 853b a169 aabc
00000240: bc80 653d fab4 aebd f74d 1f3e ed8e 0abe
00000250: 8cd6 053e 5f37 8f3d 9463 38be 5261 63bd
00000260: 6dee 0f3e 15cf 6abd c907 6ebe 603e fdbd
00000270: 0a1a d7bd b427 74bd 8e5b 08be 6f19 b2bd
00000280: 2698 1fbe 4691 15be 6eae 7f3c ada3 b5bd
00000290: 5918 15be 115c 3b3d 312d d5bd 7d57 a0bd
000002a0: 3060 01bd 0669 593d 413f bbbd 5d34 48be
000002b0: f80d 243e cf42 203e f0a4 bdbd 59e5 463e
000002c0: 47af a43d 2be5 7ebc e450 a33d a932 013e
000002d0: 6107 a03d 07b8 4cbe 573d 6bbd c062 4fbe
000002e0: bb85 f0bd d9ae 963d 7582 dfbd 759e 973d
000002f0: 5ca8 10be cf68 04be 0e77 a93d b048 9d3d
00000300: 0854 11bd a710 253e 1e3a 093e 46c9 c8bd
00000310: 0088 0dbd c58a 33be 8ca7 93bd c3b1 2e3e
00000320: 663b 9b3d 7f5f 51be 7fa4 493e 8441 e33d
00000330: dd81 81bc 94a1 b9bc b473 a7bd 53f9 dabc
00000340: 56ec fe3a 2fdf 46bd f51d bbbd 2829 463e
00000350: 1f8f 603d ab13 c53d 7a93 f6bd feab 2cbe
00000360: 6373 61be f8ca 26be 05fd 273d 1edc f039
00000370: 0bcf fb3d 6a88 4c3e 3754 63bc 6bd9 7abe
00000380: 5d97 a9bd 4fb1 683d 6f30 5d3e b05e 543e
00000390: 6376 cebd e1f0 c33d dc22 ff3d 796d 30be
000003a0: 4be1 fe3c 4704 273e 650e 893d 2445 2f3e
000003b0: 89fa 97bc 1ee1 2cbe a40e 933c ea09 603d
000003c0: 8e47 a63d e263 36bc 610a 10be baa3 f0bd
000003d0: 023d bb3b ebca 7c3d a0a5 43bc 86a7 ecbd
000003e0: 3c87 31bd 5cf0 56be db48 9bbd a029 11be
000003f0: 7789 f3bd b969 273e 7e6a 0a3e 321c b8bb
0.106044315 -0.06121158 -0.09443116 -0.15748282 -0.111954704 -0.12901236 -0.09433611 -0.09773887
0.08865788 -0.09236843 0.10681268 0.17535983 -0.13889869 0.19276118 0.0912115 0.024851743
-0.18677211 -0.15104683 -0.03871783 0.14926547 0.07090872 0.031214574 0.16880201 0.13005841
-0.061195076 -0.098548256 -0.14139396 -0.027136935 0.25555292 0.12794867 -0.023632346 0.03013165
-0.12620197 -0.087342314 -0.07233046 -0.1089513 -0.14167519 -0.008492314 0.17673308 -0.11436238
0.01774797 -0.13908787 -0.054728497 -0.15503927 0.12627731 -0.046459142 -0.04244468 0.04626413
-0.052388877 -0.11078385 0.10168773 -0.13808805 0.24779634 0.17172772 -0.12664618 0.22404073
0.14251113 0.049265757 0.19556399 0.14223324 -0.164889 0.08924753 -0.13923028 -0.016003603
-0.20602055 0.065641694 -0.22058108 0.15620874 0.039732154 -0.10147793 -0.23466432 -0.020031618
-0.055525728 0.229208 0.21433155 -0.19264135 -0.1871631 -0.16207628 -0.15930326 0.08914216
0.15696308 -0.15778996 -0.14595649 -0.00048985524 -0.04119997 -0.20167485 -0.011384 -0.015563501
-0.16037391 0.10915657 0.015737692 -0.17811005 -0.129026 0.017421074 0.22798496 0.10765287
-0.03455905 -0.02868455 0.20967977 -0.024190722 0.23832488 0.16538858 -0.077755764 0.12106144
-0.14423415 -0.1391976 0.16639712 -0.015391235 0.05533618 0.24021524 0.19145545 -0.18528709
-0.0029603653 -0.09200048 -0.006102192 -0.19144565 -0.07455986 0.04122112 0.1905886 0.075026385
-0.22679663 0.18242468 0.059511945 -0.103954814 -0.065351166 0.20015243 -0.17879692 0.115800574
0.14274268 -0.11072121 0.18685706 0.12870002 0.04791928 0.016889364 -0.17672326 -0.012521094
-0.043623067 0.21758503 -0.19495678 0.19103828 0.18532465 0.099302545 0.004081863 -0.02080232
0.056030974 -0.08530612 0.15557085 -0.13531084 0.13070124 0.06992983 -0.18006736 -0.055512734
0.14055796 -0.057326395 -0.23245157 -0.12365413 -0.105030134 -0.059608176 -0.13316175 -0.08696257
-0.15585384 -0.14606199 0.015605552 -0.08869109 -0.14560069 0.0457421 -0.1040901 -0.07829187
-0.031585872 0.053078674 -0.09142924 -0.19551225 0.16020954 0.15650485 -0.09259975 0.19423427
0.08041244 -0.015557568 0.07974413 0.12616982 0.078139074 -0.19992076 -0.057431545 -0.20252514
-0.11744257 0.07357568 -0.109135546 0.0740327 -0.14126724 -0.12930606 0.08274661 0.0767988
-0.03548053 0.16119634 0.13401076 -0.09804015 -0.034553528 -0.17533405 -0.072096914 0.17059998
0.07579689 -0.20446585 0.19691657 0.110964805 -0.015808994 -0.022660054 -0.081763655 -0.026730215
0.0019449096 -0.04855269 -0.09136573 0.19351637 0.05482399 0.09622892 -0.12039848 -0.16862485
-0.22016673 -0.16288364 0.041012783 0.00045940367 0.1229535 0.19973913 -0.013875059 -0.24497001
-0.082808234 0.05680972 0.21600507 0.20739245 -0.10081174 0.095674284 0.12457821 -0.1722926
0.031113287 0.16310225 0.06692199 0.17116219 -0.018552082 -0.1688275 0.017951317 0.054696955
0.08119117 -0.011132212 -0.14066459 -0.11749978 0.00571406 0.061716955 -0.011941344 -0.1155539
-0.04334186 -0.20990127 -0.075822555 -0.14176035 -0.11891454 0.16348924 0.13517186 -0.0056185955

critic.0.bias f4 [256]
00000000: 41ce b73d 3221 b23d 12e4 b13d ad45 af3d
00000010: c0cf bb3d abcc cc3d e493 be3d 8707 cc3d
00000020: 3fc2 8f3d 52e2 bd3d 88eb bc3d 167f 413d
00000030: b3ec bd3d 9631 4b3d 9dc5 a33d 2f10 c23d
00000040: 9164 bc3d 525f ad3d ee33 b03d b095 da3d
00000050: 626a 9e3d 788d a83d c798 ad3d 767c b83d
00000060: 344a b13d 20ef 9a3d 6d7a b13d 3c78 c53d
00000070: 1ad6 b13d 939e cf3d 9e12 c93d 08cc e43d
00000080: cbf6 b33d 68e1 bb3d a404 a03d 59b5 b73d
00000090: 6812 e23d 06b6 a03d 4ef7 b03d dc94 db3d
000000a0: 1846 be3d 47a8 b03d bde9 953d bb70 a23d
000000b0: b5a0 d03d 1487 c63d 185c b33d 6552 303d
000000c0: 851b d13d eee9 a93d 2090 aa3d fc51 a73d
000000d0: 4644 b43d 3144 ad3d 97d0 c73d 2aa8 8a3d
000000e0: 243c b43d 02ba 933d ecaa 9b3d 18c0 973d
000000f0: fd40 833d 5d30 b43d 5611 a23d bbcc 9e3d
00000100: b496 af3d fcc1 b03d 1f6a b83d 5cc6 ad3d
00000110: 51d9 9e3d 97ce ab3d 49d2 ac3d 59cb a83d
00000120: 795c b23d b065 cf3d d3bb d33d 1b62 bf3d
00000130: 3482 9f3d e642 b43d 2f7a ce3d b9ff be3d
00000140: 500d c73d 757c ae3d 7ce7 7a3d 4c8d b03d
00000150: a531 b73d 8f9e ab3d 051d b33d be85 bc3d
00000160: 43cb ce3d 2b2a b33d 6d57 a43d 9121 c93d
00000170: 4233 913d 5298 973d f45d 973d 8366 943d
00000180: 0049 a13d de81 a43d 81c2 9c3d 6039 af3d
00000190: 984d c53d a4cc ba3d 87b0 ac3d 9b34 be3d
000001a0: d485 b23d 2626 983d d6b3 a33d abb5 be3d
000001b0: 3fea a13d abbf dc3d 2b24 963d 31e4 b23d
000001c0: 8f20 ad3d e589 b53d 449f 983d 445c b33d
000001d0: 8cd0 c03d 26c2 ad3d 3221 b43d 57ad 963d
000001e0: b410 e93d a877 943d 62ed c13d 0fe3 9c3d
000001f0: 0259 c23d 42b7 c83d f1f7 ba3d 1136 c13d
00000200: e2aa db3d 37be ab3d c400 b23d fda6 b03d
00000210: 8407 943d fa9e a63d f40b bb3d 5b19 b33d
00000220: cc7b c03d 430e d23d 1b35 773d 7533 a93d
00000230: 617a a23d 03f3 dd3d 7a88 aa3d 83da 793d
00000240: 8401 b73d bba6 e43d d4b7 ae3d 3980 a23d
00000250: 4a52 aa3d afff ca3d dca4 c63d 2c8d a73d
00000260: 916d ad3d 9f99 b63d 3576 ae3d aaf0 8b3d
00000270: 7567 ca3d f827 8a3d 631b bf3d d454 953d
00000280: 7b5d b33d 6c5f 9e3d a78a ca3d d3b8 d73d
00000290: 1c71 a43d d759 be3d c816 dc3d 1162 b03d
000002a0: 6927 ab3d 243b ab3d 9d36 ba3d b7ab 973d
000002b0: 74f9 dd3d c197 b33d f218 5c3d 5eb9 b83d
000002c0: 0e3b bb3d fc24 df3d af8c ab3d 73c9 ba3d
000002d0: c473 923d 49a7 af3d e5e0 ca3d 89dd c43d
000002e0: 8795 a53d 684b cc3d 84d5 813d 88a7 bc3d
000002f0: 6908 8d3d 26b7 b83d f532 923d 39a1 a53d
00000300: b95a 823d 2d5b ab3d b28a b13d f14a 983d
00000310: a3d7 953d e931 ac3d 2be1 d03d ea14 b73d
00000320: f2c4 aa3d 1b67 cb3d 5381 da3d 3f4d be3d
00000330: fed5 a63d d85b b43d 493a b83d 7ce7 9b3d
00000340: b1cf 983d 983f b13d 78d6 b73d 110f a63d
00000350: 8809 c93d 3c0b c73d eafb b63d 164f da3d
00000360: d2dc a43c d0a3 bf3d 2769 ad3d 306f cf3d
00000370: 9a1a cd3d b7f7 913d 6877 c43d 1c3a 9b3d
00000380: 913b b33d 9703 9f3d 5f45 9e3d 402b e63d
00000390: d466 953d 9260 4f3d 7603 cc3d dd93 cd3d
000003a0: 3163 b63d 19ca a73d 1305 883d cb98 d23d
000003b0: a029 a13d ffdb bb3d 23f0 c83d 816b a53d
000003c0: 5b03 c23d 65ba d63d a1df a93d 74dc b93d
000003d0: 308a 943d 0c67 983d f528 b83d 0ae8 c43d
000003e0: 7c11 c93d 0e53 9d3d 3f8a ad3d 8954 b13d
000003f0: 355b b63d a11e ca3d 541a 9d3d 2b76 9b3d
0.08974887 0.08697738 0.08686079 0.085582115 0.091704845 0.09999975 0.09305552 0.09962373
0.070194714 0.09271683 0.092246115 0.04724034 0.092736624 0.049607836 0.07996676 0.09475743
0.09198869 0.084654465 0.08603655 0.10673082 0.07735135 0.08230108 0.084764056 0.09008114
0.08656731 0.07565141 0.08665929 0.096420735 0.08683415 0.101376675 0.09818004 0.111717284
0.087873064 0.09173852 0.07813385 0.08970136 0.11038667 0.07847218 0.086409196 0.10721752
0.09290713 0.08625846 0.07319973 0.07931658 0.101869024 0.09693733 0.087578 0.043047328
0.10210327 0.08296572 0.08328271 0.08169934 0.088020846 0.08460272 0.09756582 0.06770356
0.088005334 0.072132125 0.0760096 0.07409686 0.0640888 0.08798287 0.07913463 0.07753893
0.08573666 0.086307496 0.09004616 0.084851 0.077562936 0.08389013 0.08438546 0.082419105
0.08709044 0.10126817 0.10338559 0.09344884 0.07788506 0.08801822 0.100818984 0.09326119
0.09719336 0.08519832 0.061255917 0.086207 0.08945016 0.08379852 0.087457694 0.09205197
0.10097363 0.08748277 0.08024488 0.098208554 0.07089855 0.074021 0.07390967 0.07246115
0.07875252 0.08032583 0.07654286 0.08555865 0.096339405 0.09121063 0.084321074 0.092873774
0.08716932 0.07429151 0.07993285 0.09311994 0.07906007 0.10778745 0.07331117 0.0873493
0.08453476 0.08864192 0.074522525 0.08757833 0.09414777 0.084842965 0.08795394 0.07357281
0.11380139 0.07249385 0.09469105 0.076604955 0.09489633 0.09800579 0.09129322 0.094341405
0.10725953 0.0838589 0.08691552 0.086256005 0.07227996 0.08135791 0.09133139 0.087450705
0.093986124 0.102566265 0.06035338 0.08261768 0.07933498 0.108373664 0.08326812 0.060999405
0.08935836 0.11164614 0.08531156 0.07934613 0.08316477 0.09912049 0.09699413 0.08181223
0.08468164 0.0891602 0.0851864 0.068330124 0.09883014 0.06745905 0.093313955 0.0729157
0.08758064 0.07733044 0.09889727 0.10533299 0.080293864 0.09294479 0.10746533 0.08612455
0.08357126 0.083608896 0.09092448 0.07405799 0.10838595 0.08769179 0.053734727 0.09019731
0.09142123 0.10895726 0.08376443 0.09120455 0.07150987 0.08576829 0.099061765 0.09612567
0.08085161 0.0997532 0.06339553 0.092116416 0.0688637 0.09019308 0.071386255 0.080873914
0.0636496 0.08367 0.08669032 0.07436169 0.0731652 0.08407957 0.101991974 0.08939536
0.083383456 0.09931775 0.10669198 0.09292077 0.081462845 0.0880658 0.08995492 0.076125115
0.07461489 0.08654708 0.089764535 0.081083424 0.09816271 0.0971894 0.089347675 0.10659616
0.020124827 0.09357417 0.08467322 0.10128629 0.100148395 0.07127326 0.095930874 0.07579443
0.08751596 0.077643566 0.07728075 0.11238718 0.072950035 0.050629206 0.099615976 0.10037968
0.08905638 0.08192844 0.06641593 0.10283049 0.078692675 0.0917282 0.098114274 0.08077145
0.09473296 0.10484771 0.08294607 0.09075251 0.0725292 0.0744153 0.08992187 0.096145704
0.09817788 0.07681857 0.08473634 0.08658702 0.08904115 0.09869123 0.07671037 0.07590898

critic.2.weight f4 [128, 256]
00000000: c3fb 1e3e 5979 f63d 06bb 743d 1b93 453e
00000010: c17b b33a 2602 7e3d ee99 183e 21bc 573d
00000020: 7bd7 da3d b0af 003e 45e4 cf3d 2415 223e
00000030: de28 ef3c fa67 9a3d d47d e63d 8bfe da3d
00000040: 954e 323d 570c 223c a76d 3a3e 5b76 1a3e
00000050: 425c 2a3e 2b05 ab3d 13be 453e dd45 403e
00000060: 0140 433e 70c3 1c3e ae04 2c3d d23e eb3d
00000070: efc1 3cbb 9418 053e 67d2 143e 1fd1 ee3b
00000080: 093e 653c 03fa b63c 72c8 2b3e 1616 443d
00000090: 80c1 e03c 0b24 f63b 8b84 73bd 7192 b23c
000000a0: d245 f93d 2265 993a a273 4a3e d035 533e
000000b0: 0ecd 4f3d ceff 2f3b 8e8a d1bc 72c4 1e3e
000000c0: 9a9c fb3b f699 4b3e 642e b33d c390 5cbd
000000d0: 1af9 173e 40c1 a0bc c0b2 0f3e acb2 1d3e
000000e0: 8707 e93c 3cf7 103d d8b7 4c3e 0522 293e
000000f0: 4789 2c3d 877e 143d fd10 ff3d 857f 4cba
00000100: ca54 3c3e 27a9 17bc a128 4f3e 7e66 473d
00000110: 3939 153e ec6d 2bbd 54c1 353e 476e 7fbc
00000120: 9ab2 41bc cfd6 7abc 084d 2f3e 5ff4 163d
00000130: 5394 d73c 5e02 343e e77a 103d 5598 443e
00000140: 531a 93bd 26bf 8b3d d37c 2c3e fa5f e63d
00000150: 3893 963d 00ed 353e 1e43 473e 3765 493e
00000160: 2ce0 203e bfe9 8b3d 3948 47bd 2775 d43d
00000170: a1d5 e03d 384c 20bd 6006 2e3e 813e d7bc
00000180: 8170 823d d204 c73c d49f dfbc 02e8 09bd
00000190: c6be e23c dd31 ea3c 29ba a53d 37db 503e
000001a0: 56b0 693c 8208 da3d 960d 8e3d fbd9 d13d
000001b0: 59a5 dc3d d648 413e 33d2 ae3d 8d04 243e
000001c0: 9b1f 2f3e 9da8 62bd f124 9f3d d3f9 b83d
000001d0: 4331 783d bd2c 1b3c 6c4e 323e e431 5ebd
000001e0: 5f18 093d 6d35 153e b4ab adbb bc1a 913c
000001f0: 1795 153e 96ce bf3d 7d43 833d 4e33 84bb
00000200: 1b63 213e 273a 1a3e deb2 a03d e5a3 413e
00000210: a8c3 683d a003 933d 59ae d73c d4d5 643d
00000220: 3821 aa3d 7989 073e f0ac 163e 1e1e e63c
00000230: 0857 8b3c d314 593d f976 023d 88a9 d03d
00000240: 6aeb 363e 21ad 373e 8ffc 3c3e e8f8 073d
00000250: d738 1ebb 5f3c a33d ea21 aa3d 881f 203e
00000260: 0907 193d 446a 903d a022 5b3c 1d97 eb3d
00000270: 8c3f 2abd 1b50 b43d bbee 573b 83b4 6b3d
00000280: 463e 5abb 50c6 f33c 17b2 69bc ed2c 323e
00000290: c24b 123e 2549 9fbc 8b71 0e3d 2987 17bd
000002a0: e635 2a3d 0848 4abd a0e1 cf3c f323 273e
000002b0: 346d 9d3c f593 4fbb 26c1 b93d 7488 263e
000002c0: 9fb7 6c3c 0df7 e93d a73b 583d f8e6 083e
000002d0: 5654 6fbc a778 013e 932d 213e 05cc 043e
000002e0: 13c6 513d b324 113d e2bb 9c3c 6cac 0e3e
000002f0: 318b 1bbd 6b51 a43d 18cb cdbc b2c7 df3d
00000300: d3f7 8e3d fd8c 963c 5bae e93d 07e7 163c
00000310: 41a5 f5bc 843c b63d 4e71 243b b487 b33c
00000320: 04e9 303e 22c2 083e 1629 153e 39b7 023d
00000330: b785 263d 225e d23c 255f 213e 040e 403e
00000340: e42b 303e df00 303e dcb5 8fbc 786f 013e
00000350: cad7 bb3d fa3e 043e 0b8d 4f3e 7427 473e
00000360: 7508 fd3d d3f0 cd3d ca0c 4c3d d8a5 8ebc
00000370: dbfe d03d 43b0 553e 7e9c 473e 496f fdbb
00000380: 8ced 093e e8f3 093e ab03 823d 0de7 463c
00000390: 32d4 e0bc a4aa 253e 4af8 153e 637c 19bd
000003a0: 949a c33d cc0f 20bd 672a 33bd 50a9 dd3d
000003b0: ecd3 393e 66fd 6e3b 8a5a a53d d89b 893d
000003c0: 95f8 26bd ea39 a33d 3d1f df3d b3eb 7d3c
000003d0: 418d e53b 97c0 6e3d 00e8 b13d 230d 0b3e
000003e0: 93c8 183c 410b d63d 3d36 883b b073 013e
000003f0: 9629 33bd c72b c13d d35d b73d 3cc4 a73c
0.15525727 0.12034864 0.059748672 0.19294398 0.0013693498 0.062013768 0.1490247 0.052669648
0.10685631 0.1256702 0.10150961 0.15828377 0.029194292 0.07539363 0.112544686 0.106930815
0.043531973 0.009890637 0.18205892 0.15084212 0.16636756 0.08350595 0.19310789 0.1877665
0.19067384 0.15308928 0.04199665 0.114865914 -0.0028802117 0.12997657 0.14533387 0.007288113
0.013991841 0.022336012 0.16775683 0.047872625 0.027436018 0.007511621 -0.059452575 0.021798344
0.1217152 0.0011703114 0.19770673 0.20625997 0.050732665 0.0026855352 -0.025578763 0.15504625
0.0076785805 0.1988295 0.08749083 -0.053848993 0.14841118 -0.019623399 0.14033031 0.15400189
0.028445972 0.03539203 0.19992006 0.16516884 0.042123105 0.03625348 0.12454412 -0.00078009843
0.1839172 -0.009256638 0.20230342 0.04868173 0.1457261 -0.041852877 0.1774953 -0.015590257
-0.011822367 -0.015310003 0.17119229 0.036854144 0.026315844 0.17579028 0.03527346 0.19198735
-0.07182755 0.06823568 0.16844492 0.11248775 0.073522985 0.1776619 0.19459197 0.19667517
0.15710515 0.06831693 -0.04865286 0.103739075 0.109782465 -0.039135188 0.1699462 -0.026274921
0.06369115 0.02429429 -0.027297892 -0.033668526 0.027678858 0.02858823 0.08092148 0.20396124
0.014263233 0.10646154 0.06936185 0.102466546 0.10773725 0.18875441 0.08536186 0.16017361
0.171019 -0.055336583 0.07770718 0.09032025 0.060593855 0.009471116 0.17412728 -0.0542468
0.033470508 0.14571162 -0.0053000096 0.017712943 0.14607655 0.09365575 0.06409357 -0.0040344363
0.15760462 0.15061246 0.07846616 0.18910177 0.056827217 0.07178426 0.026328253 0.055867985
0.08307117 0.13236035 0.14714408 0.028090533 0.017009273 0.052998375 0.031851742 0.101885855
0.17863241 0.17937137 0.18455718 0.03319636 -0.0024142766 0.07970499 0.0830725 0.15637028
0.037360225 0.070515186 0.013374954 0.11503432 -0.04156451 0.088043414 0.003294869 0.057545196
-0.0033301278 0.029757649 -0.014263651 0.1739995 0.14286712 -0.019444058 0.03477625 -0.036994133
0.041555308 -0.0493851 0.025376141 0.16322307 0.019217111 -0.0031673883 0.09070043 0.1626299
0.014448076 0.11424074 0.052791264 0.13369358 -0.01460751 0.12643681 0.15740041 0.12968452
0.05121429 0.03543539 0.019132558 0.13932961 -0.03797454 0.08023342 -0.025121257 0.10926761
0.069808625 0.018377775 0.11410209 0.009210355 -0.029986026 0.08898261 0.002509195 0.021915294
0.17276388 0.13355306 0.14566454 0.031913016 0.040654864 0.025679652 0.15758951 0.18755347
0.17204243 0.17187832 -0.017542772 0.12640178 0.09172018 0.12914649 0.20268647 0.19448644
0.12355129 0.10055699 0.049816884 -0.017413065 0.1020486 0.2086802 0.19493291 -0.0077342135
0.13469523 0.13471949 0.06348356 0.012140048 -0.027444933 0.16178375 0.14645496 -0.03747214
0.09550968 -0.039077565 -0.04374161 0.108233094 0.18147248 0.0036466955 0.080739096 0.06719178
-0.04076441 0.079700306 0.1089463 0.01549809 0.007005364 0.058289137 0.086868286 0.1357923
0.009325164 0.10451365 0.0041568563 0.12641788 -0.04374083 0.09432178 0.089534424 0.020479314

critic.2.bias f4 [128]
00000000: 744e b93d 41f5 aa3d 8b68 52bc 0661 babb
00000010: 95d1 9d3d 4e93 bd3d acf0 9bbc 0000 0000
00000020: 8ea2 41bc 24db 9d3d c12b aa3d 7aba 56bc
00000030: 160a b83d 227f 3dbc 7d23 bf3d fe1f 16bc
00000040: af00 fcbb 2b7e e2bb 65c5 46bc 6a87 ebbb
00000050: ea59 c63d f2e9 acbc 7c84 efbb fab0 1abc
00000060: 3bbf b83d f600 f3bb 4cbb a53d 523f 9f3d
00000070: ea85 a73d 1458 b93d 36af ae3d c7f0 f2bb
00000080: 6410 b7bb 5558 86bc c742 a73d fb08 47bc
00000090: 3cb0 95bb 1cb2 9d3d 861a 9e3d 072f 14bc
000000a0: 5eeb d3bb 06fd a83d cee8 60bc b102 c9bb
000000b0: 605b b13d 08d7 a83d d1c6 03bc d755 60bb
000000c0: 4e15 9e3d 5042 a83d 6c4c a83d 1129 a23d
000000d0: ed56 2ebc d378 a53d b127 a63d 75bc 09bc
000000e0: 0f58 c23d b315 a0bb 0a5e a13d 4fff 9e3d
000000f0: 94fa ac3d b75a 58bc 70a3 11bc a4bf c03d
00000100: 1aef 87bc 0000 0000 d1f2 26bc ce0d 2cbc
00000110: 862f 9f3d 12d5 9e3d 50da a33d 97d3 46bc
00000120: 4eed ac3d 0daa 4ebb a3a6 a03d 58ae bf3d
00000130: b460 3cbc 9f2a 88bb 0cf1 a13d 0000 0000
00000140: ea40 8dbc 0e2b a53d e805 85bb 8005 74bc
00000150: 1766 d8bb c534 43bc 738c 7cbc 185b a93d
00000160: 13e8 0abc 0091 cdbb 12cb a43d 4929 a0bb
00000170: 3911 a43d 3106 a33d 9b0b a13d 231f a13d
00000180: 39d2 b6bb 050b a4bb 561e 83bb f0ed 03bb
00000190: 0000 0000 222b b03d 4cbb 1cbc 2e9c a03d
000001a0: 3cc7 20bc f7ab 0cbc a097 54bc 0840 33bc
000001b0: 9979 12bc 1593 9f3d 9803 37bc be89 aa3d
000001c0: aea9 eabb 964b 9bbb 75a8 ce3d f64e 30bc
000001d0: 2c1e 9d3d e7c5 a83d 67b9 9e3d 371f 2bbb
000001e0: 1685 a03d 3758 c13d b25a c23d 79a9 82bc
000001f0: a261 b33d 49cf b03d b1cf a63d ef86 53bc
0.09048167 0.0834756 -0.012842308 -0.0056878356 0.0770599 0.09256612 -0.01903566 0.0
-0.011818541 0.077078134 0.08309127 -0.013105983 0.08986299 -0.011565955 0.09332941 -0.009162901
-0.007690511 -0.006912013 -0.012132023 -0.0071877735 0.096851185 -0.021107648 -0.0073094945 -0.009441609
0.09020849 -0.007415886 0.08092365 0.07775749 0.08179839 0.09050003 0.085295126 -0.007413957
-0.0055866707 -0.016399542 0.08167034 -0.012148137 -0.004568128 0.07699987 0.07719903 -0.009044415
-0.006467267 0.082513854 -0.01372738 -0.006134354 0.086600065 0.08244139 -0.008043007 -0.0034230852
0.07718907 0.08215773 0.08217701 0.07917989 -0.010640842 0.08079686 0.08113039 -0.008406748
0.09489452 -0.0048853992 0.07879265 0.0776354 0.084462315 -0.013205222 -0.008889064 0.094115525
-0.016593505 0.0 -0.010189728 -0.010501338 0.07772736 0.07755484 0.08000624 -0.012135408
0.084437 -0.0031534464 0.078442834 0.09359425 -0.011497665 -0.0041554715 0.07907304 0.0
-0.017242867 0.08064853 -0.004059542 -0.014893889 -0.006603967 -0.011914437 -0.015414345 0.08269328
-0.008478182 -0.006273389 0.08046545 -0.004887734 0.080110975 0.07960165 0.07863542 0.07867267
-0.0055792597 -0.0050061964 -0.004001419 -0.0020130835 0.0 0.08601977 -0.009566139 0.07842289
-0.009813126 -0.0085859215 -0.012975603 -0.010940559 -0.008940124 0.077917255 -0.01117029 0.083270535
-0.0071613407 -0.004739235 0.100907244 -0.010761013 0.076717705 0.08240872 0.077502064 -0.0026111135
0.07837884 0.09440654 0.09489955 -0.015949951 0.08758856 0.086332865 0.08145083 -0.012910589
