A5/modelset/a3c/a3c_actor_critic.pt (torch, 277657 bytes, 11 tensors)

actor.0.weight f4 [256, 3]
000000 66 ce 6e 3c 51 c4 d8 3b 9d 49 0a bd a4 99 bc 3d
       0.014575576 0.0066151996 -0.03376161 0.09208992
000010 00 10 90 bd 64 84 26 be 1b 79 c9 bd a5 8b fb 3d
       -0.07034302 -0.1626144 -0.09837552 0.122824945
000020 05 d1 b5 bd 2a 8e 07 3e e8 67 52 be 84 02 5d bd
       -0.08877758 0.13237825 -0.2054745 -0.053957477
000030 31 cc 8b 3d ea 30 f8 bd 39 15 aa 3d 3c 8e 22 3e
       0.06826056 -0.121187046 0.08304829 0.1587457
000040 15 cd 4c be e6 31 c9 bd 84 9b d3 3d 27 32 3d be
       -0.20000108 -0.098239705 0.103323966 -0.18476163
000050 b9 6d 8d bd 3b 3c d0 bd 7b c5 83 bc cc f8 d2 bc
       -0.069056936 -0.10167738 -0.016085377 -0.025753401
000060 4f 74 76 be 8a 57 3e bd c4 3b f9 3d d8 21 67 39
       -0.24067806 -0.046470203 0.121696025 0.00022042484
000070 16 62 6d bd 35 1b a3 3d 54 03 31 3e ac 55 4e be
       -0.05795487 0.07964174 0.17286426 -0.20149869
000080 a4 47 07 be 71 c9 87 3d 5b a6 09 3e 7e 8f 24 3d
       -0.13210922 0.06630219 0.13442366 0.040175907
000090 dc 13 3f 3e 34 be 39 3e 97 ae 1a 3e 55 9c 29 3d
       0.1865992 0.18138963 0.15105663 0.041408855
0000a0 43 87 aa 3d 2e ec 08 3e 4b 14 1a be 3e 10 8e 3d
       0.083265804 0.13371345 -0.15046804 0.06936692
0000b0 b7 b5 00 be c1 a0 8f bd db 50 32 3e 18 a3 39 3d
       -0.12569319 -0.07013083 0.17413656 0.045321554
0000c0 70 d9 88 ba f8 50 47 3d 05 3e 2c bd 2c 4b 6d bd
       -0.0010440778 0.048661202 -0.042051334 -0.057933018
0000d0 9d a6 84 3c 57 38 0a bd d7 10 d5 bc 6f 37 9e bd
       0.016192729 -0.033745136 -0.026009006 -0.07725417
0000e0 2e 0f e6 bd 02 3f f6 3d 21 ed 56 bd da 6b dd bd
       -0.11233364 0.120237365 -0.052472237 -0.10811587
0000f0 ca b3 f6 3d f9 71 95 be b6 53 10 bc db e1 f0 3d
       0.12046011 -0.29188517 -0.008809021 0.117618285
000100 74 fb 22 be 68 c4 23 bd 57 f1 b6 bd 1f 27 21 3d
       -0.15916234 -0.03998223 -0.08932751 0.03934395
000110 47 b6 2a bd d4 f5 5a bc 19 da 46 be e2 cf 9e 3d
       -0.04167774 -0.013364274 -0.19419135 0.07754494
000120 b8 f8 32 be 6a 38 98 bd c7 8e fd 3d ac e6 86 bd
       -0.17477691 -0.07432635 0.12380748 -0.06586966
000130 6c fc 99 ba 5a 62 fc bd c9 75 c5 3c b7 b2 85 3e
       -0.0011748201 -0.123234466 0.024104016 0.2611291
000140 a3 2a 07 3e 5b 4b 96 3d 14 2b 22 3d a2 33 ca bc
       0.13199858 0.07338592 0.039591864 -0.024682824
000150 14 d0 1f be c9 45 70 3e ea 23 8e 3d 98 12 d7 3d
       -0.1560672 0.23464121 0.06940444 0.10501593
000160 96 db f9 3d 87 c5 6a 3d 7b e8 03 be 95 74 63 3d
       0.12200086 0.057317283 -0.12881653 0.055531103
000170 18 58 d1 bd 99 f8 4e bd 12 a6 20 be 90 b7 57 3d
       -0.10221881 -0.05053005 -0.15688351 0.052665293
000180 ce 00 89 3d 2b 8c 84 3e 23 cf e3 3d 08 80 a0 bd
       0.066896066 0.2588819 0.111234926 -0.0783692
000190 c4 a4 df 3d cb 46 04 be 14 1b b5 bd 6e 0b 37 3d
       0.109200984 -0.1291763 -0.08843055 0.044688635
0001a0 f1 6f 1b 3d a3 39 20 be da 36 b2 3a 3d 9f c0 3d
       0.037948553 -0.15646987 0.0013596669 0.09405372
0001b0 c8 a0 0b 3e 32 63 7d be 23 9f 6b bd 93 06 33 3e
       0.13635552 -0.24744871 -0.05752481 0.17482977
0001c0 8a 0f 8c be 13 59 26 be 19 30 2c be 6a 84 fa 3d
       -0.27355605 -0.16244917 -0.16815223 0.12232287
0001d0 7b 0e 4f 3d c6 06 ef bd dc e9 a7 bd f1 d6 45 3d
       0.05055092 -0.11671214 -0.08198902 0.048300687
0001e0 73 92 22 3e 71 98 29 be 78 ec 00 bd 7a 93 20 be
       0.15876178 -0.16562058 -0.031475514 -0.15681258
0001f0 6f 7f c4 3d 4b f8 7d 3c ab 99 f2 bd ae 7f 69 3d
       0.095946185 0.015501092 -0.11845716 0.05700653
000200 06 b2 ee bd 4a 7f 11 bc db fc 58 be 09 d7 13 3e
       -0.11655049 -0.008880446 -0.21190207 0.14437498
000210 e7 7f 43 3d 2d 53 49 be 25 c0 58 bd af a0 91 bd
       0.0477294 -0.19660635 -0.05291762 -0.07110726
000220 f5 5f d0 3c 59 04 3f bd ca e9 db 3d 4c 3e 66 3e
       0.02543638 -0.046635006 0.10737951 0.22484702
000230 7a 44 a6 bd 91 3e 84 3d aa 76 26 3e 56 72 30 3d
       -0.081185296 0.06457246 0.16256204 0.04307779
000240 b3 de 08 3e 75 50 b6 3d a5 15 79 3d 27 d5 37 bd
       0.13366203 0.08902065 0.060811657 -0.044881012
000250 d0 fc 68 be fd 20 4c 3c c9 71 8b bc 51 5a 4d be
       -0.2275269 0.012459037 -0.01702203 -0.20053984
000260 25 8b d4 bc 97 4d 14 be 8b 1f 55 bc 8b 0c 4b bd
       -0.025945256 -0.14482723 -0.013008009 -0.04957251
000270 4d 89 1e be fc 84 ea bc 49 91 d9 3d a6 23 f1 bd
       -0.15482064 -0.028627865 0.10623414 -0.117743775
000280 89 8f ac 3d 67 78 2c bd d6 09 71 be 77 51 ca 3d
       0.08425815 -0.042107012 -0.23538908 0.098788194
000290 92 8f e0 3d 7e 9f c3 3d bd 78 6e 3e 6c be a1 3d
       0.10964884 0.09551905 0.23288245 0.07897648
0002a0 b5 ac fd 3d 5b 6d 5f be 59 55 a3 bd d9 49 85 3d
       0.12386457 -0.2181906 -0.07975263 0.06508226
0002b0 f6 00 35 3e dd 70 08 3e b2 22 3e 3e 83 c3 6d 3e
       0.17676148 0.13324304 0.18567923 0.23219113
0002c0 d0 1e 4d 3d e3 da e6 3c e0 3c 21 be de 0f ee bc
       0.050078213 0.028180545 -0.15745878 -0.0290603
0002d0 e7 20 22 3e c7 dc 47 be f7 2b 5b 3c bf f3 86 3d
       0.15832864 -0.19517814 0.013377181 0.0658946
0002e0 3b 70 7b be 57 fe 19 be 30 6a 1e be 31 36 d4 bd
       -0.24554531 -0.15038429 -0.15470195 -0.10361899
0002f0 e9 65 c2 3c 2a ce fc 3d 1a 4b 84 be 7e 6f b6 bd
       0.023730235 0.1234401 -0.25838548 -0.08907984
000300 c8 ed 3b be 5b c4 bb bd c4 59 cb 3d 4a ba 0a be
       -0.18352425 -0.09168311 0.09929231 -0.13547626
000310 34 67 d0 3d e7 0f 3a bd 98 58 35 3e 86 fa 58 be
       0.101759344 -0.045425322 0.17709577 -0.21189317
000320 97 c2 10 be 50 dc f3 3c f2 62 7d be c4 9c 16 3d
       -0.1413673 0.02976814 -0.24744776 0.036770597
000330 0e 01 23 3c 88 a7 37 be e1 fa 0c be b3 8c d8 3b
       0.009948982 -0.17935002 -0.13767578 0.0066085695
000340 9d 30 61 3e 01 51 b2 bc 15 69 07 3e 6f b8 54 be
       0.21991201 -0.021767141 0.1322368 -0.20773481
000350 32 2d 63 bd 62 a6 c8 3d d0 52 e5 3d f2 fe a9 3d
       -0.055463023 0.0979736 0.11197436 0.0830058
000360 e1 ee 9f 3d 4c 57 9b bd 4a f9 fc bd 90 d7 99 bd
       0.078092344 -0.0758501 -0.123522356 -0.075118184
000370 df 14 96 bd a2 37 03 be 8d 88 14 be e1 72 80 bd
       -0.073281996 -0.12814191 -0.14505215 -0.062719114
000380 5c 22 08 be b0 40 10 bd d4 39 52 3e 0c 6b 11 be
       -0.13294357 -0.03521794 0.20529872 -0.14200991
000390 d8 17 86 bd f7 67 e9 3d cb 70 52 bd fc 11 81 bd
       -0.065475166 0.11396783 -0.0513771 -0.06302258
0003a0 d4 08 1a 3d 6d 55 03 be 31 2e 95 3d 6c 4a 51 3e
       0.037606075 -0.12825556 0.07284201 0.20438546
0003b0 67 9f af bc e7 c9 99 3c 1a ac e5 bd 84 b1 cb bd
       -0.021438314 0.018773032 -0.112144664 -0.09945968
0003c0 9e 5b a7 3d 9c 24 1a be 4e 3b cf 3d 0b 6f 03 bd
       0.081717715 -0.15053028 0.10118733 -0.03208832
0003d0 2f ce 17 3d 56 04 9b bd 0a f5 3b be a5 7f 9f bc
       0.037061866 -0.075691864 -0.18355194 -0.019470045
0003e0 17 26 4b 3d 0e 49 14 3d 1b 8c 68 be 91 78 a4 bd
       0.049596872 0.036202483 -0.22709696 -0.08030809
0003f0 86 c9 ae 3d 81 dd 5a 3e 2a 3d 04 3e b0 f6 94 bd
       0.08534531 0.2137356 0.12913957 -0.072736144

actor.0.bias f4 [256]
000000 17 ea 3c bd 9f 40 c5 bc 1e 0f da bb dc b0 54 3c
       -0.046121683 -0.024078665 -0.006654634 0.01298162
000010 26 de c2 bb 25 36 e0 bb 2e 9f 99 3b 18 9c bd bc
       -0.0059468923 -0.006842392 0.004688165 -0.02314572
000020 38 ff 2a 3d e3 78 77 bc 73 4e 68 bb 11 00 c0 3a
       0.0417473 -0.015104505 -0.003544715 0.0014648457
000030 cb 15 28 bc 28 bc 76 bc 12 2b d5 bc 41 12 11 bc
       -0.010259102 -0.015059508 -0.026021514 -0.00885445
000040 64 85 38 bd 6b 4b 85 bb 0e bc ca 3c f3 7e fa bc
       -0.045049086 -0.0040678284 0.024747875 -0.030578112
000050 b2 8c 1d 3d f0 60 ee 3b e3 42 1b 3a 2d de b7 3c
       0.038464256 0.0072747394 0.00059227477 0.022444809
000060 eb bc d1 3c 9f f0 c9 bb 7c ea d5 3c 0b 0e f5 bc
       0.025602778 -0.0061627175 0.026112787 -0.029913923
000070 0e 21 4d 3c 11 31 64 bc 06 09 c1 bb d5 84 8f 3d
       0.012520088 -0.013927714 -0.0058909683 0.070077576
000080 f1 66 7a 3b fc cd 7a bb 3f 8b c0 3c e4 67 b9 3c
       0.003820833 -0.003826975 0.023503898 0.022632547
000090 48 53 93 3c 54 c6 88 3b 89 53 ef 3c 64 a4 41 3d
       0.017984048 0.004174033 0.029214637 0.047275916
0000a0 ed 33 9b 3c d6 ee 94 3d 3a 3a e4 bb dc 4f ce bb
       0.018945659 0.07272117 -0.006964949 -0.006296141
0000b0 14 7e e4 bb 3d 1f 45 3b 69 e9 46 3d 80 cd 07 bc
       -0.0069730375 0.0030078434 0.04856244 -0.008288741
0000c0 f6 fb 24 ba 18 25 86 3d 01 6e 1a 3d ed fe cf bb
       -0.00062936486 0.06550044 0.037702564 -0.006347528
0000d0 e3 2d 2b 3d a8 2f 59 bc 72 9a fa bb 7e 44 e5 ba
       0.041791808 -0.013255991 -0.007647806 -0.0017491726
0000e0 dc da ec 3a 95 2f 45 bb 27 b3 cf 3c b8 22 a4 3b
       0.0018070596 -0.0030088176 0.025353981 0.0050090216
0000f0 38 98 24 3d c9 78 83 bb c4 36 22 3d 0e 9c ab 3b
       0.04018423 -0.0040122014 0.03960301 0.005237109
000100 7f 2b 75 3d 32 fb 0f bc cc ed a5 bb 75 20 e3 3c
       0.059855934 -0.008787917 -0.005063748 0.027725438
000110 ae 0b fc 3c ea ef 8d 3c ec 76 94 3c 19 ae 13 bd
       0.030767288 0.017326314 0.018123113 -0.036054704
000120 5a 4b c2 bc 0b f8 3b bd 45 8f ec bb d8 b2 99 3c
       -0.023717571 -0.04589085 -0.0072192275 0.018762037
000130 f4 bb fd 3b 8f 79 1f 3d 61 ce ad ba 03 57 87 3b
       0.007743353 0.038934287 -0.0013260358 0.0041302457
000140 77 50 0f bd 4e 9a 78 bc be 37 dd 3b d9 e2 da 3b
       -0.034988847 -0.015173508 0.0067510298 0.0066798744
000150 51 eb 76 bc bb da 76 3c bb 3b 1c 3c 1d 9c 38 bb
       -0.015070752 0.015066798 0.009535725 -0.0028169223
000160 af 7b b0 bc 28 46 b6 bc 94 db 46 b8 37 d6 a0 b9
       -0.021543352 -0.02225025 -4.7411377e-05 -0.0003067718
000170 bb 2a 08 bd 90 d9 e5 3c bb ff 70 bc 3b d1 8f bc
       -0.033243876 0.028057843 -0.014709408 -0.017555824
000180 22 46 5d 3c 10 d5 4d 3c 26 00 6a bb e6 98 91 3d
       0.0135054905 0.012563005 -0.0035705655 0.07109241
000190 b2 a2 ab 3c f3 31 6c 3c d9 36 9a bc ea c0 87 3c
       0.020951603 0.014416206 -0.018824982 0.01657148
0001a0 d1 9c 47 3d 23 ff 9d b7 54 a1 3f bc d1 2e 62 3b
       0.048733536 -1.8834666e-05 -0.0116961785 0.0034512768
0001b0 83 4b 81 3d df d1 30 3d 56 2c f7 bb ed a6 af bb
       0.06313231 0.0431689 -0.007543127 -0.0053604753
0001c0 c3 45 04 bd a6 9b 08 bc d7 c2 9c bb aa 58 9e 3b
       -0.032293092 -0.008337891 -0.004783969 0.004832347
0001d0 5c df 5b 3b d4 ef b9 3b 96 5d 77 3c bb 8a 1c 3d
       0.003354988 0.0056743417 0.015097996 0.03821824
0001e0 66 a8 7f bc 9d 98 bc 3c d5 d1 b6 3c 3e 13 96 3c
       -0.015604114 0.02302199 0.022316853 0.018319722
0001f0 97 3d 74 3c 56 07 80 3b 81 46 32 bc c3 0b 32 bc
       0.014907262 0.0039071245 -0.010881067 -0.010867062
000200 fe 90 cf bb 82 36 dd 3c 0d 32 89 bb 38 63 1b 3b
       -0.006334423 0.02700353 -0.0041868747 0.0023710262
000210 ef 64 ea 3c 14 83 b0 3c e3 4d 49 bc 4f 93 8a bc
       0.028612582 0.021546878 -0.012286636 -0.016915945
000220 f9 b5 05 3d ed 60 d9 bc 54 9d 43 3d 6d 7e 36 3d
       0.032644246 -0.026535476 0.04775746 0.044554163
000230 5e fa 58 bd 88 f3 aa 3c 31 88 3e bb d3 17 99 3a
       -0.052973144 0.020868078 -0.0029072876 0.0011680074
000240 b4 01 8e 3c 78 40 73 3c bc 77 6a 3b 8c 2b 6d 3d
       0.017334796 0.0148469135 0.0035776934 0.057902858
000250 29 b7 16 39 a2 09 df bb 80 68 60 3c f6 02 be bb
       0.00014373347 -0.0068065682 0.01369679 -0.005798693
000260 44 db 1a 3d e9 ae 89 bc ed 2f 76 3c ba 2a 84 bc
       0.037806764 -0.016807036 0.015026075 -0.016133655
000270 68 24 d5 bc d2 61 0c 3d 02 24 9a bc 5e 3b 69 ba
       -0.026018336 0.034272976 -0.018815998 -0.0008897091
000280 aa 4c 70 bc 7f 64 b7 bb 23 89 af 3c a6 78 fe 3c
       -0.014666716 -0.005596697 0.021427697 0.031063389
000290 5c 50 ea bb ea 8d 40 3d 18 fc 47 3d 53 a2 96 3d
       -0.007150693 0.04701034 0.0488244 0.0735518
0002a0 27 b8 29 bc 6d 4b 98 ba fd 39 18 3c af 48 00 3d
       -0.010358847 -0.0011619158 0.009291169 0.031319316
0002b0 93 d6 8f 3c d1 58 3a 3c ab ed 11 3d d6 fe 28 3d
       0.017558372 0.011373715 0.03562705 0.041258655
0002c0 4c 7b 13 3d 0d 67 62 3d 69 e4 0a bc 3a 01 85 3d
       0.036006257 0.055274058 -0.008477309 0.064943746
0002d0 0b a9 38 bc ae 98 ba 3c c2 2f 5b bc 0a 10 31 3d
       -0.011270772 0.022777881 -0.013378086 0.043228187
0002e0 0f 78 17 bc 64 c3 b1 3b eb 43 c0 bc 80 8d 9e 3c
       -0.009244933 0.0054249037 -0.023469886 0.019354582
0002f0 1b d0 e5 bb 41 25 28 bd 15 95 2d 3b 8d ed 7e 3c
       -0.0070133335 -0.041051153 0.0026486565 0.015559566
000300 05 36 bf bc 51 70 56 3b d8 8f 02 3c c3 2c 33 3c
       -0.023341188 0.0032720754 0.007968865 0.010935965
000310 5f 4b 05 bc 7b 53 4b bd eb 8e 74 3d 8d 01 ad b9
       -0.008135646 -0.04964016 0.05970661 -0.00032998287
000320 96 23 ca bc ce c9 09 3d 58 79 57 3b da b4 a8 3c
       -0.024675172 0.03363972 0.0032878723 0.02059405
000330 1f d1 4d 3b 26 84 32 3d 47 5a 1e bb 8c c2 8a bc
       0.0031405163 0.043583058 -0.0024162696 -0.01693847
000340 2e e2 04 bd 3b 14 f7 3b 66 85 d3 3c ab 54 b7 3c
       -0.032442264 0.0075402535 0.025820445 0.02237924
000350 dd a4 f3 3c 29 92 72 bd ec 83 b6 3c 66 35 0d 3b
       0.029741699 -0.05922142 0.022279702 0.002154672
000360 42 40 57 3d d3 3b f7 3c 37 d7 3a bc 9b 72 2e 3c
       0.052551515 0.030179894 -0.01140385 0.010647441
000370 be 47 56 3c de 9d c1 bb 4d 63 88 3b 9f 4a 28 bc
       0.013078628 -0.005908712 0.004162228 -0.010271697
000380 fa a8 94 bc ab 79 74 3d 10 04 1c 3d f4 a6 5e bb
       -0.01814698 0.059686344 0.03808981 -0.0033974024
000390 40 e1 91 3c d8 89 85 3d b8 89 65 3c 64 15 89 bc
       0.017807603 0.06520432 0.0140098855 -0.016733833
0003a0 ac 69 08 3d 5e 84 51 3d 46 c5 11 3c af 6a 27 bd
       0.0333039 0.051151626 0.008897131 -0.040873226
0003b0 bc e5 d5 bc 07 0b bd bc 52 4a 73 3c 66 8a 61 bb
       -0.026110522 -0.023076547 0.014849262 -0.0034414767
0003c0 20 6d e0 3c cd d7 9b 3c c9 16 97 3c ae e9 7e bc
       0.027395785 0.0190238 0.018443482 -0.015558643
0003d0 61 51 9e 3c b3 a1 d7 3b 12 5d e6 bb 83 dd fd 38
       0.019325914 0.0065805553 -0.007030138 0.0001210524
0003e0 66 83 f3 3c e8 04 9f 3c 2a 2d f5 3c 7f c4 23 bc
       0.029725742 0.01941152 0.029928762 -0.009995579
0003f0 c0 48 0a 3b 64 9b cf bc e0 ed 9f b9 c6 74 e2 3b
       0.0021100491 -0.02534265 -0.00030504074 0.006910893

actor.2.weight f4 [128, 256]
000000 30 5b 24 3d 85 43 9e 3d dc 00 db bd e8 1c b0 bc
       0.040126026 0.07727722 -0.10693523 -0.021498159
000010 4c 14 c5 3d 88 a9 ae 3d 8e 51 12 be ca a9 ee bc
       0.09623012 0.08528429 -0.14288923 -0.029133696
000020 19 c1 05 be 9a 0b 09 3d b1 34 c8 3d 99 99 88 3d
       -0.13061942 0.03345833 0.09775675 0.066699214
000030 94 8f 00 3d da f5 0a 3e 0d 85 3f bd f4 45 0c be
       0.031386927 0.13570347 -0.046757746 -0.1369856
000040 20 61 01 be ce 5b b1 3d 0d 54 24 bc 15 f5 e3 bc
       -0.12634706 0.086600885 -0.010029805 -0.027826825
000050 63 8d 07 be 92 de 1f 3d 61 1c 21 3c b3 64 fe bc
       -0.13237529 0.03903062 0.009833426 -0.031053877
000060 6f 72 35 bd 53 11 0e 3d cd ea f4 3d 97 7c a5 bd
       -0.044298586 0.03468449 0.11958847 -0.08080404
000070 5a f0 bc 3a 7d 9c 6a bd 38 6a c3 bd 67 00 6e 3d
       0.0014414892 -0.057278145 -0.09541744 0.058105852
000080 1e 1c 9a bd ea 59 9b bd 59 14 9b bd 4f d4 b6 3c
       -0.07524894 -0.07585509 -0.075722404 0.022318034
000090 68 e8 cb bd d8 95 49 bc 4e 20 12 3d 20 45 0b be
       -0.09956437 -0.012303792 0.03567534 -0.13600588
0000a0 da b5 9e bd e9 1f ba bc 58 ec b6 bc bd e0 84 bd
       -0.07749529 -0.022720294 -0.022329494 -0.06488178
0000b0 5d 0a 87 bd cb 8d ed 3d 0d d3 e2 3d ab b0 08 3e
       -0.065937735 0.115993105 0.11075411 0.13348643
0000c0 7e bc 1c 3e 7c 96 6f 3d 93 f8 f5 bb 6e 60 f8 bc
       0.15306279 0.058493122 -0.007506439 -0.030319419
0000d0 96 98 ef 3b 18 7a 19 3d 23 95 92 bd 3b d6 07 3d
       0.007311891 0.037469953 -0.07157352 0.03316329
0000e0 84 86 e3 bd 9d 04 22 3c 6a a8 13 3e 0d 2b 73 3d
       -0.11109641 0.009888795 0.14419714 0.05936723
0000f0 93 5b 0a 3e 94 f5 71 3d 9c 83 88 3d ce 88 ee bd
       0.13511495 0.059072092 0.066657275 -0.11647187
000100 d2 d0 7b 3d 37 73 35 3d 1b ab b7 3b 22 58 3d 3c
       0.061478443 0.04429933 0.005605114 0.011556657
000110 2a 12 31 3d 8b 2c 22 3e 27 11 34 bd 6f 79 16 3e
       0.043230213 0.15837304 -0.04396167 0.1469476
000120 20 33 be bd 2c 94 a2 3d 30 e6 59 bd 88 24 bd 3d
       -0.09287095 0.07938418 -0.05319804 0.092354834
000130 71 2f 96 bd e1 df 8e 3d b8 63 0e 3e 13 8d 86 bd
       -0.073332675 0.06976295 0.13905227 -0.065698765
000140 c6 88 ba bc aa a0 da 3d df ee 02 bd 9e b2 2d be
       -0.022770297 0.106751755 -0.031966086 -0.16962668
000150 f2 6f f0 3d da be 04 be e0 53 e9 bb 3b 1e d8 3d
       0.11740102 -0.12963429 -0.0071205944 0.10552641
000160 ae 84 9d 3d 28 d3 e2 bd 87 dc c8 bd 2a ed bd 3c
       0.07691322 -0.11075431 -0.09807687 0.023184378
000170 dd fd 92 bd 3a f6 81 3c 7a ff c7 3d 19 72 5e 3d
       -0.07177327 0.01586448 0.09765525 0.05430803
000180 c4 5d b7 bd 41 62 af bc 8b 20 0d be 80 b3 21 be
       -0.08953431 -0.021409156 -0.13781945 -0.1579113
000190 ca c5 e7 3c fe d0 01 bd 58 e3 c7 3d 87 ca ea 3d
       0.028292555 -0.03169345 0.09760159 0.1146441
0001a0 56 50 8e bd 4b 66 95 3d 5b c3 a3 bd 8d a7 00 bd
       -0.069489166 0.072949015 -0.079962455 -0.03140979
0001b0 cf 17 02 3e 75 3c 56 3a 72 81 3e bd f0 c6 11 bd
       0.12704395 0.0008172461 -0.046510167 -0.035590112
0001c0 87 92 92 bd 5b d9 20 bd 70 e0 0e 3e 87 f5 c3 bd
       -0.07156854 -0.039269786 0.13952804 -0.09568315
0001d0 6f ed 2f bd ac bb 86 3c 1f c6 f0 bd af 3e b6 3c
       -0.042951044 0.01644691 -0.117565386 0.022246687
0001e0 54 d6 e8 ba 71 24 fc 3c af 7f b0 3d b0 42 53 3d
       -0.001776407 0.030779095 0.08618104 0.05157727
0001f0 fe 09 bc 3d c9 ea 1a 3e 18 cb c4 3d f3 b9 00 bd
       0.09181593 0.15128626 0.096090496 -0.031427335
000200 b5 a2 ca 3d e5 6f 9a 3a c8 85 b4 3d e2 2b aa 3d
       0.09894315 0.0011782615 0.08814579 0.08309151
000210 29 78 19 3d cc 3b 37 3d 78 98 8e bd 6e de db bd
       0.03746811 0.04473476 -0.06962675 -0.107357845
000220 9a 9e db 3d 21 7b b6 bb 46 75 39 bd 08 c6 bd bc
       0.1072361 -0.0055688773 -0.045277856 -0.023165718
000230 6d a6 31 3d a2 0b 2a be ce 2d ae bd 8f bd c7 3c
       0.043371607 -0.16606 -0.0850483 0.02438238
000240 e0 d5 cd bc 53 68 1f 3e 7a 05 1f 3d f7 d3 94 bd
       -0.025126398 0.1556714 0.038823582 -0.072669916
000250 e8 2e 0e 3e b9 41 5f bd 0c ea cc bc 5d 9a d6 3a
       0.13885081 -0.054506037 -0.025013946 0.0016372908
000260 aa d2 2d 3e 01 a1 1e 3e 2f 71 34 3d f2 3b db bd
       0.16974893 0.15491106 0.044053253 -0.10704793
000270 4b 4e 20 bd 68 f6 b7 3d a1 b2 79 3d 62 30 e8 3c
       -0.039137166 0.08982545 0.06096137 0.028343383
000280 45 86 c7 3d f4 25 c1 3d ef 50 3c 3c b6 32 3b 3c
       0.09742407 0.09431067 0.011493905 0.011425665
000290 c6 97 db 3a 8e c0 d3 3d 37 4e fc 3d 5b 4f 5c bd
       0.0016753606 0.10339461 0.12319606 -0.053786617
0002a0 6c 7b df bc c4 61 a9 3d 4d 4b 01 bc b2 36 ba bc
       -0.027280532 0.082706004 -0.007891488 -0.022731159
0002b0 d7 b6 23 bd 43 55 ca bc d4 60 45 bb 20 2f dc bd
       -0.03996929 -0.02469886 -0.0030117529 -0.10751176
0002c0 62 10 03 3d 48 c3 6c 3c 3c b0 41 3d 1c 74 cd bd
       0.031998046 0.014450856 0.04728721 -0.10031912
0002d0 a6 3b f6 3d ae 59 8b 3d 4b 0d 0e 3d b1 84 b1 3d
       0.12023096 0.068042144 0.034680646 0.08667887
0002e0 c1 b3 e1 3d d2 14 df bc 79 fd 9c 3d c3 7c c0 3d
       0.110206135 -0.027231608 0.076655336 0.093987964
0002f0 fa 10 cc 3c fa b6 e3 3d 58 10 d0 bd a3 65 06 be
       0.024910439 0.111188844 -0.10159367 -0.13124709
000300 1c 6d 37 bc d5 d8 b7 3c ff 14 4b bd 56 6a a2 bd
       -0.011195447 0.02244226 -0.04958057 -0.07930438
000310 35 82 92 3d 71 57 65 bc 93 24 47 bd 8e 25 95 bd
       0.07153741 -0.013997898 -0.048618864 -0.072825536
000320 52 05 c0 bd c8 b3 97 3d 3d 0d 39 3d 2e 9d 74 bd
       -0.09376015 0.074073374 0.04517864 -0.05972021
000330 9a 07 45 3d 02 46 06 bd fa 5f c3 3d 11 a7 0d be
       0.048102953 -0.03278161 0.095397905 -0.13833262
000340 35 29 74 3d 83 61 eb bd 40 3c e0 bd a4 44 36 3d
       0.05960961 -0.11493208 -0.10948992 0.044499055
000350 05 ea 89 3c 51 87 6f 3d e1 aa 8c bd bd 2c ce 3d
       0.016835222 0.058478657 -0.0686853 0.10067127
000360 28 3b 0b be 0e e0 15 be 9e 4c 89 bd 3c 28 4d 3d
       -0.13596785 -0.14636251 -0.06704067 0.0500872
000370 d6 5d 1a 3d 81 bc 12 3d 45 9c 1e bd cc 09 12 3d
       0.037687145 0.035824303 -0.03872325 0.035653874
000380 1f 5e 0d bd 3f b9 c5 3d 40 4c 80 bd 84 1d 9d 3c
       -0.03451359 0.096544735 -0.062645435 0.019179113
000390 4f ce 8a 3c f3 63 74 bb 21 68 3a bd d4 3b 50 3d
       0.016944079 -0.003729102 -0.04550946 0.050838307
0003a0 58 6a 34 3c 64 97 dd 3c 7a 0d b7 bd e5 b0 80 bd
       0.011011682 0.027049728 -0.08938117 -0.0628374
0003b0 a0 f0 4d 3d c7 85 53 bd 63 59 9c 3c 37 6c b8 bd
       0.050278306 -0.051641252 0.019085592 -0.09005015
0003c0 11 52 64 bd f0 e5 b1 bd 68 e6 79 bd 82 5a a4 3d
       -0.055742327 -0.08686435 -0.06101075 0.080250755
0003d0 5c 99 d6 bd 56 3a 1f 3b d4 cd 06 bd e9 1e c6 3c
       -0.1047847 0.0024296246 -0.032911137 0.024184661
0003e0 d9 8c ff 3d 50 ad 75 bd c2 5c 40 3d 61 73 a1 3d
       0.124780364 -0.059979737 0.04696346 0.07883335
0003f0 13 e9 97 bc 83 cd 97 3c 1f 2c 2b 3c d5 47 e7 3d
       -0.018543756 0.018530613 0.010447531 0.11292998

actor.2.bias f4 [128]
000000 31 b3 ca 3c 71 71 19 bc 6b 2c 10 bc 52 2a e8 3b
       0.024743648 -0.009365425 -0.008799653 0.007085123
000010 c3 1c bc 3c b3 99 41 3c ff ef 02 bc 18 1b d2 3c
       0.022962933 0.01181643 -0.00799179 0.025647685
000020 34 18 1f 3d 85 e1 d7 3b 49 88 f0 3a 82 c6 b6 3b
       0.03884144 0.0065881633 0.0018351163 0.005577863
000030 13 c7 8e 3a 07 ec 1b bc 49 ea 23 3c d0 9c cd 3b
       0.0010893069 -0.0095167225 0.010004588 0.006274797
000040 b0 e9 97 3c 5c 9e 65 3b 53 48 4c 3c ca dd 99 bc
       0.018544048 0.0035037016 0.012468415 -0.018782515
000050 54 fe 5b 3c 0d b8 20 3c 3f 4c 0b 3b ba 48 3e 3c
       0.013427336 0.009809506 0.0021255163 0.011614019
000060 05 fe 62 3b a6 b0 90 3c d0 fc f2 3c a7 86 e2 b9
       0.003463627 0.017662358 0.029661566 -0.00043206403
000070 70 4a 96 3c 62 6d 27 bc fe 76 c7 3b 0c df 9f bc
       0.018346041 -0.01021895 0.006087183 -0.019515537
000080 3c 42 54 3c 7e 1b 63 bc 05 09 eb 3c 00 00 00 00
       0.012955245 -0.013861535 0.028690824 0.0
000090 91 13 e0 bb 9a 8e a4 bc 41 52 30 bc 0a d7 f4 bb
       -0.00683827 -0.020087529 -0.010761798 -0.0074719237
0000a0 bb f6 a0 3c 64 3a 18 bc b5 4e 22 3d 08 d0 ce 3b
       0.0196489 -0.009291265 0.039625842 0.0063114204
0000b0 c4 76 dc 3b 96 6b 8f bc 28 fd 03 3c 93 53 b6 3c
       0.006728025 -0.017507356 0.008055963 0.022256648
0000c0 b5 35 16 3c b5 cb a5 3a 1d e5 d5 3c 20 88 b0 ba
       0.009168078 0.001264921 0.026110226 -0.0013468303
0000d0 80 eb f7 bc 1b 5e f3 3c 7e 30 ab 3c 12 b8 e6 ba
       -0.030263662 0.029707959 0.020897146 -0.0017602465
0000e0 f3 88 cf 3c 0d fc d7 bb 82 fb 07 3d ec 56 be 3c
       0.025333857 -0.006591326 0.03319884 0.023234807
0000f0 b4 4d 2e bb ad dc 61 3c 30 5d 87 3b 00 00 00 00
       -0.0026596608 0.013785523 0.004130982 0.0
000100 88 e0 a5 3c 94 9c 1c 3d f8 96 46 bc a6 db 9d 3a
       0.020248666 0.038235262 -0.012120955 0.001204361
000110 cd 0c 6a 3c 5c c8 b7 3c 15 63 df 3c 66 be 0a bc
       0.0142852785 0.022434406 0.027268926 -0.008468246
000120 3d 75 c4 bc b9 5f 56 bb 0d 70 a7 3a 34 fb 67 bc
       -0.023981685 -0.0032710864 0.0012774483 -0.014159013
000130 91 d5 83 bb 98 f8 14 3d 1b e0 8a bb 15 5d a3 bb
       -0.004023262 0.03636989 -0.0042381412 -0.0049854615
000140 2b fc 6e b8 10 00 35 3c cc 9b b4 bb 8b 2f c9 3c
       -5.697847e-05 0.011047378 -0.0055117365 0.024558803
000150 d5 91 85 3c 34 7c 56 bc 88 1b 14 3b c4 0f 84 3c
       0.01630489 -0.013091136 0.0022599418 0.016120799
000160 ce d4 82 3c 39 e4 eb bb fb c3 2a 3c f8 d7 18 3d
       0.015970614 -0.007198837 0.010422702 0.03731534
000170 88 3f 83 bc ce 72 3d 3a ef 2b d1 bb 71 45 6b 3c
       -0.016021505 0.0007226885 -0.006383411 0.014359818
000180 c9 44 89 bc d5 c3 bb bb 94 a0 ca 3a 6e b1 09 bc
       -0.016756432 -0.005730132 0.0015459233 -0.008404119
000190 37 8c b8 3c c3 2a a6 3c ea e4 8f 3c 6f cb aa 3c
       0.022527797 0.020284062 0.01756521 0.020848958
0001a0 73 a6 33 3c eb cf 8f 3c 17 f6 89 3b 6f 7a 52 3c
       0.010964978 0.017555198 0.0042102444 0.012846573
0001b0 be cc 9d bc d3 3e 2a 3c 9a e3 33 bc 31 5b 8a 3c
       -0.019262668 0.010390955 -0.010979557 0.016889187
0001c0 4c 0b be 3c b1 b6 a2 3c 71 0a 29 3c b6 9d 74 3b
       0.023198746 0.019862505 0.010317431 0.0037325448
0001d0 7c 44 37 3d 1f 32 ad 3c 00 00 00 00 24 34 da 3b
       0.044743046 0.021142064 0.0 0.0066590477
0001e0 2a 5d b6 3b ac 12 6a bc 2e 02 b7 3b ba 68 16 bc
       0.0055653052 -0.014286678 0.0055849766 -0.009180242
0001f0 a7 51 ac bb 7a 97 8f bc 6e ee 24 3d 73 6e cd 3c
       -0.005258757 -0.017528284 0.040266447 0.02507708

mu.0.weight f4 [1, 128]
000000 f1 23 c1 bd 2b 00 05 3c 79 91 0a be 32 f9 65 3e
       -0.094306834 0.008117716 -0.13532056 0.22458342
000010 07 b8 0e 3e 1e db c0 bd 81 07 ce 3d 6b 7b ea 3d
       0.13937388 -0.09416793 0.10060025 0.11449321
000020 db 5a 92 3e 3f 20 91 3e 21 06 fa bd e0 86 42 3e
       0.28584942 0.28344914 -0.122082 0.18996763
000030 56 83 24 3e 5e a6 ca bd 6d 0f 41 be 97 74 12 3e
       0.16065726 -0.09895013 -0.1885354 0.14302288
000040 99 ae 6d 3e 46 ee 6d be 23 f2 35 3e 0d 76 47 be
       0.23211135 -0.23235425 0.17768149 -0.19478627
000050 88 18 b3 3d 11 da c7 3d 22 f3 66 be 79 ac 2f be
       0.08744913 0.0975839 -0.22553685 -0.17155637
000060 44 73 89 be 85 18 68 be 6c 0e 0f 3e b4 53 82 be
       -0.26845753 -0.22665603 0.13970345 -0.25454485
000070 2c 11 94 bd 9a 4b 9b bd 8e 5a 2c be 1d 39 bf 3c
       -0.07229838 -0.07582779 -0.16831419 0.023342663
000080 67 2b b9 bd b7 72 a1 3d e1 e3 5e 3e 1b b7 26 3d
       -0.090414815 0.07883208 0.21766616 0.040701967
000090 8d 37 3d 3d 5f 27 12 be 6e 57 88 bd 72 ce 31 be
       0.046195555 -0.14272831 -0.06657301 -0.17363909
0000a0 99 e8 46 be 68 8f 05 bd e5 ef 7b bd f2 e9 b7 bc
       -0.19424666 -0.032607466 -0.061508078 -0.022450421
0000b0 6c 18 09 be b5 ca a4 bc f5 60 7f be f3 47 61 3e
       -0.13388222 -0.02011619 -0.2493933 0.22000103
0000c0 71 81 09 3e 98 3c 23 3e 0d 38 90 3e fd 69 d6 3d
       0.13428284 0.15941083 0.28167763 0.104694344
0000d0 a2 17 b6 3d 32 bc 5e be c0 89 aa bd 89 a2 4d be
       0.08891226 -0.21751478 -0.08327055 -0.20081533
0000e0 0b 13 f0 3d 3d 5d 7f be 9b f0 2e 3e bd cc 9a be
       0.11722382 -0.24937911 0.17083971 -0.30234328
0000f0 05 9b 25 be 57 e0 73 bd e7 b5 39 3d c3 a7 08 3e
       -0.16172417 -0.05954012 0.04533949 0.13345246
000100 d7 b9 37 3e 28 2f 3e 3e 7b 2c 22 3d 5c 7d 55 be
       0.17941986 0.18572676 0.0395932 -0.20848602
000110 04 3e 37 be f6 1d 5a bd c4 75 e1 3d d4 26 1a 3d
       -0.17894751 -0.05325123 0.1100879 0.037634686
000120 b6 4e 09 3d 44 6f 15 be fb 93 a4 bd 1b e7 db 3d
       0.03352233 -0.14593226 -0.080360375 0.10737439
000130 d3 f8 5f be 0c 10 5c be 95 ba 15 be fb 7d c3 bc
       -0.21872263 -0.21490496 -0.14621957 -0.023863783
000140 16 03 e6 bd 87 96 b6 3d 3b 4c 3c bd 2c 80 56 be
       -0.11231057 0.089154296 -0.045971137 -0.20947331
000150 fc 99 6c be b2 6d 23 3e f2 28 98 3e ae a2 75 3e
       -0.23105615 0.15959814 0.2971874 0.23987839
000160 10 17 54 3e 49 50 39 3d 2e 3d 05 3e 8e 5c ff 3d
       0.20711923 0.04524258 0.1301162 0.12468825
000170 51 65 86 bd 67 23 61 3d 1a 67 26 3e 67 af e2 3d
       -0.06562293 0.054965403 0.16250268 0.110686116
000180 fc 1e f9 bd fd f2 1b 3e e4 39 2e be 38 2d 0a bd
       -0.12164113 0.15229411 -0.17014271 -0.03373453
000190 9e 19 1d be 88 05 3c 3e 50 6c 1c be fa ab 66 3e
       -0.15341803 0.18361485 -0.15275693 0.22526541
0001a0 a1 be b1 3d 3e 50 c9 3d 7b 21 13 be 85 eb 4c 3e
       0.08678938 0.09829758 -0.1436824 0.20011719
0001b0 aa f4 ba 3d a0 f0 26 3e f1 de 51 bd 6e 21 12 be
       0.09128697 0.16302729 -0.051238004 -0.14270565
0001c0 ff 92 13 be ae 67 8b 3e 5a 92 88 be 19 ce 67 be
       -0.14411543 0.2722754 -0.26674157 -0.22637214
0001d0 c1 5d 07 3e f9 e5 fc bd 8e c5 7d 3d c4 e1 24 be
       0.13219358 -0.12348551 0.06195598 -0.16101748
0001e0 5a ed 5e be 08 48 2c be 31 e1 17 3e 84 25 56 be
       -0.2177023 -0.16824353 0.14831997 -0.20912749
0001f0 c2 1e 2f 3e 2d b7 2e bd 57 ff de 3d 0d 0a 71 3e
       0.17101577 -0.04265516 0.10888546 0.2353899

sigma.0.weight f4 [1, 128]
000000 f9 2e 26 3d 69 39 a1 bd f7 a3 f3 bc 10 bb 91 3c
       0.04057214 -0.07872278 -0.02974127 0.017789394
000010 ae 8f 0c be 8c 5b 82 3c 86 a7 0d 3e 36 53 95 bd
       -0.13726684 0.015912794 0.13833436 -0.07291262
000020 fd fa f1 3d 22 f2 8a 3c c8 b3 01 be 12 d7 24 be
       0.1181545 0.016961161 -0.12666237 -0.16097668
000030 da 2c 42 3e 11 71 56 3d 1c d2 ea 3d 0c f5 aa bd
       0.18962422 0.052353922 0.114658564 -0.0834752
000040 1f 2c d5 3c ba 90 9d bd 63 bd 1d be 60 a1 e4 bd
       0.026022015 -0.0769362 -0.15404277 -0.11163592
000050 84 15 5d be fe 57 c7 bd 10 a6 d8 3d 49 03 9f 3d
       -0.21590239 -0.0973358 0.10578549 0.077642985
000060 0b 54 5f bd d6 5f 5a 3e 6d a0 f2 bc aa 0b 0d 3e
       -0.05452351 0.21325621 -0.029617513 0.1377398
000070 a1 d4 a1 bd e7 36 12 be 18 9b 23 3d ce 4a 42 be
       -0.07901884 -0.14278756 0.03994283 -0.18973848
000080 c6 ba cb bc 1b 03 4f be bb 4e 66 be 7f d9 2f 3e
       -0.024869334 -0.20216028 -0.22490971 0.17172812
000090 fe 15 4e bd 06 3d 33 3e a9 d3 d6 bd 9b 8b e8 3d
       -0.050313942 0.17503747 -0.1048959 0.11354753
0000a0 4f 5e 66 3e b4 1b 18 be 38 59 57 3e 0a cc 4b be
       0.22496913 -0.14854318 0.21030128 -0.19902053
0000b0 96 b1 94 bd b3 ba 48 3e a0 12 c3 bd fe 77 95 3d
       -0.07260434 0.1960247 -0.09525037 0.07298277
0000c0 b7 7d ba 3d 6c c2 c2 bc b9 d6 4d 3e 28 ec 1f 3d
       0.091060095 -0.023774348 0.20101441 0.039043576
0000d0 13 60 dd 3d 72 6d 5d bc 27 8b 3c 3e 2a b4 06 be
       0.1080934 -0.013514863 0.18412457 -0.13154665
0000e0 22 d9 88 bd a6 d9 63 bd 03 45 d8 3b c5 6f 08 3d
       -0.0668204 -0.055627488 0.0066000237 0.033309717
0000f0 ad b5 2f 3d 16 b8 fd bd b6 72 8e bd 60 72 44 3d
       0.04289787 -0.12388627 -0.06955473 0.04796064
000100 8b ee 3e be 17 99 0a 3d 08 c5 d5 bd 16 ff b7 3d
       -0.18645684 0.033837404 -0.10437971 0.08984201
000110 d6 5a 51 bd a9 e6 2f 3e c8 17 99 bd 6e 19 55 be
       -0.05111202 0.17177834 -0.07475239 -0.20810482
000120 31 c5 3e be f4 85 0a be 09 ef 66 3e 1e 31 3f bc
       -0.1862991 -0.13527662 0.22552122 -0.011669425
000130 fd e4 04 be db 14 1f be 20 fc 07 be 58 a8 00 bd
       -0.12977977 -0.155353 -0.13279772 -0.031410545
000140 8f 18 20 be 37 af 58 3e 5c e3 b8 bd 63 20 67 3e
       -0.15634368 0.21160589 -0.0902774 0.22570948
000150 39 c4 58 3e f4 80 20 be f7 9f 65 3e a0 00 b5 3d
       0.21168603 -0.15674192 0.22424303 0.0883801
000160 01 34 06 3e fc 62 27 be f3 d6 04 be f3 0a 61 3e
       0.13105775 -0.16346353 -0.12972622 0.21976833
000170 d7 01 16 3e 27 d3 f8 3d 40 36 42 3e ce 1c fd bc
       0.1464914 0.12149649 0.18966007 -0.030897524
000180 5a e3 29 3e d0 43 bc 3d 8b 1f 60 be ae 66 01 3d
       0.16590634 0.09192622 -0.21887033 0.031592064
000190 7b 9b ab bd 63 c4 1b 3e 3f c2 06 3e db 49 a7 3c
       -0.08379265 0.15211634 0.13160037 0.02042096
0001a0 45 25 e5 bd 53 a9 c7 bd 95 6d 37 bd 1d 7a 67 bb
       -0.11188749 -0.09749093 -0.04478224 -0.0035320588
0001b0 69 82 25 3e 46 e2 ea bd b3 3e d5 bd 56 0c 4d 3e
       0.16163029 -0.114689395 -0.104123496 0.20024237
0001c0 c6 16 2a 3e 5b 07 bb 3c bb 9c a0 bd d3 a5 1e 3e
       0.1661025 0.022830656 -0.07842394 0.15492944
0001d0 84 16 4e 3e 3e 40 b6 3d b3 21 5a 3e de 3e 1f be
       0.20125777 0.08898972 0.21301918 -0.15551326
0001e0 ca db 2f bd 7b 03 21 be d9 bc c7 3c 62 8c a7 bd
       -0.042934217 -0.15723984 0.024382042 -0.08181073
0001f0 69 8e 08 be 42 eb 3e be ee dd af 3d 14 6d 4a be
       -0.13335575 -0.18644431 0.085872516 -0.19768173

critic.0.weight f4 [256, 3]
000000 da e6 43 be fb 56 04 3e 80 c2 ba bd f5 bc c9 be
       -0.19131032 0.12923805 -0.09119129 -0.39401975
000010 88 6a ca be 85 19 e7 bd a1 b3 5b be 51 ff 78 be
       -0.39534402 -0.11284164 -0.21455242 -0.24316145
000020 35 14 ae bd ad 0d 8d be b0 bd 2e bf 0d 5d 85 bd
       -0.08499948 -0.27549496 -0.6825819 -0.06511889
000030 24 58 34 be 3c fa 44 bd 6c e7 b5 bd 52 aa 9c be
       -0.17611748 -0.048090205 -0.08882031 -0.30598694
000040 be 48 9f 3e ca bf 9e 3d 72 5d ce be 4f 01 ff 3c
       0.31110185 0.077514246 -0.40305668 0.031128554
000050 aa bc d4 bd e4 a8 d3 3d fe d8 b5 3e da 69 8f bd
       -0.10387547 0.10334948 0.35517114 -0.070026115
000060 cc e3 98 3c 8f 51 4b 3f c7 cd cd bb 8d fd 80 be
       0.01866331 0.79421324 -0.006280634 -0.25193444
000070 cd d5 4c bd 5d b9 a6 3d e1 dc 19 3e 2c 6e 0b 3e
       -0.050008584 0.08140824 0.15025665 0.13616246
000080 18 cd b5 3b ea a9 d5 be b4 75 d1 3b cb 26 27 3e
       0.0055481307 -0.41731197 0.006392205 0.16323392
000090 54 0d b0 be 0e 28 0d bf 82 00 da bd 43 bb f8 3d
       -0.3438517 -0.55139244 -0.10644628 0.12145092
0000a0 6b 9a 9c 3e 7e be fc bd 8f 90 97 be 2c 7b a0 bd
       0.30586562 -0.12341021 -0.29602477 -0.07835993
0000b0 ce 5a eb 3d 02 57 f5 bc 8e 1f 7a bd 7d be a6 3d
       0.11491929 -0.029948715 -0.06106525 0.081418015
0000c0 8b a4 b7 3c 2e 8b 44 bd 8b a8 85 3d f5 e7 a7 3e
       0.022417327 -0.047984295 0.06526288 0.32794157
0000d0 5e 4c db bd 1a ab 8a 3c ec 73 bd be e0 e2 8d 3e
       -0.10707925 0.01692729 -0.37002504 0.27712154
0000e0 48 3a d2 3d 86 57 ee ba 26 45 10 3e 74 a5 3e bc
       0.102650225 -0.0018184043 0.14088878 -0.011636127
0000f0 76 3f 25 be 55 9a 92 be b4 64 f4 3c ff cf b3 be
       -0.1613749 -0.2863337 0.029833175 -0.35119626
000100 63 df 98 be 71 a8 c8 bd ac d3 13 bd 8d 77 f7 bd
       -0.2985793 -0.09797753 -0.036090538 -0.120833494
000110 aa b6 08 bd c3 84 e8 ba 7a c6 18 be 43 2c e3 3d
       -0.033377327 -0.0017739761 -0.14919463 0.11092427
000120 44 07 b0 be 22 ca a5 3e e3 d5 bc 3d 51 a6 34 bd
       -0.34380543 0.32380778 0.09220483 -0.044103924
000130 ab 29 49 bd 0a 67 f0 3d eb bd c2 be a8 91 11 bf
       -0.049112003 0.11738403 -0.3803552 -0.5686288
000140 76 00 fa bd 71 6f 90 bd be 32 33 bd cf ee 92 3d
       -0.12207119 -0.07052506 -0.043749563 0.071744554
000150 8a 0e c7 be 67 74 89 bc 84 7d c7 bd 4b a1 69 be
       -0.3887828 -0.016779138 -0.09740737 -0.22815435
000160 4a 32 bf be a8 41 8a 3d aa 48 e0 be 4d a7 ce be
       -0.37343055 0.06750804 -0.43805438 -0.40362015
000170 95 73 01 be 99 d4 93 bd 14 d0 9b 3e 65 d2 7b bb
       -0.12641747 -0.07218284 0.3043219 -0.0038424965
000180 c6 99 95 be 7a 3c 94 3e 12 b1 95 3d e5 75 e0 be
       -0.29218882 0.2895239 0.07309164 -0.43839946
000190 46 db 9a be 0f 3f f6 bd be 0d 62 be 87 73 b4 bc
       -0.30245417 -0.12023746 -0.22075555 -0.022027744
0001a0 b0 ae 8b bd ec ac e7 3d 95 c7 c4 3d 65 c1 80 be
       -0.06820428 0.11312279 0.0960838 -0.25147548
0001b0 5f 24 cd bc 87 cb 5b 3e a0 6b 84 be 91 93 a1 bd
       -0.025041757 0.21464358 -0.2586336 -0.07889474
0001c0 20 7d f7 3d 60 ec bb 3c 78 c7 ef 3d 4f 97 52 3e
       0.120844126 0.02293986 0.117079675 0.20565532
0001d0 be 0d 8c 3c a9 1f a8 be ed 9b b1 3d a2 bf bb 3d
       0.017096397 -0.32836655 0.086723186 0.091674104
0001e0 46 ce c5 be da c4 c9 be 2d 2b e0 bd 79 18 75 be
       -0.38633937 -0.39407998 -0.10945735 -0.23935117
0001f0 f4 9f c6 bd ef a2 9d bd 4d b6 71 bc 8b 98 51 be
       -0.096984774 -0.07697093 -0.014752937 -0.20468347
000200 a9 31 80 3d f4 1a c8 be 79 ea 3e be 75 8b cf bd
       0.06259472 -0.39083064 -0.18644132 -0.10134021
000210 bc 31 1b 3e 33 99 9c bd 45 72 a4 3d 09 07 95 be
       0.15155691 -0.07646408 0.08029608 -0.2910693
000220 76 d9 21 be ab 60 a2 3d 05 14 bd 3d 06 45 09 bd
       -0.15805611 0.07928594 0.09232334 -0.03351309
000230 56 43 bb 3d c9 8c ce ba b8 07 85 bd ea b6 9a 3d
       0.09143703 -0.001575851 -0.06495613 0.07554419
000240 0c 54 d5 be 58 24 c9 be 83 8d f2 bd 0a fd 3d be
       -0.41665685 -0.3928554 -0.118433975 -0.18553558
000250 fe c1 91 be 10 5d b1 3d ff 01 4b 3d 09 8e d8 3d
       -0.28468317 0.086603284 0.04956245 0.10573966
000260 f9 78 8a be d3 31 b2 be 57 31 a4 3e c6 c3 bc 3d
       -0.2704542 -0.34803638 0.32068893 0.09217028
000270 fa e3 9a be 13 de 29 bf b8 4c cc bd 73 15 06 be
       -0.30252057 -0.66354483 -0.099755704 -0.1309412
000280 b8 e6 34 3f 22 f7 0c 3c aa 49 8e be 63 c7 09 be
       0.7066455 0.008603843 -0.27790576 -0.13454966
000290 ec ea e3 3d 66 da ee 3d 03 84 83 bd 67 f5 d6 3d
       0.11128792 0.1166275 -0.064216636 0.104960255
0002a0 1e ed c9 be 93 04 5a be cc 02 2f 3e 6b e6 68 be
       -0.3943872 -0.21290807 0.1709091 -0.22744147
0002b0 74 49 d7 bd a3 2e b8 bd 0f ef ef bd a7 df 73 3b
       -0.10512057 -0.0899327 -0.11715519 0.0037212165
0002c0 3e d0 79 bd ae f3 0c bd e4 c7 ba 3c 80 df 93 3d
       -0.06098961 -0.03441208 0.022800393 0.072203636
0002d0 dd 63 de 3d f1 5a f2 3c d6 bf 83 3d cf d4 c1 be
       0.10858891 0.02958438 0.06433074 -0.37857673
0002e0 cb 78 7b be 0e 8e cc bd cf 7a cf be b6 86 dc be
       -0.24557798 -0.09988032 -0.40523383 -0.43071526
0002f0 2d 77 f1 bd 8f f2 c0 be 54 a8 7e be b1 bb 13 3e
       -0.11790309 -0.37685058 -0.248689 0.14427067
000300 af 47 cb be 95 8e f5 be 0e a5 ef bd ce 31 50 bd
       -0.39703128 -0.47960344 -0.117014036 -0.050828747
000310 46 8d 98 be 73 1f 10 3d ce 99 bd be cf d2 2c be
       -0.29795283 0.035186242 -0.37031406 -0.16877292
000320 c1 f9 c2 bd b9 c3 94 be 2d cd 29 be f3 e1 b5 3d
       -0.09520293 -0.29055575 -0.16582175 0.08880987
000330 3f bd 78 3c a0 d3 be 3c 34 43 ad 3d 91 fc 82 be
       0.015181839 0.02329427 0.084600836 -0.25583318
000340 6f ec 8e be 72 1b 23 3d a5 61 d5 be ea ec a0 be
       -0.2791476 0.039821096 -0.4167606 -0.3143075
000350 58 04 ed bd 99 03 14 bd 63 3c 81 bd bb 2e da bc
       -0.11573094 -0.036136243 -0.06310346 -0.026633611
000360 9b ff bf be 00 f1 60 be f2 7d ce bd 96 95 66 be
       -0.374997 -0.21966934 -0.10082616 -0.22518
000370 aa 40 22 bf 35 fd 32 bd ba c0 ce be 6d 3d 5e be
       -0.6337992 -0.04369851 -0.40381414 -0.2170312
000380 36 68 da bd a1 0f a4 be 51 94 e1 3d 26 06 9e bd
       -0.10664408 -0.32043174 0.11014617 -0.077160165
000390 0c 1c 93 be 21 cc 0e 3e 5b 51 98 3d 3c 89 d0 be
       -0.28732336 0.13945056 0.07437392 -0.40729702
0003a0 f5 bf 54 3d 63 84 cf bd f4 3f 10 be 12 30 81 3e
       0.051940877 -0.10132673 -0.14086896 0.25231987
0003b0 bd 1e f8 3b 5a 29 cd be 3b 16 29 3e 02 fd ee 3d
       0.0075720237 -0.4007061 0.16512387 0.11669351
0003c0 47 9e 70 bd eb 6e 02 be 8f e7 4a 3d 7e 4b 3c be
       -0.058744695 -0.12737624 0.049537238 -0.18388173
0003d0 b3 cf 72 3e 42 84 80 be a6 a2 c9 be 88 96 1e bf
       0.23712043 -0.25100905 -0.39381903 -0.6194844
0003e0 ac 14 00 be a7 6f 93 3d 5f 8d e0 bb 9e 95 bd 3d
       -0.12507886 0.0719903 -0.0068527902 0.09257053
0003f0 37 a2 92 bc f5 b1 71 3d c0 9b 53 3d cd f8 da 3d
       -0.017899616 0.059007604 0.051662207 0.10691986

critic.0.bias f4 [256]
000000 01 f1 85 3e 1a 17 aa 3e 60 af 6d 3e f2 c2 27 3e
       0.26160434 0.3322075 0.23211432 0.1638296
000010 a0 65 a6 3e 80 50 7a 3e 67 4b b9 3e 27 1e b1 3e
       0.3249941 0.24444771 0.3619034 0.34593317
000020 44 d6 df bd 4a a9 8e 3e 42 cc 81 3e ff d1 95 3e
       -0.1092954 0.27863532 0.2535115 0.29261777
000030 26 ee 7d 3e e9 77 ab 3e e1 83 a9 3e 0e 7f b6 3e
       0.24797878 0.33489922 0.33108428 0.3564381
000040 68 1c b1 3e 00 0b 21 3e 34 a5 9a 3e 1b 3b 85 3e
       0.34591985 0.15726852 0.30204165 0.26021656
000050 64 98 95 3e 5e b0 9d 3e 95 af 97 3e ec 89 c8 3e
       0.29217827 0.3079862 0.29626146 0.39167726
000060 66 c6 8c 3e dd 65 aa 3e 47 6c 8f 3e ef e4 98 3e
       0.27495116 0.3328084 0.28012297 0.29862162
000070 2e 2f b5 3e 04 a4 54 3e de e5 bf 3e 3a da 03 3e
       0.35387558 0.20765692 0.37480062 0.12876216
000080 93 b8 70 3e c6 46 c9 3e 0b e5 80 3e ac 1e cc 3e
       0.2350791 0.39311808 0.25174746 0.3986715
000090 fc a4 cc 3e 68 e5 8a 3e e4 c7 df 3e 54 af 8f 3e
       0.39969623 0.27128148 0.43707192 0.28063452
0000a0 d4 ff a5 3e 37 8c 89 3e 40 99 9e 3e 3d 14 b7 3e
       0.32421744 0.26864788 0.30976295 0.35757628
0000b0 8f 76 c3 3e e0 79 a4 3e 4b f6 bb 3e f2 75 bb 3e
       0.3817639 0.32124233 0.36711344 0.36613423
0000c0 c5 f5 b5 3e 58 3b 7a 3e c8 48 c6 3e a8 45 8f 3e
       0.3553907 0.244367 0.38727403 0.2798283
0000d0 22 03 41 3e a5 d1 3b 3d 24 2f a1 3e e5 65 e1 3e
       0.18848851 0.04585423 0.31481278 0.44023052
0000e0 c4 3e b0 3e ef d0 92 3e 0f 83 82 3e 1d 51 ab 3e
       0.34422886 0.2867503 0.25490615 0.33460322
0000f0 51 5a fd 3e c7 a0 af 3e cf 46 ac 3e 24 39 9a 3e
       0.49482968 0.3430235 0.33647773 0.3012172
000100 de ee a1 3e 97 fe 85 3e 26 94 ae 3e a3 e1 a4 3e
       0.31627554 0.261708 0.34097403 0.32203397
000110 75 8f c1 3e 4a 4e 7b 3e 7a 57 bd 3e 79 f2 72 3e
       0.37804762 0.24541584 0.36980802 0.23725308
000120 73 b0 ae 3e dc 82 ff 3d 0e 2e bd 3e 0b ae 92 3e
       0.34118995 0.12476131 0.369492 0.2864841
000130 11 96 76 3e 9d 23 bd 3e 64 99 26 3e be 4a aa 3e
       0.24080683 0.36941233 0.16269451 0.3326015
000140 60 e4 87 3e 8a 07 92 3e 41 3e 92 3e a6 f1 ca 3e
       0.26541424 0.28521377 0.2856312 0.39637488
000150 6d 6a 95 3e 91 6f 81 3e 61 2d 6a 3e b0 6c b6 3e
       0.2918276 0.2528043 0.22868873 0.35629797
000160 2c 56 c9 3e e5 33 a5 3e 08 70 d2 3e f4 95 a2 3e
       0.39323556 0.32266155 0.41101098 0.3175503
000170 16 e4 a2 3e 5f f7 cd 3e 34 b3 aa 3e 8c 61 8b 3e
       0.3181464 0.40227792 0.33339846 0.2722286
000180 61 a1 c2 3e ed 0e a5 3e b8 1f a4 3e 26 85 39 3e
       0.38013747 0.3223795 0.3205545 0.18117198
000190 31 4e 7e 3e 7e 7d bd 3e c2 c0 93 3e 9d 66 8a 3e
       0.24834515 0.37009805 0.28858 0.27031413
0001a0 60 e9 21 3e 56 83 63 3e 5a 8e 8b 3e 74 43 1d 3e
       0.15811682 0.2221807 0.27257043 0.15357763
0001b0 a3 7c 8e 3e 4f 43 a3 3e f1 5d cf bd da 73 8c 3d
       0.27829465 0.3188729 -0.1012534 0.068580344
0001c0 27 79 bc 3e 79 d5 8a 3e 02 9f a5 3e a2 1b a1 3e
       0.36811182 0.27115992 0.32347876 0.31466395
0001d0 f9 89 a1 3e 33 d0 c2 3e c1 35 95 3e 79 35 4b 3e
       0.31550577 0.38049468 0.29142573 0.19844617
0001e0 65 1d 31 3e c4 15 82 3e c0 13 bc 3e ad ee 90 3e
       0.1729637 0.2540723 0.36733818 0.28307095
0001f0 4d 0e b6 3e e8 56 8b 3e 97 1b b1 3e dd f2 91 3e
       0.35557786 0.27214742 0.34591362 0.28505602
000200 a4 40 04 3f 36 f7 87 3e 5e 09 9d 3e 79 1d 9c 3e
       0.51661134 0.26555794 0.3067121 0.30491236
000210 63 07 96 3e 67 0a 9b 3e 82 53 44 bd ae fe be 3e
       0.2930251 0.30281374 -0.0479312 0.3730368
000220 be 8b 82 3e c2 94 aa 3e b3 e6 bb 3e 4f 1f 91 3e
       0.2549724 0.33316618 0.36699447 0.283442
000230 92 5b 66 3e c9 c6 82 3e b1 d4 a1 3e 97 27 da 3e
       0.22495869 0.25542286 0.31607583 0.4260833
000240 74 62 9a 3e d3 ed 9a 3e d1 38 a0 3e 64 94 d8 3e
       0.3015324 0.3025957 0.31293347 0.42300713
000250 d7 a8 b5 3e e3 e3 6a 3e 0d 7b 26 3e 67 9f 61 3e
       0.35480377 0.22938494 0.16257878 0.22033463
000260 14 fd 66 3e 2a 31 81 3e 76 44 15 3e d3 fd 91 3e
       0.22557479 0.25232822 0.14576897 0.28513965
000270 87 1b b2 3e 0d 19 98 3e 9f e2 b6 3e 44 e7 76 3e
       0.34786627 0.29706612 0.35719773 0.24111658
000280 72 7b 7f 3e ba a8 5d 3e 5d ae ba 3e 8f d3 c2 be
       0.24949434 0.21646395 0.36461154 -0.3805203
000290 08 d2 9f 3e 79 a5 85 3e 27 54 95 3e 28 b6 bb 3e
       0.3121493 0.26102808 0.29165766 0.36662412
0002a0 d4 49 c3 3e 09 f8 44 3e 82 65 d9 3e 28 9e 80 3e
       0.38142264 0.19235243 0.42460257 0.25120664
0002b0 8b dd a7 3e f4 26 5e 3e 67 da 32 3e fc 82 81 3e
       0.3278621 0.21694547 0.17466126 0.25295246
0002c0 ef 71 bf 3e 26 da ac 3e 6e 22 a4 3e eb 5b 97 3e
       0.37391612 0.33760184 0.32057518 0.29562315
0002d0 04 3b a3 3e 5a 1d 98 3e 80 92 9b 3e 0a 58 75 3e
       0.31880963 0.29709893 0.30385208 0.23959365
0002e0 6d bf ae 3e 35 9d 9f 3e c0 e0 84 3e 04 b8 a9 3e
       0.3413042 0.31174627 0.2595272 0.33148205
0002f0 0b 65 51 3e 31 18 44 3e 01 51 61 3e 04 c3 2b 3e
       0.20448701 0.19149853 0.22003557 0.16773611
000300 08 bf 9e 3e 55 98 b5 3e 28 f6 8a 3e 5a e0 44 3e
       0.3100512 0.35467783 0.27140927 0.19226208
000310 2c 3f 53 3e ba 54 b0 3e 83 4d 6e 3e 50 b5 9f 3e
       0.20629567 0.3443964 0.23271756 0.31193018
000320 8a 7b be 3e 18 19 ac 3e 6e 5b bc 3e 09 1c 4c 3e
       0.37203628 0.33612895 0.36788505 0.1993257
000330 b8 05 85 3e 70 9b 53 3e 51 c3 a0 3e cd af 07 3e
       0.25980926 0.20664763 0.31399015 0.13250656
000340 90 dd 98 3e 82 ac 5b 3e cd 41 aa 3e 34 e9 73 3e
       0.2985654 0.21452525 0.33253327 0.23819429
000350 33 f0 b2 3e 40 45 95 3e ec a9 9a 3e 60 64 37 3e
       0.34948882 0.29154396 0.30207765 0.17909384
000360 87 76 a9 3e 78 37 69 3e db 4e 88 3e 56 22 43 3e
       0.33098242 0.22775066 0.26622662 0.19056067
000370 66 f9 b8 3e 1c 09 37 3e a7 c8 90 3e 45 eb 23 bd
       0.36127776 0.17874569 0.28278086 -0.040019292
000380 cd 2d 76 3e 0f 8e a0 3e 3f 2a 4e 3e 62 06 9c 3e
       0.24040909 0.31358382 0.20133303 0.3047362
000390 e3 41 9a 3e 2b b5 1c 3e 97 5b c5 3e 12 26 28 3d
       0.30128393 0.15303485 0.3854644 0.04105193
0003a0 22 5b a2 3e 48 6f b6 3e 46 c1 7f 3e bb 15 85 3e
       0.31710154 0.35631776 0.24976072 0.25993142
0003b0 ec 14 a2 3e 25 0f b3 3e 3c 31 ae 3e 71 66 92 3e
       0.31656587 0.34972492 0.34021938 0.28593782
0003c0 64 27 44 3e ea 33 9e 3e 2a f7 90 3e d5 cc 97 3e
       0.19155651 0.30898982 0.2831357 0.29648462
0003d0 aa b1 cd 3e be df ac 3e 8d b6 17 3e 54 ee a2 3e
       0.4017461 0.33764452 0.14815731 0.31822455
0003e0 aa 30 85 3e f4 44 90 3e 6c 4b 8b 3e 5c dc 7d 3e
       0.2601369 0.28177607 0.2720598 0.24791092
0003f0 95 78 75 3e db 00 95 3e 2a b6 9c 3e 0b 50 88 3e
       0.2397178 0.29102215 0.3060773 0.26623568
