A4/dqn.pt (torch, 4855 bytes, 6 tensors)

0.weight f4 [24, 2]
000000 7c 03 8a be 72 8e 1e bf 60 2b 6e be 0d a4 07 c1
       -0.26955783 -0.61936104 -0.23258734 -8.477551
000010 20 e7 df be 1c e0 49 3e d7 aa 94 be ec b4 fb c0
       -0.43731022 0.19714397 -0.2903659 -7.865835
000020 ae d4 81 3e 40 fa 2f 3c 64 a4 66 be c6 14 e7 be
       0.25357574 0.010740817 -0.22523648 -0.45133036
000030 ed 6a 2f be 25 a1 31 c1 2f b9 55 bf 84 98 87 3f
       -0.17130633 -11.101842 -0.8348569 1.0593419
000040 66 5c 69 bf 50 ee 91 c1 ef 99 05 3f ec 43 7d be
       -0.91156614 -18.241364 0.5218801 -0.24732941
000050 36 0b c8 3e 68 72 25 be 00 51 54 3e aa 68 fc 3e
       0.39071053 -0.16156924 0.20734024 0.49298602
000060 7f 04 bf bf ee 8c fb c0 da 14 d7 bf 00 25 44 c0
       -1.4923247 -7.8609533 -1.6803238 -3.0647583
000070 dd 58 ed be 23 88 cc c0 37 ac 0c c0 ac c1 50 c1
       -0.4635686 -6.3916183 -2.1980112 -13.047283
000080 73 60 ab bf b8 8b 1a c1 17 9b 9d bd 35 42 29 c1
       -1.3388809 -9.659111 -0.07695597 -10.578664
000090 a8 57 53 be 40 d6 64 3e 5c 86 cc bc de 1e d5 bf
       -0.20638907 0.22347355 -0.024966411 -1.6650045
0000a0 f6 d3 62 be 00 06 4b bb d1 38 ad bf ed 92 0f c1
       -0.22151169 -0.0030978918 -1.3532964 -8.973371
0000b0 01 d8 12 3f e2 a3 cd 3e 00 79 2e bd f2 87 eb 3e
       0.57360846 0.40164095 -0.042595863 0.46002156

0.bias f4 [24]
000000 a2 a0 d1 3b f3 eb f1 bd 68 2a 0e bf b3 59 e4 3e
       0.0063973228 -0.11812582 -0.55533457 0.44599685
000010 7d 04 2a bf 76 6d bd be 2f 54 95 3e 55 d5 e5 bd
       -0.664131 -0.36997575 0.2916579 -0.112223305
000020 f4 8f b2 be 1d f7 05 bf 70 74 1f bf 85 31 e1 be
       -0.34875453 -0.5233019 -0.62287045 -0.43983093
000030 a6 19 50 3f 5c b9 59 3f 64 47 ba 3e f3 a1 9a 3f
       0.81289136 0.8504846 0.36382592 1.2080673
000040 35 23 b2 3f 43 1b 9c 3e 9c 51 8c be 1d 2a 81 bc
       1.3916994 0.3048955 -0.27406013 -0.015767151
000050 f3 07 90 be eb cd 3b 3f 9b 1b e6 be 2c eb 9b be
       -0.28131065 0.7336108 -0.44942936 -0.3045286

2.weight f4 [24, 24]
000000 dc 9d d2 bd 3b 7d 23 3e c2 e8 1d 3e 82 76 5e be
       -0.102840155 0.1596574 0.15420821 -0.21724895
000010 dc 7d 89 3d a2 ab 01 3e 11 73 06 3e 58 0e 15 3e
       0.06713459 0.12663129 0.13129832 0.14556253
000020 af 33 1b 3e b8 b7 a6 3d 98 de 1b bd f0 86 4e 3c
       0.15156434 0.0814051 -0.03805408 0.012605414
000030 10 c3 03 be 99 b0 de 3d 56 11 1f bf af bf ff 3d
       -0.12867379 0.10873527 -0.6213583 0.124877326
000040 71 7a 11 be 98 5e b3 3d 08 86 d2 bc 56 37 b7 bd
       -0.14206864 0.08758277 -0.025698677 -0.08946101
000050 60 7d e3 3c 9b 53 20 be c8 5c 4c 3d e0 41 b4 bc
       0.027769744 -0.15656893 0.04989317 -0.022004068
000060 62 bd 38 be 87 99 42 be 2c 92 b6 3d 80 13 80 3d
       -0.18040994 -0.19003879 0.08914599 0.06253719
000070 73 ac f5 bd 3c e8 05 3d 60 19 2c 3e 18 2c 33 3e
       -0.11995783 0.03269218 0.16806555 0.17497289
000080 28 60 ae 3d fc e3 05 3e 7a 4b 0d be 4f c5 d3 bd
       0.08514434 0.1307525 -0.13798323 -0.10340368
000090 0a 27 df bd 78 26 9f bc c0 04 23 3e b7 9a 48 be
       -0.10896118 -0.019427523 0.1591978 -0.19590269
0000a0 cb a9 44 be 74 5f 6b bd 22 8f 9a bd 86 09 be bd
       -0.19205396 -0.057464078 -0.07546832 -0.0927916
0000b0 f8 6c df 3c ee 5a 3d 3e 00 48 b8 b8 38 d7 1b 3e
       0.02727364 0.18491718 -8.787215e-05 0.15218818
0000c0 54 fe ec be cc 03 ef be d0 f6 cd bc 10 76 15 3f
       -0.46287787 -0.46682584 -0.025142103 0.58383274
0000d0 5e 6c 8d bd 6a 9b 3c 3e 59 1e 67 3e 64 f8 12 bf
       -0.06905435 0.18418661 0.2257017 -0.57410264
0000e0 1a 8d 11 bf 78 bf 12 3e 68 8b a7 3d d0 2e b9 3c
       -0.5685593 0.14330852 0.081808865 0.02260533
0000f0 92 59 f4 3d 4d 00 ad 3e 85 39 07 3f 40 2d 28 bc
       0.11931147 0.33789292 0.5282214 -0.010264695
000100 fd ef 28 3e 0b 86 4a 3e 43 11 26 be 62 e5 45 bf
       0.16497798 0.19777696 -0.16217522 -0.77303135
000110 06 08 11 3e 89 5b 87 3e 60 88 01 bc 2a 58 b4 bd
       0.14163217 0.26437023 -0.0079060495 -0.088058785
000120 37 49 35 bf e8 c1 12 bf 68 aa 3c 3d 7f b6 51 3f
       -0.7081484 -0.5732713 0.04606095 0.8191909
000130 84 30 73 bd 1a 63 11 3e 45 48 fd 3d 74 32 41 bf
       -0.05937244 0.1419796 0.123673 -0.7546761
000140 59 3c 26 bf 45 3b e0 bd ac fc 25 3e d8 44 85 bc
       -0.64935833 -0.10948805 0.16209668 -0.016268179
000150 14 90 c1 3e 9e 9d 3a bd 88 1f 76 3f 88 0e 69 3d
       0.37805235 -0.04556047 0.9614186 0.056898624
000160 d8 cf c6 3d c7 d9 a2 3e 48 b3 1b 3e a4 92 25 bf
       0.09707612 0.31806776 0.15205109 -0.6467688
000170 3e a5 44 3e 65 16 b9 3e 74 b9 09 3e 52 e7 38 be
       0.1920366 0.36149898 0.13449651 -0.18056992
000180 38 97 0e 3d a0 84 4a bd e0 0b 86 3d f9 54 ef bd
       0.034812182 -0.049442887 0.06545234 -0.11686129
000190 cc 31 d1 3d ef b6 4f be ac f1 0a be f2 6c 33 3e
       0.10214576 -0.20284627 -0.13568753 0.17522028
0001a0 d6 0a 44 3e 60 c2 01 3c ba 98 0d 3e 00 f7 b9 3d
       0.19144759 0.007919878 0.13827792 0.09080315
0001b0 45 fd 2a be e0 3d ef bb 13 20 48 be 88 3f dc 3d
       -0.16698177 -0.0073010772 -0.19543485 0.10754305
0001c0 d6 be 44 be 90 a0 51 3d d0 b1 41 bc 7e ec 30 3e
       -0.19213423 0.051178515 -0.011822179 0.17277715
0001d0 42 29 31 3e 44 91 b7 3d 60 2e 27 bd 64 bd bb bd
       0.17300895 0.08963254 -0.04081571 -0.09166983
0001e0 fd ee f7 bd c0 26 20 bc 38 f4 0a 3e 10 2a 0c 3e
       -0.1210613 -0.009774864 0.13569725 0.1368792
0001f0 5c 80 53 bd 08 5a f2 3d 70 0f 1e 3c 48 98 32 3e
       -0.051636085 0.11833578 0.009647235 0.17440903
000200 d8 37 47 3d 43 2d 3e be ae 2a 21 be fe 4d 50 be
       0.04863724 -0.18571953 -0.15738937 -0.20342252
000210 10 9e e6 bd e4 a0 df 3d 90 32 c5 3d 52 01 22 be
       -0.11260617 0.10919359 0.09628785 -0.15820816
000220 bc 48 18 3d 20 13 08 3c 76 9b 04 be 89 76 16 be
       0.03717874 0.008305341 -0.12949929 -0.14693655
000230 80 ba fd 3c 80 74 9e 3a 0c 3a ac 3d f5 58 2c be
       0.03097272 0.0012089163 0.08409509 -0.1683081
000240 5e be 43 bf 02 9c 2b bf b4 e8 2a 3d 3f ef 87 3f
       -0.7646235 -0.67034924 0.04172583 1.0619887
000250 ef 4d 45 be 1d 96 dd bd c1 e8 a9 3e 61 97 83 bf
       -0.1926801 -0.108196475 0.3318539 -1.0280572
000260 73 c9 7d bf 60 5c f3 bb 68 66 20 bd c6 3a 13 be
       -0.9913551 -0.0074267834 -0.039160162 -0.14377889
000270 02 47 45 3e 76 8b 47 3e ef df 90 3f 40 2b e7 3d
       0.19265369 0.19486794 1.1318339 0.11287546
000280 bd d9 3b be 5a cd f9 3d de b5 87 bd 4e 4d a1 be
       -0.1834478 0.12197371 -0.06626485 -0.3150429
000290 ce 47 a7 bd a7 b8 15 3f 4e 51 38 3e da 55 08 be
       -0.081679925 0.5848488 0.17999765 -0.13314
0002a0 73 42 46 be 62 35 be bd 28 67 e0 3d d0 20 a9 bc
       -0.19361286 -0.09287526 0.109571755 -0.020645529
0002b0 68 59 fe bc d4 02 1b 3e b0 8a e7 3d 80 17 87 3d
       -0.031048492 0.15137798 0.113057494 0.06596279
0002c0 04 94 36 3e c4 d7 f5 3d 4c 9b 14 be 08 ce 48 3d
       0.17829901 0.12004045 -0.14512366 0.04902461
0002d0 d0 69 cb 3d 74 7c 16 be c6 51 28 3e c0 c3 af bc
       0.099322915 -0.14695913 0.16437444 -0.021455646
0002e0 06 6d 00 be 60 5d 21 3d 4c a2 a7 3d 43 e3 bd bd
       -0.12541589 0.03939569 0.081852525 -0.09271862
0002f0 24 32 26 3e 48 11 74 3d 20 d3 9f 3d d9 30 c5 bd
       0.16230065 0.059586793 0.07803941 -0.096284576
000300 34 b7 e4 be 72 9a a1 be 60 5a d1 3b 8d 01 98 3f
       -0.44671023 -0.31563145 0.0063889474 1.1875473
000310 30 ad ac bc 44 f8 d6 3d c4 1d 53 3e 5c 5e 84 bf
       -0.021078676 0.10496572 0.20616823 -1.0341296
000320 3a 79 7e bf a8 32 33 be ac 16 3a 3e e0 91 d5 bd
       -0.9940373 -0.17499793 0.18172711 -0.10428214
000330 63 c6 fd 3d a6 00 23 3e 41 05 6c 3f 10 03 b4 3c
       0.12391355 0.15918216 0.92195517 0.021974117
000340 6a 0c d9 bd 10 26 bc 3e 8c 1a ec 3d 40 b8 af be
       -0.10598071 0.3674779 0.11528501 -0.3432026
000350 50 39 2e bc f8 30 2c 3f 20 3f fb 3b 90 d9 38 3d
       -0.010633782 0.6726222 0.007667437 0.04512936
000360 cc c5 8b 3d 20 a4 11 3d 38 10 e1 3d 27 3f 3b 3f
       0.06824836 0.035556912 0.109894216 0.7314324
000370 89 13 e8 bd 58 9b 49 be e7 2a 35 3e c8 b6 61 bd
       -0.11331851 -0.19688165 0.17692147 -0.055105954
000380 6a e6 08 be 58 4c 26 3d 39 19 2b be d0 da 8f bc
       -0.13369146 0.04060015 -0.1670884 -0.017560393
000390 cf d5 07 c0 17 fc 08 c1 98 04 f7 3e 7c 58 32 3c
       -2.1224248 -8.561545 0.48245692 0.010885354
0003a0 fe 8a b2 3f a5 53 3c 3f 28 f0 c0 3d c6 fc 81 3e
       1.3948667 0.7356513 0.09420806 0.25388163
0003b0 18 e1 af 3d 20 60 73 c0 64 74 a9 3d e4 c1 c2 3d
       0.08587855 -3.802742 0.08274153 0.09509638
0003c0 bc fc 0f bf 00 06 0b bf 90 56 e3 bc 20 18 62 3f
       -0.5624502 -0.5430603 -0.027751237 0.8831806
0003d0 c4 ea b1 3d a8 e6 83 3d 39 75 51 3e af 6c 10 bf
       0.08687356 0.064404786 0.20454873 -0.5641584
0003e0 a8 9b 56 bf 9c 2d ca 3d 00 13 50 3e f0 ec 36 3c
       -0.8383126 0.098719805 0.20319748 0.011164889
0003f0 43 e0 86 3e 2a b0 0f bb f4 09 84 3f 65 21 b0 3e
       0.26342973 -0.002192507 1.0315537 0.34400478

2.bias f4 [24]
000000 ee 2b 1c be 94 9c 4e bd fe 03 90 bc 92 23 f5 bc
       -0.15251133 -0.050442293 -0.017580029 -0.029924188
000010 25 32 30 be c9 74 e9 bd 58 1a 4d bd 4f 34 1d be
       -0.17206629 -0.11399228 -0.05007395 -0.15351985
000020 0c e2 2e bc 83 04 99 3f 95 12 27 be 4e 52 8f be
       -0.010674011 1.1954502 -0.16315682 -0.2799248
000030 19 f8 17 bd d0 53 25 3e e6 de 4b be ad e5 71 be
       -0.03710184 0.16145253 -0.19909248 -0.2362277
000040 e9 d2 8b be 95 ba bd bd 7a 9d d6 3d 0c cf 07 3f
       -0.2730935 -0.09264103 0.10479255 0.53050303
000050 90 84 48 3c db 77 61 be 8f 0b 8a bc 83 e3 fc 3f
       0.012238637 -0.22018377 -0.016851215 1.9756931

4.weight f4 [3, 24]
000000 87 25 7c 3e c1 e5 02 be bc 09 39 c0 8a b2 83 bf
       0.2462369 -0.12782957 -2.8912191 -1.0288861
000010 48 83 e9 bc 68 c3 9b 3d b3 e3 09 bf 63 a0 f3 bd
       -0.028504983 0.0760563 -0.53863066 -0.11895826
000020 a4 d1 b8 bf 15 3e 9c 3e 84 f2 68 bf 0c 5d 96 40
       -1.4438977 0.30516115 -0.9099505 4.6988583
000030 67 38 99 bd 0c 25 ac c0 d4 23 2a bd 85 f6 ef be
       -0.07481461 -5.3795223 -0.041538075 -0.46867767
000040 89 fa 6b be 87 15 4e 3e eb 53 81 c0 97 34 02 c1
       -0.2304479 0.201254 -4.041494 -8.137839
000050 5a 95 11 bf 4f 39 ca be a3 b6 05 c0 db 89 88 3e
       -0.5686852 -0.39496848 -2.0892723 0.26667675
000060 53 0f a3 3e f1 2e d9 bd 46 a7 18 c0 91 10 d2 bf
       0.3184763 -0.106046565 -2.3852096 -1.6411306
000070 d0 1d 10 bd 0f d9 07 be b0 b1 a5 bf 50 e7 19 bc
       -0.03518468 -0.13266395 -1.2944851 -0.009393528
000080 14 ab e4 bf e4 92 e6 3d 0f fd 90 bf ab 69 09 41
       -1.7864709 0.11258486 -1.1327227 8.588298
000090 5e 4d f7 be 2e 62 43 c0 cc ea 29 3e 67 32 26 bf
       -0.48301214 -3.0528674 0.16593474 -0.6492066
0000a0 bc ae 0b bf c7 8b 98 3e b6 88 2b c0 b6 f3 73 c0
       -0.545635 0.29794142 -2.6802192 -3.81175
0000b0 dd 34 43 bf 3b 69 66 bf 99 7f 1c c0 cb 7a 97 3e
       -0.7625254 -0.9000432 -2.445288 0.2958587
0000c0 fb 0b 81 3e c2 51 2f 3e fe 1a 30 c0 08 f1 d9 bf
       0.25204453 0.17121032 -2.7516475 -1.7026682
0000d0 c4 0c 48 be f8 ca 31 3e 3f 58 75 bf 6c 12 02 bd
       -0.1953612 0.17362583 -0.9583778 -0.03175585
0000e0 f3 c4 db bf 63 c4 6f 3f a1 e4 a4 bf f7 c2 25 41
       -1.7169479 0.9365904 -1.2882272 10.360099
0000f0 8b 2f 3b bf ab a3 33 c0 8c 6c d8 3d 72 20 67 bf
       -0.7311942 -2.8068645 0.10567579 -0.9028388
000100 52 1d 28 bf 44 d1 28 3e 8d cb 49 c0 5c 76 40 c0
       -0.6566974 0.16486079 -3.1530488 -3.007224
000110 fb 83 7a bf 84 a0 75 bf d7 a1 13 c0 0a 24 c3 3f
       -0.97857636 -0.9594805 -2.306753 1.5245373

4.bias f4 [3]
000000 96 b2 45 c0 9f 2c 7d c0 16 bf 24 c0
       -3.089025 -3.9558485 -2.574163
