A4/dqn.pt (torch, 20417 bytes, 6 tensors)

0.weight f4 [64, 2]
-0.31369916 -2.9995303 -0.59117305 -3.7375576 -0.34238067 0.6630059 -0.18153456 0.09354923
-0.81423366 -3.3441014 -0.76434076 -3.7932084 0.3328281 -0.37422347 -0.099633954 -4.091371
-0.8479821 -3.8083987 -0.39456847 -2.7194574 0.49387458 -0.09600116 -0.46319833 0.4863558
-0.69360334 -3.0156975 0.13424732 -0.4078816 0.2092782 -3.1982124 -0.088677764 -3.1964736
-0.18703365 -3.234118 -0.8472074 -8.449678 -0.8588188 -3.7659123 -0.79993796 -5.20421
0.8951388 5.554294 -0.32398066 -4.1016617 0.3998078 -3.9010282 -0.1753067 -3.3220892
0.28777975 -3.1172245 -0.32896128 0.6562628 -0.89443314 -3.8642218 0.5272446 -0.38435292
0.67764205 0.11765402 -0.7737898 -3.0164177 -0.19954012 0.63729423 0.44547296 0.12684743
0.4624008 6.616111 0.34007508 0.5253174 0.072427586 0.504578 0.4894554 -0.55692524
0.35313338 6.504536 0.5101238 -0.04275022 -0.56715953 -3.3354385 -0.2352563 -3.245824
-0.49932122 -6.3952084 -0.92772925 -4.144601 -0.21162328 -3.6853652 -0.05853992 -2.5714283
-0.5184471 -3.9117777 0.02384753 0.020584099 -0.57347685 -3.3741786 0.40606213 5.005485
-0.46066666 -0.1451223 0.18725541 -0.4474955 -0.124165 -2.6448448 0.35179114 0.52660465
-0.11722918 -0.55636704 0.92567664 4.5465765 -0.80609727 -8.0808935 0.13444954 -0.45951167
0.5854561 -0.35332924 -0.7564699 -3.561088 0.065952286 -2.9956622 -0.21133305 -3.1449358
0.46783507 -4.660345 -0.69670737 -2.7217405 0.19791925 -2.709148 0.32628074 -0.1564126
00000000: 2d9d a0be 4ef8 3fc0 1e57 17bf 2534 6fc0
00000010: 854c afbe c1ba 293f 32e4 39be bd96 bf3d
00000020: 9e71 50bf c205 56c0 d6ab 43bf edc3 72c0
00000030: 7268 aa3e 389a bfbe e30c ccbd 83ec 82c0
00000040: 5b15 59bf cebc 73c0 e104 cabe 970b 2ec0
00000050: 21dd fc3e 429c c4bd 5528 edbe a103 f93e
00000060: fd8f 31bf 3001 41c0 2178 093e dbd5 d0be
00000070: 064d 563e 83af 4cc0 b09c b5bd 0693 4cc0
00000080: c085 3fbe cafb 4ec0 96e2 58bf e231 07c1
00000090: 8ddb 5bbf b504 71c0 bcc8 4cbf e388 a6c0
000000a0: d127 653f c7bc b140 cbe0 a5be d040 83c0
000000b0: 9cb3 cc3e 72aa 79c0 9983 33be 1c9d 54c0
000000c0: de57 933e 9b80 47c0 9d6d a8be d700 283f
000000d0: 92f9 64bf 694f 77c0 81f9 063f e8c9 c4be
000000e0: f379 2d3f 97f4 f03d 1717 46bf fd0c 41c0
000000f0: 3f54 4cbe b725 233f 0815 e43e 4be4 013e
00000100: ccbf ec3e 2eb7 d340 521e ae3e 337b 063f
00000110: ea54 943d 062c 013f e699 fa3e a792 0ebf
00000120: e6cd b43e 2925 d040 7997 023f db1a 2fbd
00000130: 5e31 11bf d377 55c0 07e7 70be 95bb 4fc0
00000140: 08a7 ffbe 8ca5 ccc0 aa7f 6dbf 92a0 84c0
00000150: c6b3 58be 06dd 6bc0 8ec7 6fbd 4892 24c0
00000160: f3b8 04bf 915a 7ac0 e55b c33c fc9f a83c
00000170: 61cf 12bf 8bf2 57c0 60e7 cf3e ef2c a040
00000180: 80dc ebbe f19a 14be e2bf 3f3e 211e e5be
00000190: 384a febd 2345 29c0 f81d b43e 90cf 063f
000001a0: da15 f0bd 126e 0ebf 25f9 6c3f 8e7d 9140
000001b0: 645c 4ebf 574b 01c1 24ad 093e 1d45 ebbe
000001c0: 73e0 153f 92e7 b4be 03a8 41bf dee8 63c0
000001d0: fe11 873d eeb8 3fc0 b167 58be a146 49c0
000001e0: 1488 ef3e 8c21 95c0 6a5b 32bf ff30 2ec0
000001f0: 58ab 4a3e ae62 2dc0 450e a73e a02a 20be

0.bias f4 [64]
0.80165815 0.22816427 -0.56100035 -0.51864076 0.45495686 0.14654315 -0.25384936 0.104570486
0.6741119 0.32290202 -0.436624 -0.61558205 0.7132631 -0.5336644 0.6255792 0.4957951
0.35389897 -0.46951208 0.9848159 -0.23782106 0.11121105 0.7366944 0.6864297 0.78208166
0.80495346 -0.41424063 0.64361614 -0.14309336 -0.68469524 0.3487933 -0.3768868 -0.4738731
0.26185519 -0.29203802 -0.5398342 -0.48095876 0.20263025 -0.57551926 0.47777596 0.5740511
-0.2720421 0.3757052 0.7602848 0.7188604 1.0196172 -0.37147886 0.4412711 0.24335663
-0.6329424 -0.27528754 0.75737613 -0.17861961 -0.540289 0.236099 -0.44706088 -0.42799154
-0.43923455 0.7284464 0.48218364 0.4697115 0.35837305 0.30744696 0.85523355 -0.2217102
00000000: 7839 4d3f e5a3 693e b89d 0fbf a4c5 04bf
00000010: 1bf0 e83e 680f 163e 8bf8 81be 0d29 d63d
00000020: 9992 2c3f 6a53 a53e 2e8d dfbe c996 1dbf
00000030: 6998 363f 3b9e 08bf f525 203f dbd8 fd3e
00000040: 3f32 b53e e363 f0be e51c 7c3f 5d87 73be
00000050: 9ec2 e33d 0198 3c3f dbb9 2f3f 8136 483f
00000060: 6e11 4e3f 5917 d4be 07c4 243f 1187 12be
00000070: 3048 2fbf 0995 b23e 4ff7 c0be 7f9f f2be
00000080: e211 863e 0286 95be 9332 0abf 3a40 f6be
00000090: 4e7e 4f3e 3b55 13bf 0d9f f43e 03f5 123f
000000a0: 1a49 8bbe 6f5c c03e 06a2 423f 3c07 383f
000000b0: d182 823f 7a32 bebe 49ee e13e 7b32 793e
000000c0: 8308 22bf 7df2 8cbe 67e3 413f 0fe8 36be
000000d0: 6150 0abf f0c3 713e 2ae5 e4be b521 dbbe
000000e0: 5ae3 e0be 777b 3a3f c6e0 f63e 077e f03e
000000f0: ac7c b73e b069 9d3e 96f0 5a3f 0008 63be

2.weight f4 [64, 64]
0.3516393 0.22549123 -0.05762382 -0.003934711 0.3087157 0.25201786 -0.08160034 0.13503128
0.3732363 0.36937386 -0.1136571 -0.009549439 0.31032473 0.002121225 0.26358894 0.22611573
0.18067949 -0.797169 0.35920757 -1.2738537 0.79549384 0.35037765 0.23270522 0.310643
0.3485638 -0.12020169 0.20185778 -0.06363347 -0.053139076 0.28199637 0.114304215 0.016857162
1.4233887 -0.049154207 0.0966582 -0.060793802 1.1373028 0.10081892 0.3949219 0.23798518
-0.6701549 0.3379798 0.19413331 0.22353414 0.37781367 -0.07274777 0.20373005 1.8721085
0.084062204 0.021106496 0.31476095 -0.06448448 -0.111768275 0.9103332 -0.78661305 -0.07936618
0.011398599 0.22301959 0.23705515 0.32260773 0.58490413 0.23594551 0.21927275 0.07058664
0.32043833 0.19187799 -0.048976302 -0.037658677 0.312065 0.31853646 0.06971288 0.010051974
0.41214153 0.18656339 0.09301242 -0.013861477 0.24604014 5.941093e-05 0.2896956 0.333937
0.24465063 -0.71231335 0.2395166 -1.437379 0.8360631 0.26256722 0.26018026 0.41829443
0.39585802 0.021906435 0.36374086 -0.031497944 -0.122964576 0.38715383 0.052393243 0.0779205
1.3851913 -0.02569677 0.089175865 0.078665614 1.066684 -0.10192801 0.35515144 0.2733495
-0.70856565 0.40430424 0.380091 0.31285462 0.29841727 -0.018272087 0.41083208 1.9432901
0.056737125 -0.11011894 0.20246942 0.09114914 -0.032993525 0.72159106 -0.60948515 -0.052850574
0.035175025 0.29842773 0.3529431 0.22519158 0.6681218 0.38522822 0.34173313 0.124894276
0.025958493 -0.034864694 -0.028319538 0.091934785 0.01835528 -0.054535642 -0.060592905 0.066922486
0.12008642 0.03447987 0.011037424 0.014132202 -0.04872106 0.014552429 -0.020435438 -0.11256434
-0.10304263 0.097039 -0.06506775 -0.07684046 9.49651e-05 0.042809546 -0.061262906 -0.09703492
-0.10589251 0.09097785 -0.09520045 0.10992615 -0.026884198 -0.11146243 -0.053392023 0.048453793
-0.01914619 0.03176652 0.03718938 -0.09541562 0.07892996 0.017388746 0.012641236 -0.013432488
-0.08759992 0.006783113 -0.077003 -0.10566738 0.07250476 0.0010215342 -0.0005313754 -0.09434377
-0.0053174943 -0.11246261 0.10894267 0.10226087 0.07900871 -0.010024428 -0.119092196 0.082301706
0.09520589 0.039986268 0.010858998 -0.016292185 0.061208308 -0.014455453 -0.05875343 -0.0025256723
0.19537494 0.25668687 -0.042877346 -0.012606546 0.42623588 0.21022452 -0.06996007 0.21540222
0.37034228 0.3623403 -0.0876258 0.011178359 0.39278403 0.019402906 0.42630586 0.40103573
0.35065117 -0.695695 0.26394546 -1.3818579 0.69325495 0.20393468 0.39330962 0.32512733
0.44272363 0.105478436 0.34704313 -0.06815505 -0.083281666 0.28986463 -0.051516324 -0.12369749
1.4588856 -0.009039655 -0.0759805 -0.009371817 1.3309847 -0.028915405 0.3000244 0.39033744
-0.6415433 0.4011181 0.26986682 0.41507274 0.36487925 -0.12329136 0.28980237 1.9991955
-0.09065513 -0.019224808 0.43484077 -0.00022147596 0.09776643 0.8781436 -0.64906794 -0.078789115
-0.07272236 0.28751418 0.3663382 0.37003672 0.73128057 0.24507414 0.3846845 -0.0036582798
00000000: 110a b43e 2ce7 663e f406 6cbd c0ee 80bb
00000010: fc0f 9e3e 7c08 813e 141e a7bd a445 0a3e
00000020: d418 bf3e 921e bd3e 0ec5 e8bd 4075 1cbc
00000030: e2e2 9e3e 4004 0b3b 21f5 863e e28a 673e
00000040: 0b04 393e 4513 4cbf 0eea b73e a30d a3bf
00000050: 7ca5 4b3f b364 b33e 474a 6e3e 990c 9f3e
00000060: f476 b23e 4e2c f6bd ceb3 4e3e 4452 82bd
00000070: 5ca8 59bd d461 903e 5418 ea3d 0818 8a3c
00000080: 9a31 b63f ec55 49bd bcf4 c53d ec02 79bd
00000090: 2393 913f 267a ce3d 3433 ca3e 63b2 733e
000000a0: 468f 2bbf b00b ad3e e2ca 463e 22e6 643e
000000b0: cb70 c13e c8fc 94bd 9c9e 503e 40a1 ef3f
000000c0: ce28 ac3d 88e7 ac3c 5928 a13e 7010 84bd
000000d0: c4e6 e4bd 990b 693f 795f 49bf bc8a a2bd
000000e0: 30c1 3a3c 3f5f 643e 96be 723e d72c a53e
000000f0: 47bc 153f b39b 713e 0989 603e ba8f 903d
00000100: 7e10 a43e aa7b 443e 609b 48bd fc3f 1abd
00000110: fcc6 9f3e 3617 a33e a0c5 8e3d 09b1 243c
00000120: 3704 d33e 790a 3f3e 4c7d be3d 401b 63bc
00000130: f2f1 7b3e 0030 7938 fb52 943e caf9 aa3e
00000140: b285 7a3e 2b5a 36bf d743 753e 09fc b7bf
00000150: 3b08 563f 366f 863e 5936 853e b02a d63e
00000160: e7ad ca3e 2075 b33c 3e3c ba3e fd03 01bd
00000170: dad4 fbbd 0739 c63e 4c9a 563d c894 9f3d
00000180: f34d b13f 0882 d2bc d6a1 b63d 701b a13d
00000190: 1a89 883f a2bf d0bd 69d6 b53e 77f4 8b3e
000001a0: 8f64 35bf f700 cf3e 4a9b c23e 7b2e a03e
000001b0: 26ca 983e 58af 95bc 9558 d23e bbbd f83f
000001c0: 3065 683d 0a86 e1bd 2554 4f3e 66ac ba3d
000001d0: 3824 07bd 31ba 383f 3807 1cbf d879 58bd
000001e0: b013 103d 85cb 983e f5b4 b43e 9f98 663e
000001f0: 080a 2b3f a23c c53e a5f7 ae3e 92c8 ff3d
00000200: e8a6 d43c 48ce 0ebd 60fe e7bc 4e48 bc3d
00000210: d05d 963c c460 5fbd 4430 78bd a80e 893d
00000220: deef f53d c43a 0d3d 50d6 343c c08a 673c
00000230: bc8f 47bd 506d 6e3c 3868 a7bc 2288 e6bd
00000240: 0408 d3bd 62bc c63d 3e42 85bd 885e 9dbd
00000250: 0028 c738 1059 2f3d d0ee 7abd 3eba c6bd
00000260: 2cde d8bd 9852 ba3d 74f8 c2bd f620 e13d
00000270: 403c dcbc 6a46 e4bd 98b1 5abd 7c77 463d
00000280: 78d8 9cbc 9c1d 023d e453 183d 4469 c3bd
00000290: 08a6 a13d d872 8e3c 301d 4f3c f013 5cbc
000002a0: 9667 b3bd e044 de3b c0b3 9dbd 2468 d8bd
000002b0: 607d 943d 00e5 853a 004c 0bba 4e37 c1bd
000002c0: 603e aebb cc52 e6bd 561d df3d 266e d13d
000002d0: 52cf a13d 803d 24bc 9ce6 f3bd cc8d a83d
000002e0: 4efb c23d a4c8 233d f0e9 313c 3077 85bc
000002f0: 90b5 7a3d 90d6 6cbc 70a7 70bd c085 25bb
00000300: 5e10 483e 766c 833e 28a0 2fbd b08b 4ebc
00000310: 973b da3e 1945 573e 3a47 8fbd 6692 5c3e
00000320: 819d bd3e ab84 b93e 2875 b3bd 7025 373c
00000330: fd1a c93e d8f2 9e3c c344 da3e 8e54 cd3e
00000340: 8d88 b33e 1119 32bf dc23 873e b8e0 b0bf
00000350: 2879 313f 41d4 503e e15f c93e 1777 a63e
00000360: acac e23e 1405 d83d a3af b13e e094 8bbd
00000370: 948f aabd 2369 943e c802 53bd 1c55 fdbd
00000380: c3bc ba3f 101b 14bc aa9b 9bbd 408c 19bc
00000390: b55d aa3f 00e0 ecbc cc9c 993e 4fda c73e
000003a0: 2f3c 24bf 5a5f cd3e fc2b 8a3e 6a84 d43e
000003b0: 74d1 ba3e 2e80 fcbd fa60 943e a3e5 ff3f
000003c0: 66a9 b9bd 587d 9dbc 73a3 de3e 003c 68b9
000003d0: c439 c83d 05ce 603f 5129 26bf 305c a1bd
000003e0: 76ef 94bd 0f35 933e ae90 bb3e 7475 bd3e
000003f0: 3435 3b3f b7f4 7a3e 5ef5 c43e c0bf 6fbb

2.bias f4 [64]
0.36009914 0.2874697 -0.07723166 0.29844436 0.0727019 0.2487082 -0.04169348 0.36817124
0.007952422 -0.048267126 0.32435593 -0.073998444 -0.10772133 0.33510205 0.34191757 -0.015427145
0.40441245 -0.050769433 -0.10526362 -0.096381724 0.09037211 0.29751614 0.015866105 0.4008023
-0.023235098 -0.09617785 -0.03967633 -0.03499633 0.37184975 -0.09517054 0.35041708 0.05723007
0.07007289 0.29895943 -0.0028359073 0.31728208 0.11668439 0.32068104 -0.03886339 0.29611984
0.318258 0.283741 0.29455304 0.422194 -0.02043017 -0.11381408 0.043743018 0.016924761
-0.061059125 -0.05569933 0.3538361 0.08491799 -0.07116021 -0.060109988 0.36917642 -0.07480474
0.015247934 -0.07966551 -0.028692937 -0.05953738 0.043638516 0.1260113 0.025004432 0.34449363
00000000: ea5e b83e 3b2f 933e a22b 9ebd b3cd 983e
00000010: bce4 943d 5dad 7e3e c8c6 2abd f180 bc3e
00000020: e04a 023c c0b3 45bd fb11 a63e 7f8c 97bd
00000030: 009d dcbd 7f92 ab3e d20f af3e 23c2 7cbc
00000040: 260f cf3e 9cf3 4fbd 7494 d7bd c863 c5bd
00000050: 0315 b93d 0954 983e a2f9 813c f635 cd3e
00000060: 8857 bebc e5f8 c4bd a683 22bd 5058 0fbd
00000070: 1763 be3e c6e8 c2bd de69 b33e 146a 6a3d
00000080: 6082 8f3d 3611 993e a1da 39bb cc72 a23e
00000090: 3af8 ee3d 4e30 a43e 382f 1fbd 059d 973e
000000a0: b6f2 a23e 8046 913e a8cf 963e d029 d83e
000000b0: 2c5d a7bc 5b17 e9bd e12b 333d cca5 8a3c
000000c0: 2219 7abd fb24 64bd 012a b53e 7ce9 ad3d
000000d0: 72bc 91bd e435 76bd b104 bd3e 3a33 99bd
000000e0: 78d2 793c ac27 a3bd 730d ebbc 78dd 73bd
000000f0: 4dbe 323d 1b09 013e 18d6 cc3c 7861 b03e

4.weight f4 [3, 64]
-0.2726205 -0.25921252 0.11588019 -0.3439733 -0.030910527 -0.33385006 0.07671152 -0.30753964
0.096675485 -0.028547347 -0.03229831 0.02120984 -0.1067721 -0.28682873 -0.20590127 -0.21906169
-0.31546643 -0.0655608 0.060175404 -0.08018342 -0.118336216 -0.38429007 -0.10257224 -0.34511745
0.097635 0.035507455 -0.44337323 -0.042855278 -0.42818218 -0.07755367 -0.4410803 -0.09062655
-0.08851236 -0.3991048 0.064045995 -0.26548856 0.07003038 0.056980602 0.11812624 -0.3552306
-0.40101522 -0.21524534 -0.23318966 -0.44187018 -0.08912288 0.39514083 -0.22758263 -0.10159071
-0.116850525 0.09691428 -0.44048235 0.046354756 0.06448306 0.014960036 -0.3128616 -0.01585573
0.3698153 -0.046418115 -0.5023854 0.07470997 0.022273619 -0.26930776 0.10881977 -0.34097597
-0.3243457 -0.3728451 -0.089107394 -0.3465755 0.027258176 -0.39505336 0.020193204 -0.406392
-0.03444633 0.069285095 -0.072689205 -0.10069962 0.028665453 -0.35475767 -0.30855167 -0.0826287
-0.33685166 -0.10920958 0.064585626 0.028005809 0.008160353 -0.35386616 0.01509413 -0.25245628
0.02820228 0.043758318 -0.22663863 0.053216115 -0.24930914 0.042520102 -0.22972187 -0.119532794
-0.10461508 -0.33275154 -0.0941774 -0.42514423 -0.04824829 0.10950012 -0.118758366 -0.38803235
-0.3761365 -0.4192695 -0.21486859 -0.38219568 0.030174065 0.592423 0.03454158 -0.06208674
0.102561235 -0.019968152 -0.41708854 -0.014833406 -0.07359727 -0.051437646 -0.32242817 0.07256068
0.49884284 0.115878254 -0.48099458 0.10190852 0.013407266 -0.18362775 0.06987028 -0.31192705
-0.30681348 -0.3503516 -0.049461707 -0.31290993 0.08455696 -0.4074243 -0.00124152 -0.43133727
0.12302117 0.08217344 0.09516561 0.03604945 -0.032636028 -0.27746588 -0.38125283 0.35039222
-0.35141984 0.08926427 0.023097351 -0.022856593 0.09551668 -0.34187543 0.0726714 -0.41802576
-0.08002131 0.11683382 -0.13721 0.025423959 -0.23147503 -0.10674401 -0.22855744 -0.03647688
0.0067138523 -0.4262239 0.09843459 -0.2732991 -0.031268492 -0.084860444 -0.037714586 -0.2589219
-0.31929106 -0.27210343 -0.3562965 -0.41827148 0.08968935 0.33414972 0.13382283 -0.004871067
0.042142455 0.032503434 -0.26278505 -0.0559576 0.022623083 -0.05337228 -0.38975605 0.07586184
0.4750364 0.020095319 -0.5295977 -0.08932458 -0.12008395 -0.30474254 -0.03130573 -0.3955486
00000000: ea94 8bbe 81b7 84be 9852 ed3d 451d b0be
00000010: 1338 fdbc 65ee aabe ee1a 9d3d d675 9dbe
00000020: ccfd c53d 20dc e9bc 3c4b 04bd 42c0 ad3c
00000030: 55ab dabd 37db 92be c8d7 52be b551 60be
00000040: d184 a1be be44 86bd 7c7a 763d 3437 a4bd
00000050: 425a f2bd abc1 c4be 6511 d2bd 3cb3 b0be
00000060: dcf4 c73d 4470 113d d101 e3be 0489 2fbd
00000070: b23a dbbe 75d4 9ebd 47d5 e1be 6a9a b9bd
00000080: f845 b5bd 7757 ccbe 8c2a 833d 1eee 87be
00000090: 166c 8f3d 7e64 693d 2cec f13d c9e0 b5be
000000a0: de51 cdbe 4669 5cbe 45c9 6ebe cf3c e2be
000000b0: 0e86 b6bd e64f ca3e 6c0b 69be ca0e d0bd
000000c0: 544f efbd fe7a c63d e786 e1be 7cde 3d3d
000000d0: b20f 843d f01a 753c 652f a0be e0e3 81bc
000000e0: 6e58 bd3e ec20 3ebd 549c 00bf 8a01 993d
000000f0: 2a77 b63c b5e2 89be e6dc de3d 6794 aebe
00000100: a410 a6be 8ee5 bebe f07d b6bd 5872 b1be
00000110: 8a4c df3c 6f44 cabe 386c a53c 9d12 d0be
00000120: 9817 0dbd 58e5 8d3d 14de 94bd 9a3b cebd
00000130: d0d3 ea3c cca2 b5be 7cfa 9dbe 3c39 a9bd
00000140: d277 acbe 46a9 dfbd 7845 843d 706c e53c
00000150: 00b3 053c f22d b5be 5f4d 773c f341 81be
00000160: 7808 e73c ec3b 333d f513 68be 24f9 593d
00000170: e54a 7fbe 8f29 2e3d 363c 6bbe 9ccd f4bd
00000180: 6e40 d6bd 695e aabe 15e0 c0bd 81ac d9be
00000190: 00a0 45bd 9941 e03d 9637 f3bd 2dac c6be
000001a0: f794 c0be 7eaa d6be 8306 5cbe 27af c3be
000001b0: 9a2f f73c 09a9 173f 797b 0d3d aa4e 7ebd
000001c0: a00b d23d 4094 a3bc a18c d5be d007 73bc
000001d0: 2aba 96bd 48b0 52bd 4e15 a5be b29a 943d
000001e0: 5468 ff3e 9451 ed3d ec44 f6be 6ab5 d03d
000001f0: 26aa 5b3c ea08 3cbe 2618 8f3d e7b4 9fbe
00000200: a816 9dbe 4961 b3be 5c98 4abd bb35 a0be
00000210: 332c ad3d eb99 d0be 80ba a2ba 3dd8 dcbe
00000220: 86f2 fb3d 8c4a a83d 30e6 c23d 97a8 133d
00000230: 5bad 05bd 0210 8ebe 9233 c3be 9c66 b33e
00000240: 4ded b3be 30d0 b63d a836 bd3c c03d bbbc
00000250: 409e c33d 4c0a afbe bed4 943d 7907 d6be
00000260: 36e2 a3bd 9246 ef3d c780 0cbe e845 d03c
00000270: ca07 6dbe 9a9c dabd f60a 6abe c868 15bd
00000280: e0ff db3b 053a dabe 1398 c93d dced 8bbe
00000290: 6413 00bd 50cb adbd 9c7a 1abd 6991 84be
000002a0: 1e7a a3be 2451 8bbe 7f6c b6be ae27 d6be
000002b0: 0daf b73d ac15 ab3e da08 093e 799d 9fbb
000002c0: 919d 2c3d 5222 053d c38b 86be cc33 65bd
000002d0: 0b54 b93c e49c 5abd 1b8e c7be 745d 9b3d
000002e0: f937 f33e f09e a43c b793 07bf ceef b6bd
000002f0: 93ee f5bd 3707 9cbe 703a 00bd 5985 cabe

4.bias f4 [3]
-0.4670331 -0.36428705 -0.2525284
00000000: f61e efbe d583 babe 674b 81be
