A5/modelset/ddpg/ddpg_critic.pt (torch, 139521 bytes, 5 tensors)

net.0.weight f4 [256, 4]
0.61302173 -1.804732 -0.3785697 -0.06203818 -0.8871659 1.2752556 0.43547648 0.03133468
0.74702066 2.4478579 0.544686 0.09084362 1.6839719 0.18416208 -0.4380526 -0.07560491
-0.14754207 -0.9520225 -0.07222926 0.14613011 0.62198424 -0.15476388 0.61346805 -0.10329277
-1.0185156 -0.7307211 -0.22681388 -0.027116677 -0.116485395 -1.1607499 0.061783135 0.10301136
1.1517216 0.763137 0.21840507 0.53114605 1.1025364 -0.15566736 -0.19078311 0.08892922
-1.3044649 0.16574894 0.54631716 0.043646824 1.1455269 0.07143779 -0.1807721 -0.23755689
0.7668771 -2.6040246 -0.5801859 -0.109549955 -0.468583 -0.9935065 -0.24467154 -0.036089733
0.6388672 0.37812594 0.14433038 0.098165646 1.2826148 0.04754914 -0.1817264 0.05944053
-0.7259263 0.73178506 0.37677348 0.07272784 0.39033464 0.5592139 -0.19174685 0.048510518
-0.43393037 -1.6892682 -0.4303123 -0.053706188 -0.66804904 -0.6696152 -0.21037726 -0.04100226
0.9005599 1.6121273 0.40562922 0.043753356 1.21957 0.8676047 -0.20479642 -0.38807043
-0.27526557 1.5188673 0.19367681 0.077767156 0.6083145 0.4734381 -0.5733469 -0.0385649
-0.6693346 -0.14045222 -0.2950206 0.09699325 0.13498825 0.95800334 -0.3647194 0.24855456
1.0683035 1.6216928 0.47202134 -0.004440359 -0.5362931 0.7691996 0.23082238 0.04314328
0.7825453 -0.2900554 -0.2601641 0.037534017 -0.4602424 -0.79167265 -0.2562651 -0.26213053
-0.63295984 0.68262976 0.30694973 0.010353935 -0.05687694 -2.4071548 -0.48882127 -0.076318175
0.99999154 1.3304776 -0.13405533 -0.039831437 -0.075104415 0.58688194 0.15494698 0.024515139
-1.018121 1.0252907 0.39368588 0.011669059 0.5280238 -0.45558852 -0.22233751 0.005069487
-0.06984318 0.3693228 -0.043954376 -0.45380676 0.46142408 1.672232 0.43082955 0.27066916
1.1769277 -0.13384935 0.39687765 -0.08340376 -1.1993179 2.2721336 0.6036421 0.077170156
-0.24316542 -1.5996481 -0.36404833 -0.049142584 0.8049928 -1.3061136 -0.26559854 -0.3433046
-0.8648235 0.010406433 0.22877778 0.030783432 -0.081102915 0.26407015 -0.24067539 -0.12747082
0.60579884 0.16503057 0.2727563 -0.31202164 -0.13894914 -2.1181722 -0.3699452 -0.05947993
1.2448682 0.31016737 -0.34985524 0.30772015 0.55922604 -0.0020775874 -0.05387865 -0.018419867
1.2172512 -0.4922167 -0.009679544 0.056451485 -0.73927623 -1.7390648 -0.45275334 -0.066493616
0.62972915 -1.4598308 -0.5549889 -0.09114563 0.2921552 1.7320242 0.33257335 0.049182296
0.93236905 0.82630295 -0.2262338 -0.17736402 0.5730497 -2.9283626 -0.67918134 -0.11063215
0.34587607 -0.54098564 -0.019149158 0.053959616 1.4127555 0.60783666 0.13740134 -0.03741106
-0.48123458 0.765457 0.1944483 0.045359865 -0.23635687 -0.8889326 -0.2432818 -0.06824862
-0.43294582 -1.3097084 -0.30710426 -0.052371364 0.67238724 -2.673319 -0.597868 -0.0943191
0.29261938 -0.7888979 0.11665297 -0.23296876 -0.94490546 -0.77067894 -0.36290964 0.026400175
-0.9177418 1.1864893 0.3870654 0.03376222 1.429573 0.7582739 0.11504053 -0.08592895
00000000: feee 1c3f 7501 e7bf e3d3 c1be bf1b 7ebd
00000010: 4e1d 63bf 933b a33f c6f6 de3e cb58 003d
00000020: bf3c 3f3f b4a9 1c40 8b70 0b3f 380c ba3d
00000030: 648c d73f fc94 3c3e 6e48 e0be bfd6 9abd
00000040: 4515 17be bfb7 73bf efec 93bd 22a3 153e
00000050: 5c3a 1f3f 6c7a 1ebe 3e0c 1d3f 298b d3bd
00000060: b85e 82bf 8a10 3bbf e641 68be cb23 debc
00000070: e58f eebd 7493 94bf 5010 7d3d 9ff7 d23d
00000080: 9d6b 933f f25c 433f 94a5 5f3e 30f9 073f
00000090: ea1f 8d3f 4467 1fbe a65c 43be 8620 b63d
000000a0: b5f8 a6bf 17ba 293e 71db 0b3f 03c7 323d
000000b0: a0a0 923f fa4d 923d 521c 39be 1d42 73be
000000c0: 0f52 443f 57a8 26c0 1087 14bf ba5b e0bd
000000d0: 1cea efbe 7156 7ebf 2d8b 7abe d4d2 13bd
000000e0: cd8c 233f b999 c13e 58cb 133e 120b c93d
000000f0: b92c a43f e3c2 423d 7c16 3abe ea77 733d
00000100: 4ed6 39bf 4456 3b3f 74e8 c03e 55f2 943d
00000110: f1d9 c73e a428 0f3f 4959 44be f7b2 463d
00000120: 1f2c debe f139 d8bf e551 dcbe 05fb 5bbd
00000130: 4305 2bbf e76b 2bbf 236d 57be fcf1 27bd
00000140: 188b 663f 305a ce3f a2ae cf3e b836 333d
00000150: df1a 9c3f 571b 5e3f 27b6 51be 2bb1 c6be
00000160: 9cef 8cbe 3e6a c23f 3753 463e 6344 9f3d
00000170: 80ba 1b3f 7b66 f23e ddc6 12bf 3bf6 1dbd
00000180: 8359 2bbf b5d2 0fbe f10c 97be 66a4 c63d
00000190: 5c3a 0a3e b53f 753f 80bc babe 1685 7e3e
000001a0: 2bbe 883f a193 cf3f c8ac f13e 6e80 91bb
000001b0: 814a 09bf 44ea 443f b45c 6c3e 02b7 303d
000001c0: e454 483f 2482 94be 3b34 85be 45bd 193d
000001d0: e4a4 ebbe 0fab 4abf 2e35 83be f935 86be
000001e0: a809 22bf d3c0 2e3f 8428 9d3e 8da3 293c
000001f0: cbf7 68bd d30e 1ac0 c846 fabe b44c 9cbd
00000200: 72ff 7f3f 174d aa3f cd45 09be 4a26 23bd
00000210: 58d0 99bd e53d 163f 6caa 1e3e f9d3 c83c
00000220: ca51 82bf ba3c 833f 3291 c93e 952f 3f3c
00000230: 912c 073f e642 e9be 72ac 63be f01d a63b
00000240: f109 8fbd e117 bd3e 8109 34bd 5c59 e8be
00000250: c73f ec3e b30b d63f b195 dc3e 2695 8a3e
00000260: 91a5 963f ce0f 09be 8c33 cb3e 97cf aabd
00000270: 4083 99bf a36a 1140 4a88 1a3f 630b 9e3d
00000280: 5b00 79be 45c1 ccbf 8b64 babe bc49 49bd
00000290: 0214 4e3f bb2e a7bf 88fc 87be 9fc5 afbe
000002a0: 1365 5dbf be7f 2a3c b944 6a3e 892d fc3c
000002b0: 4919 a6bd 3434 873e 9c73 76be b687 02be
000002c0: a215 1b3f c6fd 283e b7a6 8b3e 4dc1 9fbe
000002d0: af48 0ebe 2290 07c0 7569 bdbe 3aa1 73bd
000002e0: d757 9f3f 42ce 9e3e 3a20 b3be 7f8d 9d3e
000002f0: 7029 0f3f 2228 08bb dcaf 5cbd 43e5 96bc
00000300: e3ce 9b3f d403 fcbe f396 1ebc ac39 673d
00000310: 3541 3dbf ad99 debf 49cf e7be ce2d 88bd
00000320: ee35 213f bcdb babf c113 0ebf 8faa babd
00000330: 5e95 953e f8b2 dd3f 0e47 aa3e 6073 493d
00000340: bdaf 6e3f 9788 533f d5a9 67be ea9e 35be
00000350: 63b3 123f 4b6a 3bc0 d4de 2dbf 1c93 e2bd
00000360: ab16 b13e 097e 0abf b2de 9cbc c204 5d3d
00000370: 2cd5 b43f 2f9b 1b3f f0b2 0c3e 573c 19bd
00000380: 6164 f6be fdf4 433f 751d 473e 44cb 393d
00000390: 8907 72be 1691 63bf dd1e 79be efc5 8bbd
000003a0: 13ab ddbe 86a4 a7bf c53c 9dbe 5b83 56bd
000003b0: 9221 2c3f a917 2bc0 e10d 19bf 5f2a c1bd
000003c0: 35d2 953e 36f5 49bf c1e7 ee3d 5d8f 6ebe
000003d0: 53e5 71bf 374b 45bf 4bcf b9be 2e45 d83c
000003e0: 20f1 6abf e2de 973f 702d c63e 414a 0a3d
000003f0: 40fc b63f 3d1e 423f 5f9a eb3d 84fb afbd

net.0.bias f4 [256]
-0.08771804 0.31062162 0.016870355 -0.15834266 1.6075226 1.301932 0.65525305 -0.018211037
-0.09650142 1.0772517 0.034915995 1.7005985 0.06793205 0.74639374 1.2544725 0.48740423
0.6425538 -0.6273453 0.93358713 0.8996281 -0.31473336 0.68760914 0.12492222 0.28275952
0.41641584 0.97754925 -0.16098614 0.8526497 -0.40436745 0.9999157 0.39919317 0.5985462
1.1883478 0.09875104 0.46985883 -0.19323415 1.4650697 -0.046888757 -0.20072097 0.35251948
-0.3883252 0.87368613 -0.382204 1.7109159 1.4339573 0.6230475 1.300711 1.2138096
-0.49111757 0.020322185 -0.31109795 -0.49426043 0.23926619 0.35153475 1.2267358 1.1502582
0.7409918 0.45754927 0.79839015 0.18519671 1.1160133 0.46229932 0.3717871 1.0124403
-0.15842271 0.2266102 1.3594369 0.14142767 -0.20766331 0.37908185 0.13616501 0.86195093
0.15449895 0.34543517 0.56038046 0.75861657 -0.026624065 0.78456265 1.1405176 0.6829266
0.113699034 1.125526 -0.2779601 0.5830958 -0.42597395 0.8494775 0.6124842 0.8532185
-0.21660809 -0.07776198 1.0434778 1.1083585 -0.3524355 1.4431589 0.52281296 1.338551
0.3818211 0.47820365 1.1510109 1.0346538 0.943922 0.9557091 1.0933331 -0.15080261
0.56533545 1.0123441 0.69264865 -0.4561586 0.868371 0.4573713 0.18798861 0.6159664
0.324638 0.754288 0.7148253 -0.18533936 0.89953464 0.89958745 0.87026393 0.34227595
1.2223585 0.9978772 -0.74124604 -0.19867422 0.35153612 0.9411403 -0.3770618 0.803526
0.93189317 1.0710337 0.2633037 1.1833941 -0.010446648 0.444694 0.47476006 1.2043366
1.185162 0.7266721 0.46779326 0.28928113 0.25019702 -0.28427187 0.91436577 0.506009
0.9561626 1.0634953 0.021220379 1.043907 -0.24864282 -0.23443292 0.6111683 0.74858433
0.19297653 0.82962996 -0.2077694 0.41921127 0.6467955 0.28843492 0.5885571 0.48033476
0.79512835 0.91868174 -0.19996525 0.6729107 0.4161859 0.8700816 1.0369612 1.2243605
0.9116175 0.987427 -0.36286154 0.39767057 1.0357621 0.5628271 -0.40231073 0.85346437
0.4998161 0.69376767 0.14101861 -0.10751619 0.07695523 0.112887464 0.64646906 -0.25370565
0.5893879 0.48706666 -0.23466867 0.84228516 0.5477619 -0.31611675 -0.05353252 0.019197315
0.2726518 0.17828251 -0.21771921 0.087163985 0.9175986 0.15151604 -0.3706606 0.7218343
0.03330392 -0.5114775 0.70560485 0.7516397 1.0719419 1.1567603 0.66619825 1.1002626
1.004711 1.1777055 0.38757792 1.0843852 -1.0309316 0.41159877 1.3923923 -0.03324545
0.8056369 -0.396467 0.4567586 0.079432614 0.18838821 0.69186294 -0.5365109 -0.29542434
0.16436735 0.37344754 0.51402867 -0.41170144 0.6786116 -0.3306486 -0.6336894 -0.3165214
-0.15251957 0.768057 0.8049105 0.5426727 1.1908501 0.45848688 0.11474761 -0.33641353
0.37452403 1.1446711 1.1782163 0.658732 0.7844924 -0.48565698 -0.1825445 -0.19428308
1.168285 0.6753133 1.2439504 1.4276834 0.69766057 0.21548106 0.9977195 0.8156928
00000000: 84a5 b3bd cc09 9f3e b333 8a3c 9424 22be
00000010: 4dc3 cd3f b5a5 a63f aabe 273f 502f 95bc
00000020: 89a2 c5bd 62e3 893f 1304 0f3d 36ad d93f
00000030: f51f 8b3d a913 3f3f 8e92 a03f 0c8d f93e
00000040: 687e 243f b499 20bf 91ff 6e3f 074e 663f
00000050: bb24 a1be 2707 303f 39d7 ff3d dbc5 903e
00000060: 7534 d53e ab40 7a3f 8dd9 24be 4047 5a3f
00000070: 4009 cfbe 7afa 7f3f 0c63 cc3e 533a 193f
00000080: c81b 983f fc3d ca3d 5691 f03e 2cdf 45be
00000090: 6787 bb3f 6d0e 40bd cc89 4dbe 6f7d b43e
000000a0: 90d2 c6be e5a9 5f3f 3eb0 c3be 4bff da3f
000000b0: ea8b b73f 0a80 1f3f b37d a63f 1d5e 9b3f
000000c0: c373 fbbe b67a a63c 3b48 9fbe b40f fdbe
000000d0: 3202 753e 5dfc b33e ae05 9d3f a93b 933f
000000e0: a3b1 3d3f e643 ea3e 4c63 4c3f 35a4 3d3e
000000f0: 86d9 8e3f 7fb2 ec3e e15a be3e a597 813f
00000100: 9039 22be 810c 683e 0702 ae3f 6ad2 103e
00000110: b1a5 54be 0417 c23e d76e 0b3e d1a8 5c3f
00000120: f934 1e3e e1dc b03e 1875 0f3f b234 423f
00000130: b61a dabc 19d9 483f 7bfc 913f 47d4 2e3f
00000140: 0adb e83d 3c11 903f c950 8ebe c445 153f
00000150: 4219 dabe 5c77 593f c4cb 1c3f 876c 5a3f
00000160: 83ce 5dbe ac41 9fbd ae90 853f b1de 8d3f
00000170: 6d72 b4be 6eb9 b83f 12d7 053f a455 ab3f
00000180: 0e7e c33e 1cd7 f43e 5354 933f 896f 843f
00000190: dfa4 713f 5aa9 743f 57f2 8b3f 006c 1abe
000001a0: d3b9 103f 7e94 813f 6c51 313f 9f8d e9be
000001b0: 904d 5e3f 922c ea3e 1680 403e f9af 1d3f
000001c0: f436 a63e 0519 413f cafe 363f 9ac9 3dbe
000001d0: e747 663f 5d4b 663f 9ec9 5e3f cb3e af3e
000001e0: 3e76 9c3f e174 7f3f 4dc2 3dbf 4171 4bbe
000001f0: 8bfc b33e 92ee 703f 3f0e c1be e1b3 4d3f
00000200: 8d90 6e3f a217 893f becf 863e 7579 973f
00000210: 6b28 2bbc efae e33e c013 f33e b427 9a3f
00000220: 63b3 973f 2f07 3a3f 9982 ef3e a81c 943e
00000230: d319 803e 158c 91be e013 6a3f ce89 013f
00000240: 12c7 743f 9d20 883f 5cd6 ad3c bf9e 853f
00000250: 399c 7ebe 2f0f 70be 8775 1c3f 39a3 3f3f
00000260: a49b 453e a162 543f 80c1 54be dca2 d63e
00000270: 6494 253f bead 933e aeab 163f 70ee f53e
00000280: 888d 4b3f ba2e 6b3f b1c3 4cbe e043 2c3f
00000290: 5116 d53e abbd 5e3f 25bb 843f d8b7 9c3f
000002a0: c45f 693f 04c8 7c3f fdc8 b9be 7a9b cb3e
000002b0: da93 843f 7015 103f acfb cdbe a47c 5a3f
000002c0: e5e7 ff3e c29a 313f 2f67 103e 7331 dcbd
000002d0: b49a 9d3d 8b31 e73d ff7e 253f b5e5 81be
000002e0: 20e2 163f cd60 f93e fc4c 70be 00a0 573f
000002f0: 203a 0c3f 0eda a1be ea44 5bbd b043 9d3c
00000300: 0499 8b3e b18f 363e c9f1 5ebe 0883 b23d
00000310: bee7 6a3f 0527 1b3e 3ac7 bdbe 22ca 383f
00000320: b169 083d 30f0 02bf 85a2 343f 766b 403f
00000330: 6435 893f b910 943f f88b 2a3f 68d5 8c3f
00000340: 5f9a 803f 0ebf 963f 9d70 c63e 22cd 8a3f
00000350: 91f5 83bf 13bd d23e e939 b23f 622c 08bd
00000360: 383e 4e3f b9fd cabe 43dc e93e 91ad a23d
00000370: d7e8 403e ee1d 313f c758 09bf dc41 97be
00000380: ea4f 283e 8434 bf3e 6297 033f 88ca d2be
00000390: 7db9 2d3f c64a a9be 7839 22bf 180f a2be
000003a0: 172e 1cbe 629f 443f 9d0e 4e3f 99ec 0a3f
000003b0: c76d 983f cbbe ea3e cc00 eb3d 653e acbe
000003c0: 9dc1 bf3e 9584 923f cbcf 963f a9a2 283f
000003d0: 7ed4 483f 08a8 f8be f2ec 3abe 25f2 46be
000003e0: 5d8a 953f 55e1 2c3f c439 9f3f 54be b63f
000003f0: e299 323f 11a7 5c3e 8c6a 7f3f 3ed1 503f

net.2.weight f4 [128, 256]
0.33453897 0.15968943 0.46078172 -0.037116192 0.12875621 0.03266731 0.4111459 -0.09228972
0.33335525 0.21059394 -0.24272928 0.12061161 0.29419282 -0.07027868 0.26078123 0.09410851
-0.10164557 -0.43748984 0.069461085 -0.01790826 -0.025212957 -0.03126134 0.776009 -0.10296156
-0.032268763 0.07288667 0.3768467 -0.13389212 -0.09452622 0.16549987 -0.18934257 0.14231387
0.42664933 -0.010623537 0.2653428 -0.097090505 -0.03262549 0.011161146 0.3691365 0.059554834
0.26926714 0.23632924 0.12291927 0.116905786 0.19037153 0.5201796 -0.14637175 0.38450542
-0.19221568 0.46235982 -0.033382602 0.37013865 0.0018960815 0.30197027 0.45400593 0.07510363
0.018733427 -0.054134026 0.042453982 0.23400687 0.24594803 0.1500814 0.1859737 0.23988298
0.1577255 0.480954 0.5179832 0.20687817 0.29364786 0.26379368 0.41614714 0.32658723
0.32397628 -0.16783942 -0.3327248 -0.23639429 0.12382522 0.023908038 0.104011804 0.2004654
0.58527875 0.025162604 0.058048584 0.37010732 0.92403305 -0.18787552 0.39380994 -0.14144303
-0.15299362 0.14048421 0.1494666 0.33919436 0.2502323 0.5588127 0.09358025 0.2684979
0.12926717 0.10791181 0.3719089 0.38517088 0.39117798 -0.12166527 0.30216795 0.27154583
0.17063367 0.4307289 -0.023615224 0.18908143 0.32462016 0.15470155 0.21101664 -0.18990655
0.40783244 0.093056135 0.07140386 0.044664796 0.33760592 -0.0036140122 -0.092046835 0.15205249
0.343832 0.10094718 0.34115395 -0.10625229 -0.1481635 0.26710624 -0.17154497 0.5547959
0.1346639 0.283219 0.2318651 0.1773135 -0.19611056 0.41136923 0.08920386 0.017184637
0.22337931 0.2627672 0.68392354 -0.15149184 -0.16692258 0.3581695 0.05179313 0.037950866
0.24217424 0.40885404 0.07434589 -0.18541571 0.11836559 0.96686786 0.09565694 0.03787816
0.24824473 0.0044544907 0.42423275 0.15096809 0.15664081 -0.009528328 0.083327405 0.279454
0.29048234 -0.15834288 0.03811082 0.13297263 0.096687436 0.028992279 0.30844188 -0.00052488205
-0.30671042 -0.06409605 -0.12762903 0.15621282 0.13041812 0.1658137 0.084809564 0.19211842
0.06837958 0.278622 0.3607226 0.5986167 0.05519469 0.3466326 0.1637051 -0.15312222
0.22724038 0.1141951 -0.10561023 0.19504198 0.052345246 0.56545275 0.22926122 -0.044445045
0.2685971 0.38166428 -0.34445313 0.54135835 -0.050511263 -0.15200491 0.028151223 0.09570225
0.1525662 0.10661766 0.26283252 0.1557057 0.47147113 0.32184923 0.11302316 0.23934893
0.2263335 0.23272468 0.17614949 -0.14058235 0.2008634 0.1871481 0.34006575 0.22674583
0.23620056 -0.5332324 0.11142953 0.016770726 0.24910659 0.1801966 -0.5477793 -0.073929876
-0.03657122 0.37083262 -0.10948101 -0.2583685 -0.04950881 0.33438215 -0.2526741 -0.124825865
-0.046567786 0.19767627 0.34001693 0.022173855 -0.0029150683 0.5562071 0.5151373 0.007381227
-0.24043652 0.04593051 0.17929034 0.41124344 0.372695 0.17823887 -0.22491182 0.08449732
0.28606448 -0.05068072 0.4382326 0.33876076 0.37486976 0.016650843 0.37682372 0.36012053
00000000: b148 ab3e a085 233e 95eb eb3e 2607 18bd
00000010: abd8 033e 28ce 053d b781 d23e 6502 bdbd
00000020: 8aad aa3e f0a5 573e 068e 78be 3803 f73d
00000030: 71a0 963e 45ee 8fbd 1e85 853e f6bb c03d
00000040: 8d2b d0bd abfe dfbe 9d41 8e3d 58b4 92bc
00000050: 678b cebc e40b 00bd 87a8 463f 83dd d2bd
00000060: 402c 04bd 9b45 953d 0df2 c03e 041b 09be
00000070: f696 c1bd cc78 293e 05e3 41be baba 113e
00000080: c871 da3e 580e 2ebc 03db 873e 63d7 c6bd
00000090: 4ea2 05bd 3ddd 363c 76ff bc3e c5ef 733d
000000a0: 62dd 893e 4b00 723e 19bd fb3d 4d6c ef3d
000000b0: c1f0 423e 7e2a 053f 7ae2 15be e5dd c43e
000000c0: 30d4 44be 6dba ec3e 32bc 08bd d082 bd3e
000000d0: f085 f83a d99b 9a3e 7773 e83e efcf 993d
000000e0: d876 993c a4bb 5dbd 3ae4 2d3d 7f9f 6f3e
000000f0: cdd9 7b3e f0ae 193e e46f 3e3e e2a3 753e
00000100: cb82 213e 9a3f f63e 8c9a 043f dfd7 533e
00000110: 0359 963e f70f 873e 3d11 d53e 7136 a73e
00000120: 38e0 a53e 19de 2bbe e85a aabe 5811 72be
00000130: 1498 fd3d cada c33c 2404 d53d cd46 4d3e
00000140: d4d4 153f ce21 ce3c 5ac4 6d3d b57e bd3e
00000150: 6e8d 6c3f 7162 40be 75a1 c93e 71d6 10be
00000160: 5caa 1cbe 18db 0f3e c60d 193e e2aa ad3e
00000170: 731e 803e 590e 0f3f 01a7 bf3d 8f78 893e
00000180: 9d5e 043e de00 dd3d d86a be3e 1e35 c53e
00000190: 7b48 c83e a42b f9bd c2b5 9a3e 0e08 8b3e
000001a0: 98ba 2e3e 8088 dc3e b774 c1bc 909e 413e
000001b0: 9d34 a63e 156a 1e3e bf14 583e dd76 42be
000001c0: 6acf d03e 3794 be3d 303c 923d 6ff2 363d
000001d0: afda ac3e 10d9 6cbb 0d83 bcbd a6b3 1b3e
000001e0: bf0a b03e 65bd ce3d bbab ae3e cd9a d9bd
000001f0: 2cb8 17be 26c2 883e 7ca9 2fbe 1b07 0e3f
00000200: 55e5 093e 1502 913e 0b6e 6d3e ac91 353e
00000210: 35d1 48be fd9e d23e 83b0 b63d ccc6 8c3c
00000220: 8cbd 643e 6c89 863e 9d15 2f3f ad20 1bbe
00000230: c1ed 2abe fe61 b73e 0825 543d 5e72 1b3d
00000240: 86fc 773e 5155 d13e a842 983d 9edd 3dbe
00000250: a969 f23d a784 773f c9e7 c33d 2126 1b3d
00000260: de33 7e3e faf6 913b 0935 d93e 6197 1a3e
00000270: 7366 203e b41c 1cbc 8fa7 aa3d 9814 8f3e
00000280: 1aba 943e a324 22be 171a 1c3d fa29 083e
00000290: 1004 c63d 3781 ed3c 18ec 9d3e 3d98 09ba
000002a0: 2609 9dbe ca44 83bd 2fb1 02be 41f6 1f3e
000002b0: 548c 053e 11cb 293e a3b0 ad3d b1ba 443e
000002c0: 980a 8c3d 8ba7 8e3e a2b0 b83e f23e 193f
000002d0: d413 623d d479 b13e 4fa2 273e 12cc 1cbe
000002e0: b4b1 683e 1fdf e93d 2d4a d8bd 16b9 473e
000002f0: f867 563d 83c1 103f 74c3 6a3e 020c 36bd
00000300: 8f85 893e 8069 c33e 295c b0be 7696 0a3f
00000310: e6e4 4ebd 2da7 1bbe 659d e63c 8bff c33d
00000320: 503a 1c3e 5c5a da3d fc91 863e 5171 1f3e
00000330: aa64 f13e 6cc9 a43e b078 e73d e317 753e
00000340: f8c3 673e 614f 6e3e 8860 343e d2f4 0fbe
00000350: 23af 4d3e c0a3 3f3e 191d ae3e 0f30 683e
00000360: 8fde 713e eb81 08bf 2a35 e43d c362 893c
00000370: cc15 7f3e 7585 383e 443b 0cbf 8c68 97bd
00000380: b4cb 15bd c6dd bd3e 9437 e0bd e048 84be
00000390: c0c9 4abd 2334 ab3e 805e 81be b4a4 ffbd
000003a0: ddbd 3ebd a66b 4a3e b316 ae3e f2a5 b53c
000003b0: bb0a 3fbb 9763 0e3f 0ae0 033f 38de f13b
000003c0: fe34 76be a121 3c3d e397 373e 808e d23e
000003d0: e1d1 be3e 4084 363e 494f 66be ee0c ad3d
000003e0: 0b77 923e 9696 4fbd 0660 e03e 0d72 ad3e
000003f0: eeee bf3e 5967 883c 0aef c03e b861 b83e

net.2.bias f4 [128]
0.33219692 0.21120669 -0.28610873 -0.28041205 0.09231986 0.30159605 0.25970128 0.5441705
0.16868527 -0.16200607 0.20498495 0.08091505 -0.055408616 0.3820597 0.044415805 -0.32130757
0.27218562 0.41456395 0.40090612 0.052540354 0.1561248 -0.1353735 0.7315093 0.089393966
0.6775747 0.3871275 0.17930524 0.0759408 0.13252182 0.16374896 0.05711514 0.24225292
0.07505879 0.33176428 0.15211175 0.16232625 0.13672745 0.13804129 0.3544918 0.2913436
0.15407364 0.15416075 -0.008424711 0.8081353 -0.020128682 0.17408875 0.2057161 0.0067833047
0.078437865 0.6930455 -0.018734884 0.10573007 0.12870084 0.57743025 0.042997256 0.18700673
0.072837256 0.06370478 0.07601466 0.047905207 0.07605134 -0.04861012 -0.06498821 0.09145593
0.1350747 -0.042608533 0.6891572 0.13975926 0.2163764 0.117902815 0.122089654 -0.14246029
0.110698484 0.14847139 0.09738523 0.4233087 0.1729797 0.11729099 -0.030408787 0.36522448
0.22860825 0.0038106234 0.4065788 0.07804723 0.10882386 0.18637246 0.66724294 0.083938316
0.6773634 -0.0069829863 -0.014210975 0.05459339 -0.25331903 0.13337015 0.11882541 0.09498735
0.14350162 0.17478456 0.08209257 -0.03757693 0.13252178 -0.016882973 0.20955685 0.029855264
0.35667264 0.02769151 0.100598626 0.20067243 0.1408366 -0.04802861 0.014818369 0.24139306
0.16582496 0.18058063 0.002696626 0.17129117 0.12302405 0.027348526 0.05430393 0.20458929
0.1638454 0.7322191 -0.26327026 -0.04844528 0.04835397 -0.26608738 0.40035012 0.16736837
00000000: b715 aa3e 9146 583e d87c 92be 2b92 8fbe
00000010: 3212 bd3d cc6a 9a3e 91f7 843e c24e 0b3f
00000020: d5bb 2c3e ebe4 25be 93e7 513e cab6 a53d
00000030: 25f4 62bd 549d c33e 59ed 353d 6d82 a4be
00000040: ea5b 8b3e ba41 d43e 9143 cd3e 8e34 573d
00000050: 2edf 1f3e 5a9f 0abe 3244 3b3f 2f14 b73d
00000060: 8975 2d3f 9335 c63e cb9b 373e da86 9b3d
00000070: cdb3 073e cfad 273e 91f1 693d 2611 783e
00000080: 6cb8 993d 02dd a93e 2fc3 1b3e da38 263e
00000090: 4802 0c3e b25a 0d3e f37f b53e fd2a 953e
000000a0: 7bc5 1d3e 51dc 1d3e cd07 0abc f4e1 4e3f
000000b0: e8e4 a4bc 5244 323e 3ea7 523e 7c46 de3b
000000c0: 08a4 a03d 6e6b 313f e679 99bc 0289 d83d
000000d0: 27ca 033e 78d2 133f e41d 303d b17e 3f3e
000000e0: b32b 953d a777 823d 93ad 9b3d 4038 443d
000000f0: cec0 9b3d 681b 47bd 8a18 85bd 3f4d bb3d
00000100: 0651 0a3e 4986 2ebd 9b6c 303f 0d1d 0f3e
00000110: c691 5d3e 0877 f13d 240a fa3d 1ce1 11be
00000120: e3b5 e23d e208 183e e871 c73d ebbb d83e
00000130: 9721 313e 4236 f03d d91b f9bc b4fe ba3e
00000140: 4818 6a3e a7bb 793b 192b d03e 3ad7 9f3d
00000150: 0bdf de3d 6cd8 3e3e 6fd0 2a3f dae7 ab3d
00000160: b067 2d3f 89d1 e4bb 26d5 68bc 529d 5f3d
00000170: 08b3 81be 2f92 083e bd5a f33d ba88 c23d
00000180: 17f2 123e b9fa 323e 2620 a83d 44ea 19bd
00000190: cab3 073e 294e 8abc 1296 563e 0793 f43c
000001a0: cc9d b63e 4ed9 e23c a706 ce3d 137d 4d3e
000001b0: 7837 103e a6b9 44bd bfc8 723c be2f 773e
000001c0: 05ce 293e 21ea 383e e0b9 303b f466 2f3e
000001d0: 08f4 fb3d 040a e03c cc6d 5e3d db7f 513e
000001e0: 17c7 273e b672 3b3f 5ccb 86be 8f6e 46bd
000001f0: d00e 463d 9b3c 88be b1fa cc3e 9d62 2b3e

net.4.weight f4 [1, 128]
0.71852833 -0.7473477 -1.1264176 1.231908 -0.81882054 0.47287557 -0.6761817 1.4273146
-0.7255405 1.1000785 -0.836354 -0.6523703 -0.7757984 0.76807034 -0.6846719 1.0331868
0.9218666 0.6709697 0.617168 -0.7079252 -0.6510842 -0.78163195 3.010823 -0.5730703
1.1212943 0.7052344 -0.7722455 -0.6063744 1.1682616 -0.7148696 -0.6464112 0.74475294
-0.892633 1.107107 -0.7345267 -0.77692735 -0.74971896 -0.7004336 0.66924167 0.9712956
-0.7863229 -0.7792701 1.1037369 2.2639306 -0.79214525 -0.65366626 -0.7364402 -0.66599256
1.0791222 1.577495 -0.78694534 -0.76876813 -0.71353215 1.030833 -0.6144365 1.5509249
-0.7792523 -0.6809443 -1.0661639 0.027637871 -0.7933462 0.052118845 1.2905694 -0.6503356
-0.6646566 0.060988594 2.0215034 -0.6776436 0.8232512 -0.6227178 -0.6304811 1.340161
-0.6878392 -0.72292924 -0.7539603 0.8748371 -0.66877204 -0.68507314 -0.69354254 0.7422565
0.62463045 -0.7595206 0.9303703 -0.6233986 -0.87204444 -0.68889314 2.9949057 -0.6875209
0.9387761 0.028525203 0.7684614 -0.6740761 -1.4954182 -0.7345772 -0.7441719 -0.7225005
-0.6525159 -0.73410624 -0.78221625 0.08527839 -0.623639 -0.6766823 0.6951886 -0.7550207
0.68061167 0.01896584 -0.7107226 -0.8928506 -0.757791 1.1176596 0.0061071534 1.1326228
-0.670161 1.1485401 -0.009601895 1.2021638 1.2277203 0.061582282 -0.6948937 -0.62775975
-0.756467 0.93153083 1.6053402 -0.018749354 -0.69418234 1.0528742 0.916543 -0.734526
00000000: 79f1 373f 2e52 3fbf 742e 90bf 29af 9d3f
00000010: 399e 51bf bf1c f23e 3e1a 2dbf 3fb2 b63f
00000020: 06bd 39bf 5fcf 8c3f 4c1b 56bf bd01 27bf
00000030: b99a 46bf 42a0 443f a846 2fbf 773f 843f
00000040: 73ff 6b3f acc4 2b3f b9fe 1d3f 963a 35bf
00000050: 74ad 26bf 0819 48bf 53b1 4040 bcb4 12bf
00000060: 9286 8f3f 3e8a 343f e2b1 45bf 5a3b 1bbf
00000070: 9989 953f b201 37bf 347b 25bf 21a8 3e3f
00000080: 9983 64bf afb5 8d3f f109 3cbf b6e4 46bf
00000090: 95ed 3fbf 9e4f 33bf 6c53 2b3f d4a6 783f
000000a0: 754c 49bf 3f7e 47bf 4047 8d3f 3de4 1040
000000b0: 08ca 4abf ac56 27bf 5887 3cbf 7d7e 2abf
000000c0: ad20 8a3f 5beb c93f 4075 49bf fdcd 44bf
000000d0: 0baa 36bf 56f2 833f b64b 1dbf b584 c63f
000000e0: 147d 47bf 5e52 2ebf 0f78 88bf d168 e23c
000000f0: bd18 4bbf 927a 553d 6131 a53f 657c 26bf
00000100: ef26 2abf 2dcf 793d 5060 0140 0d7a 2dbf
00000110: 97c0 523f 6f6a 1fbf 3667 21bf 658a ab3f
00000120: 3b16 30bf e411 39bf 8b03 41bf 53f5 5f3f
00000130: a534 2bbf f460 2fbf 018c 31bf 8604 3e3f
00000140: c8e7 1f3f f16f 42bf bf2c 6e3f 0d97 1fbf
00000150: 4e3e 5fbf 4d5b 30bf 89ac 3f40 5f01 30bf
00000160: a153 703f b0ad e93c e3b9 443f 4090 2cbf
00000170: dd69 bfbf 400d 3cbf 0d82 3ebf cbf5 38bf
00000180: 480b 27bf 63ee 3bbf 533f 48bf 70a6 ae3d
00000190: cea6 1fbf 0d3b 2dbf e1f7 313f 0949 41bf
000001a0: 913c 2e3f 405e 9b3c ebf1 35bf db91 64bf
000001b0: 97fe 41bf 780f 8f3f 841e c83b c9f9 903f
000001c0: ac8f 2bbf 5d03 933f 4451 1dbc 81e0 993f
000001d0: f025 9d3f b43d 7c3d 8ee4 31bf ddb4 20bf
000001e0: d2a7 41bf ce78 6e3f ca7b cd3f 3f98 99bc
000001f0: efb5 31bf 95c4 863f 90a2 6a3f e509 3cbf
