A5/modelset/ddpg/ddpg_actor.pt (torch, 138561 bytes, 5 tensors)

net.0.weight f4 [256, 3]
-0.023300368 0.79079455 -0.12613393 0.3597898 -0.54410785 -0.38710028 0.53848 -0.10878913
0.117354 -0.37263778 -0.53831244 -0.33796138 -0.55746865 0.32606745 -0.08069417 -0.20037045
1.2306507 0.01815027 -0.10132667 -1.1711534 0.090653434 -0.62663496 0.3565116 0.15523027
-0.06341284 1.0842049 -0.116884984 -0.46734908 -0.87427586 -0.39505428 -0.9511294 0.10621808
-0.036789842 -0.28460774 -0.28231984 -0.015491746 -0.30538115 1.3859737 -0.24069324 -0.18093324
-1.3723176 -0.3095914 0.40208212 -0.30137086 -0.0369375 -0.06702901 0.22104491 -0.14893493
-0.32509935 0.5041592 -0.33329564 0.18491201 -0.08353741 0.15333305 0.34226596 -0.4812863
-0.069677934 0.07334638 1.1207803 0.24010195 0.028572077 0.26050732 0.027545251 0.1564289
-0.77476615 -0.18842667 0.5440348 0.3859981 0.17542423 0.46576968 -0.13948847 -0.021264702
0.12188098 1.4459116 -0.24620971 -0.946877 0.29594073 0.13605405 -0.014144996 0.008144254
2.5128598e-05 -1.822255 -0.763139 -0.076642394 0.015634755 -0.4889716 0.49769083 -0.44384637
0.116795465 -0.28943697 0.59009117 -1.1472217 -0.31423593 -0.04874426 0.5524678 0.101425655
-0.45799062 -1.4502152 -0.19375595 -0.6104746 0.04367056 -0.10566581 -0.39222616 -1.2874995
-0.27721825 0.21222667 -0.36453852 -0.49271777 -0.08337695 0.49319705 0.3283314 -0.21460554
0.952264 -0.19400662 -1.0073189 -0.957246 0.0042948625 -0.37282434 -0.42100686 0.24808954
-0.041726895 0.7041133 0.18043834 0.18964055 1.3410908 -0.039615884 -0.5549544 -1.5565503
-0.3188105 -0.19891715 -0.2724522 -0.12819384 0.19148114 -0.98186564 -0.23591334 -0.22259173
0.07974155 -0.048670754 0.12990545 -0.13690323 -0.0042603016 -0.29486352 -0.14710467 -0.6606841
-0.47777578 0.9556659 -0.14291649 0.11646101 1.6801668 0.03354453 0.013655494 1.2928569
0.124258436 -0.23041505 1.2803746 -0.14882722 -0.5469147 0.9508347 -0.03728575 -0.7779024
-0.13584109 -0.27282926 -0.092391506 0.93155235 -0.4028831 0.3243056 0.66886157 -0.29381764
-0.42944983 0.061917853 -0.040124428 -0.40401983 0.8729331 -0.11519329 0.3126559 0.49924967
-0.2237036 -0.51974374 0.44015297 0.325537 -0.36566427 -0.892122 0.39046794 0.24957618
-1.2454201 -0.28397548 0.40567952 -0.46890056 -0.16877814 0.8021487 -0.22300802 -0.16377729
0.21972279 -1.2956831 -0.15820579 0.18059652 0.5567509 0.1073357 0.16700049 0.28492418
0.4647966 -0.88108796 0.10559731 0.19770095 -1.3938543 -0.097005375 0.17244804 -0.2729676
-1.2636808 -0.1775277 -0.16898815 0.44196224 -0.12973915 0.24201575 1.1788155 -0.6162526
-1.8094118 -0.0015868491 -0.051857006 -0.12955533 -0.6556001 -0.21909347 0.03233625 -0.76750374
0.029908285 0.67098576 0.5356214 -0.20440753 0.21395141 1.784807 0.21816395 -0.6025451
1.4299209 0.19213364 0.05357709 1.208227 -0.51591754 -0.6965103 1.2254964 -0.12702163
-0.704963 -0.95516515 -0.18420947 -0.1321179 -1.0068706 -0.20590717 -0.39618012 1.3683522
0.14086285 0.39141288 0.93713224 0.16004519 0.24273069 -0.20642217 0.092005245 0.19655123
00000000: 6ae0 bebc 8371 4a3f 4129 01be 5e36 b83e
00000010: a74a 0bbf 0232 c6be d3d9 093f d6cc debd
00000020: 4b57 f03d 61ca bebe d8ce 09bf 4609 adbe
00000030: 44b6 0ebf 50f2 a63e fc42 a5bd e92d 4dbe
00000040: f685 9d3f e0af 943c 5b84 cfbd 5be8 95bf
00000050: 82a8 b93d 266b 20bf b088 b63e aff4 1e3e
00000060: 97de 81bd 3ac7 8a3f 6561 efbd 6148 efbe
00000070: 8bd0 5fbf 8e44 cabe 377d 73bf dd88 d93d
00000080: f2b0 16bd 1bb8 91be 3a8c 90be 18d1 7dbc
00000090: eb5a 9cbe 9667 b13f 4a78 76be 9046 39be
000000a0: 1aa8 afbf c482 9ebe b5dd cd3e 484d 9abe
000000b0: c74b 17bd 8146 89bd 9959 623e 6682 18be
000000c0: 6c73 a6be 9410 013f baa5 aabe 9359 3d3e
000000d0: a915 abbd 5703 1d3e 7c3d af3e 286b f6be
000000e0: 4eb3 8ebd a036 963d bb75 8f3f 49dd 753e
000000f0: fd0f ea3c 3761 853e 94a6 e13c e62e 203e
00000100: 1357 46bf ecf2 40be dd45 0b3f 8ba1 c53e
00000110: 69a2 333e 5d79 ee3e 11d6 0ebe 5033 aebc
00000120: bc9c f93d a213 b93f 661e 7cbe 8866 72bf
00000130: 8b85 973e c151 0b3e 6ac0 67bc 7a6f 053c
00000140: 41cb d237 a73f e9bf 145d 43bf b0f6 9cbd
00000150: 7514 803c 7c5a fabe 55d1 fe3e d53f e3be
00000160: 7632 ef3d 1531 94be 3710 173f 29d8 92bf
00000170: 88e3 a0be 10a8 47bd 886e 0d3f 41b8 cf3d
00000180: bf7d eabe a7a0 b9bf f667 46be 1048 1cbf
00000190: e7df 323d 5167 d8bd ded1 c8be c9cc a4bf
000001a0: 8def 8dbe f351 593e cba4 babe 8145 fcbe
000001b0: 89c1 aabd 5384 fc3e 0e1b a83e 8ec1 5bbe
000001c0: 93c7 733f aca9 46be d3ef 80bf 130e 75bf
000001d0: ebbb 8c3b d5e2 bebe 368e d7be 2f0b 7e3e
000001e0: d2e9 2abd c540 343f d4c4 383e 2231 423e
000001f0: dda8 ab3f 4444 22bd 7e11 0ebf 0a3d c7bf
00000200: 213b a3be f0b0 4bbe db7e 8bbe 3f45 03be
00000210: a213 443e 8c5b 7bbf 4493 71be 16ef 63be
00000220: 8a4f a33d fc5a 47bd ef05 053e 5c30 0cbe
00000230: 009a 8bbb 5af8 96be 9ba2 16be 9822 29bf
00000240: 079f f4be 85a6 743f b358 12be 1c83 ee3d
00000250: b50f d73f fd65 093d 4bbb 5f3c 567c a53f
00000260: 357b fe3d ecf1 6bbe 51e3 a33f 2a66 18be
00000270: 9a02 0cbf e769 733f f1b8 18bd 9d24 47bf
00000280: ed19 0bbe 47b0 8bbe c237 bdbd 377a 6e3f
00000290: b246 cebe 620b a63e 833a 2b3f 446f 96be
000002a0: d9e0 dbbe 939d 7d3d 8359 24bd b0db cebe
000002b0: 8b78 5f3f 76ea ebbd 6f14 a03e a79d ff3e
000002c0: 8e12 65be ed0d 05bf bb5b e13e c9ac a63e
000002d0: 5938 bbbe 1b62 64bf 6aeb c73e e690 7f3e
000002e0: ed69 9fbf 3c65 91be 3ab5 cf3e bc13 f0be
000002f0: 2dd4 2cbe 9e59 4d3f 375c 64be 3cb5 27be
00000300: 03ff 603e f2d8 a5bf b300 22be 4bee 383e
00000310: 3a87 0e3f d2d2 db3d 2d02 2b3e 95e1 913e
00000320: d2f9 ed3e fb8e 61bf 6743 d83d 1e72 4a3e
00000330: d169 b2bf c1aa c6bd 3896 303e 69c2 8bbe
00000340: 4bc0 a1bf d2c9 35be 3b0b 2dbe e048 e23e
00000350: 57da 04be fad2 773e 6de3 963f bbc2 1dbf
00000360: ce9a e7bf d2fd cfba 0368 54bd 27aa 04be
00000370: 68d5 27bf 0a5a 60be 0473 043d 207b 44bf
00000380: 3802 f53c b9c5 2b3f 7c1e 093f 3550 51be
00000390: 1416 5b3e 8e74 e43f 5f66 5f3e 6540 1abf
000003a0: a607 b73f aebe 443e a773 5b3d 2fa7 9a3f
000003b0: 2c13 04bf 804e 32bf 11dd 9c3f f511 02be
000003c0: 7578 34bf b485 74bf 68a1 3cbe ea49 07be
000003d0: 23e1 80bf 54d9 52be 1fd8 cabe 2a26 af3f
000003e0: 5a3e 103e 4567 c83e e6e7 6f3f e3e2 233e
000003f0: 658e 783e 5560 53be 3f6d bc3d ba44 493e

net.0.bias f4 [256]
-0.08630313 -0.7165634 -0.25622794 0.17781338 0.10787336 0.2839164 -0.06448061 -0.04639629
-0.0023596354 0.4562645 0.41057628 0.3101618 0.57739025 -0.005542388 -0.15997733 -0.25847483
0.17963566 -0.08738842 -0.11941391 0.19225948 -0.02372257 -0.2758998 -0.25748482 -0.17289533
-0.28232712 -0.0015390856 -0.016696684 -0.040827364 -0.07891649 -0.037814233 0.1615967 0.41634998
-0.13711095 0.32636887 -0.17047188 -1.0277257 0.13255714 -0.42086723 0.6839753 0.0417129
0.072787195 -0.05859546 0.31449375 0.22790542 -0.3038413 0.016120365 -0.22680183 -0.21916232
-0.47682068 -0.08601749 -0.2996901 0.06164323 0.23753588 -0.5106345 -0.004495616 -0.02941444
0.22963274 -0.26586625 -0.34361562 -0.5971461 -0.20780891 0.19649334 -0.46868932 -0.21913284
-0.10181127 0.15943167 -0.4726177 -0.4140199 -0.48282677 0.18014783 0.23781636 -0.14493795
-0.11231992 0.040510602 -0.46380508 -0.45972958 -0.37769687 0.47180867 0.074316695 0.08469447
0.4423581 -0.003626807 0.26910514 0.039553437 0.013719142 -0.56891704 0.0070318794 0.11071453
-0.19750361 0.39196575 -0.07975619 -0.039969962 -0.11180275 -0.18338509 0.36351654 0.32570812
0.33161417 -0.10203203 -0.7904962 -0.18142147 -0.5572472 0.32349363 -1.0427841 -0.07346513
0.055618737 0.22612618 -0.23913811 -0.060730513 0.52162814 0.32415262 -0.036121164 -0.026171844
0.11506265 -0.84881103 0.20807725 0.24659659 0.39179367 -0.45582497 -0.28493017 -0.1428534
0.37325877 -0.1895567 -0.013573 0.17757326 0.3605572 0.1441 0.4830552 -0.19536212
0.52660644 -0.16987444 0.21908934 -0.2877012 0.1993803 0.18807232 -0.20536904 0.1317311
0.43972874 -0.59720623 -0.4455416 -0.28943217 0.06478187 -1.016251 -0.6570812 -0.023409294
0.35153288 0.038429275 -0.12905832 0.3553372 -0.08067261 -0.55724025 0.16889732 0.21910627
-0.17129993 -0.51030517 -0.24468932 0.09299951 0.22943507 -0.2189315 0.11797899 -0.8943951
0.17176451 -0.11895766 0.046089742 -0.875631 0.09019299 -0.11604817 -0.38722667 -0.34460965
-0.38744342 -0.09983291 -0.85968935 0.24665669 -0.34100592 0.5059395 -0.44311407 0.22280799
0.10566024 -0.6049404 0.24301891 -0.4636548 -0.22887507 -0.31257266 0.17787637 -0.05001702
-0.28569147 -0.1849092 -0.14522588 -0.39349753 -0.3388085 0.24426326 -0.24780966 -0.3270405
-0.049617387 -0.18197447 -0.6527069 -0.3578152 0.45451298 0.017605532 0.08747063 0.154962
0.13937202 -0.4212037 -0.76819485 0.07976762 0.13862212 0.05936572 0.040672217 -0.07384093
0.23796034 0.03331275 -0.3027806 -0.13013403 0.20484996 0.7472729 -0.14388634 -0.11311805
0.6155039 0.05177738 0.3701739 -0.032439303 0.08628236 -0.39403355 -0.6856175 -0.15042317
-0.290317 -0.16260938 0.05862566 0.2157065 0.7457964 -0.07452705 -0.023296751 0.37996268
0.11118952 -0.34046456 0.49776688 0.013224239 -0.025995528 0.09399079 -0.2012289 -0.48889557
0.37926674 -0.32922724 -0.38910562 -0.19529667 -0.05960787 0.25078824 0.102190174 0.12723762
-0.043888718 -0.050677948 -0.24283646 0.18749645 -0.5039587 0.3081899 0.12953497 -0.5674165
00000000: b2bf b0bd b370 37bf 4f30 83be b614 363e
00000010: b5ec dc3d 7e5d 913e 690e 84bd 090a 3ebd
00000020: 1da4 1abb 809b e93e 0e37 d23e 87cd 9e3e
00000030: d9cf 133f ec9c b5bb 19d1 23be d056 84be
00000040: 69f2 373e b3f8 b2bd 488f f4bd abdf 443e
00000050: d655 c2bc bd42 8dbe 0dd5 83be 790b 31be
00000060: 2e8d 90be 25bb c9ba 7cc7 88bc 983a 27bd
00000070: f89e a1bd 19e3 1abd 9b79 253e d32b d53e
00000080: d066 0cbe d219 a73e 2e90 2ebe 848c 83bf
00000090: 0fbd 073e e97b d7be 0119 2f3f 25db 2a3d
000000a0: 7411 953d cb01 70bd 5305 a13e 0a60 693e
000000b0: 1691 9bbe db0e 843c bd3e 68be 166c 60be
000000c0: d721 f4be f029 b0bd fb70 99be 9d7d 7c3d
000000d0: 9b3c 733e f1b8 02bf f64f 93bb 8df6 f0bc
000000e0: d824 6b3e 9f1f 88be 63ee afbe 91de 18bf
000000f0: dccb 54be 8d35 493e 0cf8 efbe 5c64 60be
00000100: 6d82 d0bd 0e42 233e f2fa f1be 6bfa d3be
00000110: 1235 f7be ac78 383e 2286 733e 9d6a 14be
00000120: fc07 e6bd 72ee 253d dc77 edbe ad61 ebbe
00000130: 7c61 c1be e890 f13e 5a33 983d 4b74 ad3d
00000140: c37c e23e b9af 6dbb 26c8 893e c902 223d
00000150: 41c6 603c 8ca4 11bf ae6b e63b 4dbe e23d
00000160: 633e 4abe bcaf c83e 3757 a3bd 8bb7 23bd
00000170: d7f8 e4bd 4dc9 3bbe d71e ba3e 37c3 a63e
00000180: 55c9 a93e 2bf6 d0bd f55d 4abf 8dc6 39be
00000190: c1a7 0ebf f5a0 a53e f379 85bf e374 96bd
000001a0: 79d0 633d 9f8d 673e 9fe0 74be 8fc0 78bd
000001b0: 6c89 053f 55f7 a53e c9f3 13bd 5666 d6bc
000001c0: f7a5 eb3d ae4b 59bf 3412 553e d183 7c3e
000001d0: 2e99 c83e e461 e9be 5ee2 91be 2948 12be
000001e0: c61b bf3e 271b 42be 4a61 5ebc c4d5 353e
000001f0: f49a b83e f38e 133e 0353 f73e 020d 48be
00000200: aecf 063f 91f3 2dbe f558 603e 924d 93be
00000210: 592a 4c3e 0896 403e 434c 52be 84e4 063e
00000220: 2024 e13e 82e2 18bf 071e e4be 7430 94be
00000230: 5bac 843d 8314 82bf 7936 28bf d9c4 bfbc
00000240: 1efc b33e 0468 1d3d dd27 04be c2ee b53e
00000250: ae37 a5bd 4ca7 0ebf 6bf3 2c3e 655d 603e
00000260: 4069 2fbe 5ca3 02bf d68f 7abe 8776 be3d
00000270: 07f1 6a3e 942f 60be f89e f13d 14f7 64bf
00000280: 09e3 2f3e 13a0 f3bd 99c8 3c3d 5a29 60bf
00000290: 1ab7 b83d aaaa edbd 9342 c6be ad70 b0be
000002a0: fc5e c6be 3275 ccbd 9a14 5cbf 9293 7c3e
000002b0: 5498 aebe 4085 013f d9df e2be c727 643e
000002c0: 6564 d83d 60dd 1abf f3d9 783e 2964 edbe
000002d0: 3a5e 6abe 8609 a0be 3925 363e a6de 4cbd
000002e0: 2746 92be d658 3dbe 18b6 14be 8278 c9be
000002f0: 4f78 adbe 2620 7a3e d1c1 7dbe da71 a7be
00000300: 9a3b 4bbd 8457 3abe cd17 27bf 8e33 b7be
00000310: edb5 e83e 7a39 903c cd23 b33d 5cae 1e3e
00000320: 8ab7 0e3e 03a8 d7be 6ba8 44bf 355d a33d
00000330: f5f2 0d3e 7829 733d e997 263d ea39 97bd
00000340: e0ab 733e f372 083d 0f06 9bbe db41 05be
00000350: 30c4 513e 474d 3f3f f156 13be 70aa e7bd
00000360: aa91 1d3f 8514 543d 6f87 bd3e 13df 04bd
00000370: ceb4 b03d c4be c9be a184 2fbf 8808 1abe
00000380: 6ea4 94be 1383 26be 7621 703d 2ae2 5c3e
00000390: 83ec 3e3f a3a1 98bd d4d8 bebc 788a c23e
000003a0: 55b7 e33d 5f51 aebe 4ddb fe3e 7baa 583c
000003b0: 93f4 d4bc 3e7e c03d f30e 4ebe 8550 fabe
000003c0: 402f c23e 7990 a8be da38 c7be dafb 47be
000003d0: 6227 74bd 5167 803e 1549 d13d 944a 023e
000003e0: a8c4 33bd ae93 4fbd 1faa 78be 12ff 3f3e
000003f0: 7003 01bf 11cb 9d3e d1a4 043e 3542 11bf

net.2.weight f4 [128, 256]
-0.04528615 -0.052461945 -0.0562571 0.034504402 -0.058016054 -0.06972088 -0.0095693525 -0.020948973
-0.011480139 0.028956156 0.05548625 -0.062736 -0.017510239 -0.00061910343 0.058860358 -0.034405187
-0.025890142 -0.0037326831 -0.0041447068 -0.006482834 0.031799804 0.036267363 -0.0001955802 -0.013934691
0.055825405 -0.037446793 0.009860261 -0.033979923 -0.030907754 -0.03891024 -0.0463026 -0.042713348
-0.049311314 -0.028576845 0.022692764 -0.036484994 -0.0115861995 -0.0096177375 -0.02949707 -0.051977742
-0.046515297 0.039744418 0.0032742617 0.009083428 -0.06333382 0.0512433 -0.021036817 -0.029768445
0.03858379 -0.0037679388 -0.05122167 0.007561052 -0.0122001795 0.023287423 -0.0013457157 0.027739244
0.044687413 -0.04872054 -0.03199186 0.035989773 -0.0018567424 -0.0116228415 0.037806578 -0.009952524
-0.018700592 -0.026750254 -0.062200308 -0.06176594 -0.020573849 0.04110396 0.05326971 0.03451891
-0.052009746 0.045565493 0.04779186 -0.05310455 -0.013802922 -0.017990498 0.035879783 -0.0020135448
-0.03976415 0.018209338 0.055354748 0.027305013 0.01536268 -0.061283972 -0.0028103504 -0.018449727
-0.04638588 0.010852199 -0.062714435 -0.042517312 -0.020537317 0.025709301 0.007363831 -0.040073875
-0.026191816 0.013070906 0.018503807 -0.065064624 -0.042030156 0.026945718 -0.004185669 0.049398616
-0.017340675 -0.0034154586 -0.011406183 -0.0354802 0.044193994 -0.01688071 0.0142194675 -0.014841761
-0.05056045 -0.033146314 -0.07025783 -0.056753833 -0.058330227 -0.020390406 0.038998563 0.028339028
0.006005841 -0.051831827 0.059500206 0.0047296025 0.059427664 0.014754647 -0.010932196 0.039556473
0.018112704 0.0105655985 -0.07025238 -0.021323804 0.04283256 -0.0015788451 0.025353983 -0.00031793464
0.027638564 -0.03205299 0.020935914 -0.035984922 0.05620429 0.0020782948 -0.0537932 -0.012395291
0.044053912 -0.013726454 0.053748496 -0.0326214 -0.06286738 -0.023435023 -0.018707426 -0.023487952
-0.052495945 -0.018098503 0.009082225 -0.027604016 -0.050616093 -0.042038403 0.02599823 0.021295285
-0.04783149 0.014869378 0.04056145 -0.056545466 -0.04885894 -0.020226194 -0.009530894 -0.04512134
0.06297632 0.017393887 -0.0045854 0.011056902 -0.03333947 0.01498862 0.008262081 -0.024534952
-0.0123309055 0.014606605 -0.044974737 0.0059491443 0.026041409 0.021761296 -0.034489933 0.02147687
-0.014212772 0.01184841 0.027984455 0.019893058 -0.041810304 -0.05254754 0.008407059 -0.028163828
-0.0078032063 -0.037601978 -0.042490643 -0.01775129 0.028664857 -0.058184914 0.023768518 0.04973899
-0.043116935 -0.044250764 0.0125003755 0.026318846 0.01159389 -0.028416682 -0.039077118 -0.04743712
-0.06536071 0.029135508 0.06173507 0.053939253 0.058386046 -0.0298778 -0.028240364 -0.02761152
-0.035306428 0.006079088 0.015331189 0.02345378 0.008534195 -0.019999916 -0.0031664148 0.019881178
0.022610895 -0.03344316 -0.049345527 -0.06641997 -0.0031550806 -0.0044986256 -0.059218187 0.0281919
-0.048783768 0.046359807 0.037892956 0.010398228 0.023878021 0.0178169 0.0509259 0.045334898
0.0249274 0.05785537 0.04743674 -0.02532939 -0.05399114 0.01584045 0.048748918 -0.043533612
0.030706855 0.051848296 0.021569738 0.0064546117 0.055371333 0.042317256 -0.057845186 0.005268119
00000000: f87d 39bd 56e2 56bd d86d 66bd 7d54 0d3d
00000010: 3ea2 6dbd d2c9 8ebd c6c8 1cbc 2e9d abbc
00000020: 3117 3cbc 7635 ed3c 8d45 633d bb7b 80bd
00000030: a271 8fbc 544b 22ba 8f17 713d 74ec 0cbd
00000040: 9017 d4bc 08a0 74bb 52d0 87bb f46d d4bb
00000050: 8340 023d 168d 143d a914 4db9 554e 64bc
00000060: 2ea9 643d cf61 19bd ef8c 213c 882e 0bbd
00000070: 4232 fdbc 5860 1fbd cca7 3dbd 31f4 2ebd
00000080: a9fa 49bd fd19 eabc 2de6 b93c 4a71 15bd
00000090: 0bd4 3dbc b793 1dbc d7a3 f1bc 9de6 54bd
000000a0: d386 3ebd 0bcb 223d ff94 563b a9d2 143c
000000b0: 29b5 81bd 7fe4 513d 6755 acbc f4dc f3bc
000000c0: 090a 1e3d 86ef 76bb d0cd 51bd b4c2 f73b
000000d0: 43e3 47bc 44c5 be3c ba62 b0ba 693d e33c
000000e0: 260a 373d 308f 47bd e609 03bd 036a 133d
000000f0: f05d f3ba bb6d 3ebc 12db 1a3d e90f 23bc
00000100: fc31 99bc 5923 dbbc c0c5 7ebd 48fe 7cbd
00000110: 7d8a a8bc a05c 283d 5731 5a3d b363 0d3d
00000120: 2c08 55bd e2a2 3a3d 66c1 433d 2884 59bd
00000130: a725 62bc cf60 93bc aef6 123d adf5 03bb
00000140: bcdf 22bd c02b 953c a9bb 623d c3ae df3c
00000150: c0b3 7b3c e704 7bbd db2d 38bb e223 97bc
00000160: 1fff 3dbd 6ccd 313c 6d70 80bd a226 2ebd
00000170: e03d a8bc 509c d23c 4b4c f13b 8124 24bd
00000180: 3890 d6bc 5a27 563c 4c95 973c 9a40 85bd
00000190: d027 2cbd 44bd dc3c f027 89bb 3456 4a3d
000001a0: 080e 8ebc e3d5 5fbb 00e1 3abc b053 11bd
000001b0: c304 353d 6a49 8abc c5f8 683c dc2a 73bc
000001c0: 7918 4fbd 6ec4 07bd 56e3 8fbd b576 68bd
000001d0: adeb 6ebd c809 a7bc f5bc 1f3d 4027 e83c
000001e0: a5cc c43b 9c4d 54bd 7db6 733d c8fa 9a3b
000001f0: 6c6a 733d 7abd 713c f41c 33bc f805 223d
00000200: 1861 943c 551b 2d3c 7be0 8fbd 42af aebc
00000210: 3271 2f3d 40f1 ceba 28b3 cf3c 77b0 a6b9
00000220: 456a e23c ff49 03bd cb81 ab3c ed64 13bd
00000230: 7836 663d 0034 083b 4256 5cbd 9e15 4bbc
00000240: e071 343d ece4 60bc 6227 5c3d 049e 05bd
00000250: 9dc0 80bd cefa bfbc 5140 99bc ce69 c0bc
00000260: fd05 57bd 5043 94bc 9dcd 143c d121 e2bc
00000270: d252 4fbd 7630 2cbd 3dfa d43c 7373 ae3c
00000280: f4ea 43bd b19e 733c c323 263d 389c 67bd
00000290: 5020 48bd 67b1 a5bc 7827 1cbc 27d1 38bd
000002a0: bbf9 803d a07d 8e3c 2041 96bb 0228 353c
000002b0: f88e 08bd d492 753c ae5d 073c 86fd c8bc
000002c0: 9107 4abc 8b50 6f3c 6e37 38bd 0af1 c23b
000002d0: cb54 d53c bf44 b23c 5145 0dbd 43f0 af3c
000002e0: b0dc 68bc d51f 423c a83f e53c c4f6 a23c
000002f0: 4841 2bbd 173c 57bd c3bd 093c d4b7 e6bc
00000300: 0ab2 ffbb 8804 1abd ab0a 2ebd 276b 91bc
00000310: 90d2 ea3c 4e53 6ebd 32b6 c23c 1cbb 4b3d
00000320: 629b 30bd 4a40 35bd 60ce 4c3c 9f9a d73c
00000330: 4df4 3d3c 1aca e8bc 540f 20bd 6d4d 42bd
00000340: d6db 85bd 97ad ee3c eadd 7c3d 68ef 5c3d
00000350: 3526 6f3d 4ac2 f4bc 5658 e7bc 8e31 e2bc
00000360: 799d 10bd 1633 c73b ab2f 7b3c 2422 c03c
00000370: 02d3 0b3c ddd6 a3bc a083 4fbb dadd a23c
00000380: 7c3a b93c b2fb 08bd 891e 4abd 3107 88bd
00000390: 78c5 4ebb 3569 93bb c58e 72bd b3f2 e63c
000003a0: 7dd1 47bd c8e3 3d3d a535 1b3d 545d 2a3c
000003b0: d79b c33c bff4 913c ad97 503d 16b1 393d
000003c0: 8c34 cc3c c1f9 6c3d 074d 423d 957f cfbc
000003d0: d025 5dbd d5c3 813c f2ac 473d 4d50 32bd
000003e0: f18c fb3c e15e 543d 05b3 b03c 3581 d33b
000003f0: 0dcd 623d dc54 2d3d 13ef 6cbd 2fa0 ac3b

net.2.bias f4 [128]
-0.008611549 0.021436792 -0.019576585 -0.08114695 0.1622501 -0.011140344 -0.0030313747 -0.10306899
-0.06745682 -0.13348436 0.07250223 -0.29466683 0.118864775 -0.03768032 0.05941114 0.035543945
0.15000255 0.03474428 0.012313592 0.011882326 0.081896305 0.31786016 -0.08884529 -0.015015279
0.03658812 -0.029772302 0.021677334 0.17955635 0.006328437 0.006501672 -0.06662163 0.062323872
0.154535 -0.0746511 -0.025763663 -0.026899297 -0.037634213 -0.032576665 0.068094775 -0.074696265
0.223965 0.10161083 0.053593412 0.0822304 0.1505872 -0.03457988 0.09301976 -0.05553598
-0.12869337 0.055056836 -0.04287929 0.090173006 0.0334955 -0.049739547 0.106744096 -0.063597925
0.04126233 0.012429768 -0.04586608 0.0026328212 -0.04959421 -0.061558213 0.33262062 0.06477176
-0.04626647 0.25766754 -0.010793212 0.1123833 0.07550452 0.09554811 0.08924208 0.09741443
0.1260239 0.006837343 0.22805957 -0.15175346 0.090734825 0.031569593 0.12378583 -0.12822708
-0.028475057 0.015735276 -0.08089128 0.011152532 0.009380137 -0.06601564 0.12398768 -0.069899864
-0.004446496 -0.07306651 0.092267245 0.20013954 0.091020465 0.005754432 0.02599172 -0.0041846856
-0.020081973 0.08670749 0.017954072 -0.033976957 -0.12824051 0.07352053 -0.034263883 0.06764311
0.09330835 0.008446781 -0.10878045 0.07739066 0.015210546 0.14258295 -0.17092681 -0.087619506
-0.04691807 -0.025931543 -0.046073742 0.019061081 0.02208781 0.16837737 0.018327516 0.043512393
0.17305645 0.047415804 -0.01754335 0.107081726 0.042117205 -0.00014585437 -0.08035481 0.06844438
00000000: 7417 0dbc 369c af3c 135f a0bc 5f30 a6bd
00000010: e424 263e fd85 36bc 07aa 46bb d615 d3bd
00000020: cd26 8abd 20b0 08be 0d7c 943d 92de 96be
00000030: 606f f33d ae56 1abd 1859 733d 8796 113d
00000040: 459a 193e 0550 0e3d f3be 493c 16ae 423c
00000050: 40b9 a73d 91be a23e 85f4 b5bd a502 76bc
00000060: 6ddd 153d 0be5 f3bc aa94 b13c 9fdd 373e
00000070: c75e cf3b fa0b d53b ec70 88bd 5147 7f3d
00000080: 6c3e 1e3e ade2 98bd 510e d3bc ea5b dcbc
00000090: 5526 1abd 1c6f 05bd 4675 8b3d 5bfa 98bd
000000a0: 1557 653e 5719 d03d c484 5b3d 6968 a83d
000000b0: 8833 1a3e a2a3 0dbd 2581 be3d b279 63bd
000000c0: 32c8 03be 4783 613d 32a2 2fbd a0ac b83d
000000d0: 9432 093d b2bb 4bbd a69c da3d a13f 82bd
000000e0: b002 293d 3aa6 4b3c 12de 3bbd 698b 2c3b
000000f0: 4c23 4bbd 7724 7cbd 404d aa3e 0ea7 843d
00000100: e981 3dbd 00ed 833e 03d6 30bc 3729 e63d
00000110: 1da2 9a3d baae c33d 8dc4 b63d 3781 c73d
00000120: 690c 013e ca0b e03b 7388 693e 4265 1bbe
00000130: 2ed3 b93d 1e4f 013d 6d83 fd3d f64d 03be
00000140: 8644 e9bc 44e7 803c 54aa a5bd 1cb9 363c
00000150: 25af 193c 3533 87bd 41ed fd3d a927 8fbd
00000160: e9b3 91bb e5a3 95bd 9cf6 bc3d 61f1 4c3e
00000170: f068 ba3d ad8f bc3b 96ec d43c b01f 89bb
00000180: f382 a4bc b293 b13d 6b14 933c 6c2b 0bbd
00000190: 7b51 03be ee91 963d 4958 0cbd 7988 8a3d
000001a0: 7318 bf3d 5e64 0a3c 49c8 debd ff7e 9e3d
000001b0: a735 793c 4401 123e 7007 2fbe db71 b3bd
000001c0: 2a2d 40bd 636e d4bc d2b7 3cbd fc25 9c3c
000001d0: 7ff1 b43c 1e6b 2c3e 9623 963c 0d3a 323d
000001e0: b635 313e 1337 423d 12b7 8fbc aa4d db3d
000001f0: 1783 2c3d 7cf0 18b9 1091 a4bd 912c 8c3d

net.4.weight f4 [1, 128]
0.043572165 0.006898831 -0.03234443 0.6747009 -0.66364056 -0.12477274 -0.47760862 0.4084474
0.8399055 0.17770265 -0.11535396 0.79124665 -0.38013506 -0.035526887 -0.6489567 0.21195528
-0.20082445 -1.1050197 -0.00082128163 -0.045646723 0.1092198 -1.0633731 -0.0011248571 0.05674091
0.0030084036 2.048869 0.30690593 0.18517272 0.56262285 -0.44812858 0.036832836 0.24599053
0.85833335 0.10012598 0.06478163 1.8933386 0.7502378 -0.09626966 -0.18401022 0.022203404
-0.3160179 0.9108492 -0.9458881 0.47148305 -0.3518989 1.3935384 0.36850813 -0.053161792
0.4588785 0.56523657 -0.28006423 -0.4235883 0.77493024 -0.86090916 -0.25880653 1.0336609
-0.35176972 -0.2570712 1.333138 -0.016075037 0.1826253 0.57274324 -0.3267828 -0.106850654
0.05918274 0.37557247 -0.081708 0.16457161 -0.27032703 -1.4214047 -0.13483849 1.1781368
-0.25876254 -0.30760387 -0.19212447 0.84493643 0.43122983 -0.15166987 -0.9830581 0.041292198
0.0016815639 0.04260022 -0.07029853 0.5868581 1.2497656 -0.48111832 1.3227389 -0.6939882
0.2094764 0.68301934 0.26429585 0.2520228 1.1402156 -0.04212951 0.23872669 -0.037182327
-0.01225164 -0.22737192 0.07897329 0.002972506 -5.6978965 -0.38199043 -0.003922417 0.48802158
0.33008146 0.3326803 -0.00084167335 0.11826017 0.69325644 -1.1765188 0.09320206 -0.2818854
0.23000285 -0.34707946 -0.40806615 0.17165318 0.81572336 0.22732222 0.014748153 -2.5831637
1.0414101 0.24015649 0.002639575 0.86681634 1.5950326 0.026721392 -0.119264394 0.31795263
00000000: ba78 323d 970f e23b 987b 04bd 33b9 2c3f
00000010: 59e4 29bf da88 ffbd 1e89 f4be 0520 d13e
00000020: 0c04 573f aff7 353e b23e ecbd 248f 4a3f
00000030: 10a1 c2be a484 11bd 0722 26bf ce0a 593e
00000040: eda4 4dbe 4971 8dbf 474b 57ba 0ff8 3abd
00000050: a1ae df3d 9c1c 88bf f16f 93ba 2869 683d
00000060: a328 453b ab20 0340 c622 9d3e eb9d 3d3e
00000070: 0d08 103f 1c71 e5be 07de 163d f1e4 7b3e
00000080: bcbb 5b3f da0e cd3d 3bac 843d eb58 f23f
00000090: 960f 403f 0729 c5bd 2d6d 3cbe eae3 b53c
000000a0: 19cd a1be 6a2d 693f b925 72bf 3a66 f13e
000000b0: 182c b4be 775f b23f 19ad bc3e 2ec0 59bd
000000c0: 1ff2 ea3e 58b3 103f 9464 8fbe 91e0 d8be
000000d0: d461 463f 8b64 5cbf 4a82 84be 004f 843f
000000e0: 291b b4be d69e 83be 44a4 aa3f ccaf 83bc
000000f0: 2002 3b3e 4d9f 123f 1350 a7be 84d4 dabd
00000100: 9a69 723d 094b c03e 8656 a7bd 7685 283e
00000110: 4e68 8abe 97f0 b5bf 1a13 0abe 30cd 963f
00000120: 867c 84be 417e 9dbe 47bc 44be c14d 583f
00000130: 28ca dc3e 594f 1bbe b2a9 7bbf 0222 293d
00000140: ec67 dc3a 917d 2e3d adf8 8fbd 553c 163f
00000150: 52f8 9f3f 2455 f6be 824f a93f 36a9 31bf
00000160: fb80 563e 5bda 2e3f c951 873e 2209 813e
00000170: 96f2 913f fe8f 2cbd c574 743e 7f4c 18bd
00000180: 1abb 48bc 2fd4 68be c0bc a13d 60ce 423b
00000190: 2b55 b6c0 4094 c3be 9e87 80bb f7dd f93e
000001a0: 7000 a93e 1355 aa3e bea3 5cba 6332 f23d
000001b0: 4179 313f 2b98 96bf b9e0 be3d 4853 90be
000001c0: de85 6b3e 66b4 b1be 0cee d0be dac5 2f3e
000001d0: 3fd3 503f 28c7 683e 3da2 713c 8e52 25c0
000001e0: ed4c 853f 95eb 753e b8fc 2c3b ade7 5d3f
000001f0: 072a cc3f d2e6 da3c e440 f4bd b0ca a23e
