A5/modelset/ddpg/ddpg_actor.pt (torch, 138479 bytes, 5 tensors)

net.0.weight f4 [256, 3]
000000 01 f2 ed 3e d6 e9 0a 3e a8 27 6a be 6e 1f 1b 3f
       0.46473697 0.13565764 -0.2286669 0.6059483
000010 a2 27 13 bf 58 7e 60 be c0 4b 15 3f 50 75 47 3e
       -0.5748235 -0.21923196 0.5831871 0.19478345
000020 36 19 7e 3e f5 b9 16 bc 48 49 18 bc 1a 03 39 be
       0.24814305 -0.009199609 -0.009294815 -0.1806759
000030 31 20 fd be 61 8a 1a 3f ef f5 2f be 3a 25 2a 3e
       -0.49438623 0.603674 -0.1718366 0.16615763
000040 e3 c6 04 3f f6 5e 9a bc 17 84 9f 3e 72 c0 c3 be
       0.5186598 -0.018844109 0.31155464 -0.38232762
000050 27 3d 09 3d 4d 45 03 bc 1b 57 89 3d 4d 48 d0 3e
       0.033505585 -0.008012128 0.06706067 0.4068016
000060 93 25 5a be d8 fb d8 3e 54 19 a1 bd 4c ae 76 be
       -0.21303396 0.42379642 -0.07866159 -0.24089926
000070 89 cd 01 bf 9f 9a 78 be 6c 43 2f bf 2b de 6d bc
       -0.50704247 -0.24277733 -0.6846225 -0.014518301
000080 95 30 e6 3e b9 ef a7 be 12 18 17 ba 05 bf 29 be
       0.4495894 -0.3280008 -0.00057637796 -0.16576774
000090 cb 0b c3 be 44 06 16 3f f4 22 71 be 07 33 89 be
       -0.38094935 0.5860331 -0.2354849 -0.26796743
0000a0 4a 3f 72 bf a6 f6 a2 be 2d a4 27 3f d3 d0 0e be
       -0.9462782 -0.31828803 0.6548489 -0.13946848
0000b0 f9 c1 6e be 5e d3 bf 3e 4e 65 de 3e 55 e5 24 be
       -0.23316182 0.37465948 0.43436664 -0.16103108
0000c0 d8 19 9c be 59 13 b6 3e d1 0d 5b 3d fa f5 44 3f
       -0.30488467 0.35561636 0.053479973 0.7693783
0000d0 13 3b 1e be 11 19 50 3e b9 0a de 3e 0d 30 09 bf
       -0.15452223 0.20322062 0.43367556 -0.53588945
0000e0 86 9d 95 3d 80 d5 02 be b0 8c 6f 3f 73 ac 1a 3e
       0.07305436 -0.12776756 0.9357405 0.15104847
0000f0 8d f9 df 3e dd 1d 38 3d 55 bb b2 3e 09 a8 df 3e
       0.4374508 0.044950355 0.34908548 0.43682888
000100 98 f9 19 bf 3c a3 fb bd 4f 31 63 3f 57 2d 24 3e
       -0.60146475 -0.12286994 0.88747114 0.16032921
000110 a1 a6 2f be e0 05 75 3f 92 04 c7 3a 27 4d 3f be
       -0.17153408 0.9571209 0.0015183857 -0.18681775
000120 d8 61 4c 3e 29 83 95 3f 40 2d b7 3e e2 3e 74 bf
       0.199592 1.1680652 0.3577671 -0.9540845
000130 8e 17 9d be 8c da 25 3e 50 39 84 3e 1f 61 97 3e
       -0.30682033 0.1619665 0.25824976 0.29566285
000140 f2 61 8d be 55 f7 4d bf 5a 3f 0d bf 54 98 3a bc
       -0.2761379 -0.80455524 -0.5517479 -0.011388857
000150 95 62 a0 3e d6 22 c0 be ff 2a ce 3e b1 65 8b bf
       0.31325212 -0.37526578 0.40267178 -1.0890409
000160 3f 13 31 3e 9d 3d 9b be 24 88 e1 3e f6 c0 1c bf
       0.17292498 -0.30320445 0.4404918 -0.61231935
000170 99 9d 9c be 5f 98 7b be bf 96 8a 3e 6f dc 04 3d
       -0.30588987 -0.24569844 0.27068135 0.032436784
000180 d5 ee 64 be e8 60 43 bf a3 86 5f be 02 31 00 bf
       -0.22356732 -0.7631974 -0.21828704 -0.5007478
000190 0f 28 9e 3e 58 a4 6b be aa f3 96 bd 72 7d 38 bf
       0.30889937 -0.23011911 -0.07370694 -0.72066414
0001a0 2f be 0e be aa 83 f3 3d 53 70 af be 2d b1 e0 be
       -0.13939737 0.11890347 -0.34265384 -0.43885174
0001b0 b3 a5 38 be 5b a8 1f 3f f4 76 05 3f f6 ca c2 3e
       -0.18031959 0.62366265 0.52134633 0.38045472
0001c0 0e dc fd 3e e5 89 84 be 34 69 2a bf ea ae 87 bf
       0.4958195 -0.25886455 -0.6656678 -1.0600255
0001d0 5f be 6b 3e b4 07 c5 be ab 74 2c 3e 2d 63 c8 3e
       0.2302184 -0.3848244 0.1684138 0.39138165
0001e0 b7 3f 27 be 8c cd 61 3f 18 6a f1 3c b7 e8 20 3e
       -0.16332899 0.88204265 0.029469535 0.15713774
0001f0 6d 4c 94 3e c9 fc f7 bd 5f f5 b8 be ab 78 38 bf
       0.28964558 -0.12108762 -0.36124703 -0.72059125
000200 a4 92 77 be 39 3d bc bd 54 55 16 be 67 fb 23 be
       -0.24177033 -0.09191365 -0.14680988 -0.16013871
000210 b8 6b 0c 3f be 9a 23 bf 18 f4 a7 3e 9d 33 0f bf
       0.54851866 -0.6390799 0.32803416 -0.5593813
000220 37 0c b2 3d 14 8a e7 3e 48 39 40 3f 58 98 b1 be
       0.08693736 0.45222533 0.75087404 -0.34686542
000230 94 04 55 3c c2 b8 ad 3c 58 cb d5 be cd 69 a3 be
       0.01300158 0.021206263 -0.417567 -0.31916657
000240 eb 9b 2a 3d 9d 46 71 3f 21 db 2e be 0e 58 1b 3e
       0.0416526 0.9424837 -0.17075779 0.15170309
000250 db 80 3d 3f d3 18 c9 be 60 b6 b8 3e 22 91 08 3f
       0.7402474 -0.39276752 0.3607664 0.53346455
000260 2f 67 fa 3d 80 6b b2 3e d3 9a 37 3f d8 71 85 bd
       0.12226712 0.3484764 0.7172062 -0.065158546
000270 78 98 81 be eb a3 96 3e b3 29 61 be 25 ac 54 be
       -0.25311637 0.29421934 -0.21988563 -0.20768793
000280 bf 53 e6 3e 25 4d 48 be 6e 45 fe 3d c3 a5 a4 3e
       0.44985768 -0.19560678 0.124155864 0.32157716
000290 79 14 fe bd d3 8f e2 3e bc 6a cf 3e 5a fb c6 bd
       -0.124062486 0.44250354 0.4051112 -0.0971591
0002a0 04 5c 63 be d9 ce e3 3d a5 88 0a be c3 56 6e bd
       -0.2220307 0.111234374 -0.13528688 -0.05818821
0002b0 4d 2d d5 3d fb 7b 4c be 6f 34 21 3f 02 3a 3f 3f
       0.10409031 -0.1996917 0.6297063 0.7469789
0002c0 1d a3 28 bd fe 1c 19 be 51 2f c8 bd 5c a1 07 3f
       -0.041171182 -0.14952466 -0.0977465 0.5298059
0002d0 90 dc 27 be ad 16 20 bf 72 f6 03 3f 70 17 00 be
       -0.16392732 -0.625346 0.5154792 -0.1250894
0002e0 36 cf 32 bf e0 33 84 be 99 c4 95 3e 8e f6 21 be
       -0.6984743 -0.25820827 0.29251555 -0.1581671
0002f0 c0 63 57 be 20 14 44 3f df 98 90 be 84 05 83 be
       -0.21034145 0.7659321 -0.2824163 -0.25590146
000300 9b 9c 96 3e 4f 4e 06 bf 77 ca 19 be 38 de bc 3e
       0.29416355 -0.5246324 -0.1501864 0.3688829
000310 d2 eb bf 3e df 48 a7 3e 1b 3f bb 3e 27 2e 11 3f
       0.37484604 0.32672784 0.36571583 0.5671105
000320 f6 98 9a 3e 61 d6 94 be 1a 0b b0 3e 15 53 8a 3e
       0.30194825 -0.29069808 0.3438347 0.27016512
000330 dc a9 61 bf 9a a7 ef be f9 da 14 3e 7a 23 c2 3e
       -0.8814981 -0.46807557 0.14536656 0.3791769
000340 ac f9 72 bf 47 d7 53 be 47 d5 a4 be dc c7 0b 3e
       -0.9491222 -0.2068759 -0.32193968 0.13650459
000350 c2 d3 3a be 2e 73 c3 3e 73 cb f7 3e 9b a1 e2 be
       -0.18244842 0.38173813 0.48397407 -0.4426392
000360 22 cf 44 bf 37 77 2d 3d c8 69 ad bd 77 c3 e6 be
       -0.7687856 0.04235002 -0.08467442 -0.45071003
000370 33 5d c9 be d9 d1 1e be ad e6 08 3e e4 11 6c bf
       -0.39328918 -0.15509738 0.13369246 -0.922148
000380 5f ed 42 be 63 b6 33 3f 07 87 2e bd 8a 5f b2 be
       -0.19035862 0.70200175 -0.04260924 -0.34838516
000390 af de 08 3f 38 57 73 3f 61 cf ba 3e f1 cf 44 bf
       0.5346479 0.9505496 0.36486343 -0.76879793
0003a0 9d c7 52 3f d5 19 8b 3e 8a db be be 3f d6 16 3f
       0.82335836 0.27168146 -0.3727687 0.58920664
0003b0 c8 e9 38 be 28 da 4c bf 03 47 f0 3e de ab 73 bd
       -0.1805793 -0.8002038 0.46929178 -0.059490077
0003c0 e0 f0 93 be 15 f8 29 bf 44 5a 83 bd f5 15 34 be
       -0.2889471 -0.6639417 -0.06413701 -0.17586501
0003d0 75 0a d3 be 01 6d 2a be 8d fc 8f bd 3a 6f 30 3f
       -0.41218916 -0.16643144 -0.07030592 0.6891972
0003e0 c5 0b b7 3e 92 6d bf 3b f6 e2 77 3f 3f 38 05 3e
       0.35751167 0.005841919 0.9683069 0.13009737
0003f0 60 eb 49 3f c0 31 79 be 5c 62 e0 3e eb 44 d5 3e
       0.7887478 -0.24335384 0.43825042 0.41654143

net.0.bias f4 [256]
000000 71 5a 0d 3e b8 df 38 bf d8 95 2a bf a9 fd ff bd
       0.13804032 -0.7221637 -0.66634893 -0.12499554
000010 42 0c 9d 3d 62 fa f8 3e e6 60 bf 3d 95 f9 9f 3c
       0.076683536 0.48628527 0.09344654 0.01952819
000020 10 a8 4f 3e 98 72 c7 3e 35 25 17 3e 7f 13 60 3e
       0.20278955 0.38954616 0.14760287 0.21882437
000030 bb cb f6 3e 58 13 5a be 2f 30 b3 bd 73 fc 0f 3d
       0.4820231 -0.21296442 -0.08749425 0.035152864
000040 ca 5d f4 3e 50 2b a6 3e a0 5f 8e 3e 17 3d 86 3e
       0.47727805 0.3245492 0.2780733 0.26218483
000050 b3 a3 0c 3f ec 85 e8 bd f2 20 e4 3d 2c ff 8e be
       0.54937285 -0.113536686 0.11139096 -0.27929056
000060 c8 b0 40 be 24 c8 c3 3e 49 f8 28 3e 55 cf d2 be
       -0.18817437 0.38238633 0.16500963 -0.41173807
000070 0e b7 9e 3c 56 df 0c 3e 4a 23 b9 3d b7 01 bc 3e
       0.019374397 0.13757071 0.09039934 0.36720058
000080 e7 a5 04 be ae 09 05 3f bb a2 dd bc f3 7c 64 bf
       -0.12953912 0.51967895 -0.027055135 -0.8925316
000090 db 36 03 bc b0 45 15 bb f8 6a 22 3f a3 75 8d 3d
       -0.008008684 -0.0022777133 0.6344447 0.06907203
0000a0 c8 b8 66 bd 1e 51 7e 3e f9 96 ad 3a e8 4e d2 3e
       -0.056328565 0.24835631 0.0013243846 0.41075826
0000b0 6d 5e 28 3e 15 15 60 3e 2b ef 5e 3e a9 b2 14 bf
       0.1644227 0.21883042 0.21770923 -0.58085114
0000c0 25 45 e6 be 30 05 0b 3e 2c 8b dc be d1 c3 8d be
       -0.44974628 0.13576198 -0.4307493 -0.2768846
0000d0 9f 5f 8b 3e ec a5 60 bf bf 54 91 3e 45 4e a1 3d
       0.2722139 -0.87753177 0.2838497 0.07876257
0000e0 46 0e b8 3e 52 52 55 bf c2 19 0d bf 99 0d c1 be
       0.3594839 -0.83328736 -0.5511743 -0.37705687
0000f0 e3 32 1d be 5e bc 6b be 63 a7 28 bf a5 80 21 bf
       -0.15351443 -0.23021075 -0.6588041 -0.6308692
000100 32 aa 2e be 15 85 04 3f ed f7 05 bd 2c 4b 96 bd
       -0.17057112 0.5176557 -0.032707144 -0.07338557
000110 94 10 84 be 44 d2 e6 3d 90 99 fc 3e 88 26 95 3e
       -0.25793898 0.11270574 0.4933591 0.2913096
000120 ba 35 7a be 45 47 ae be 1c 84 d8 be f0 68 2d bf
       -0.24434558 -0.3403875 -0.4228829 -0.67738247
000130 d7 c0 f4 bc 94 d4 d2 3e 6e 56 e1 be aa 4d 3d bd
       -0.02987711 0.4117781 -0.44011253 -0.046216644
000140 13 22 0c 3f a4 9e 63 bd 96 0c 13 3f c1 83 2e 3e
       0.54739493 -0.055571213 0.5744108 0.17042448
000150 0e ce b0 3e ba 6a e2 be 84 32 e1 3e 60 e3 c2 3d
       0.34532207 -0.4422205 0.43983853 0.095160246
000160 db 2c 38 bd 3a 98 f9 3e 30 88 1d 3d b7 1a 2f 3e
       -0.044964653 0.48748952 0.038459957 0.17100035
000170 d7 73 b8 3e 5f 43 8f be 30 5c 14 3f e5 91 8a be
       0.3602588 -0.27981088 0.57953167 -0.27064434
000180 a1 be ae 3e fa 22 6f 3e fb 02 53 bf 34 4f 19 3f
       0.34129813 0.23353186 -0.8242642 0.5988648
000190 4e da 05 bf e4 b7 1e 3f 8e f4 23 bf 0c 23 0e bf
       -0.5228623 0.61999345 -0.64045036 -0.5552223
0001a0 32 84 bb be 95 76 db 3e 8b c3 00 bf d6 b3 2a 3e
       -0.36624295 0.42863908 -0.50298375 0.16670164
0001b0 57 6a df 3e d1 df 77 3e f7 57 80 3e bb 45 12 3e
       0.43635818 0.24206473 0.25067112 0.14284413
0001c0 78 ca 2c 3f 6e 38 6b bf 44 27 06 3f bc ab fa 3c
       0.6749644 -0.9188298 0.52403665 0.030599467
0001d0 aa 44 04 3f e4 17 c6 bc f3 1e 19 be 34 fe b7 bc
       0.51667273 -0.024181314 -0.14953212 -0.02246008
0001e0 d8 2c 1b 3f 04 7f 09 bf 9f 9d 75 be c8 12 1e 3e
       0.606153 -0.53709435 -0.23985909 0.15436852
0001f0 d8 b4 6b 3e 4e 43 e7 3e dd 3b 29 3f 92 a8 c0 bc
       0.23018205 0.45168537 0.6610697 -0.02351788
000200 0c 60 eb 3e 43 b1 0e 3e 37 27 c2 3e 14 9a 71 be
       0.45971715 0.13934807 0.37920544 -0.23593932
000210 c1 c5 03 be a8 19 a0 3e 4e f4 16 3e 48 03 92 3e
       -0.12868406 0.31269574 0.14741632 0.28518128
000220 3e 9b 57 3f ac f2 9c be 34 60 88 be 6f 0f 7f be
       0.84221256 -0.30653894 -0.26635897 -0.24908231
000230 ad 0b 1e be d0 b3 5a bf 24 ee 1e bf 62 77 98 3e
       -0.15434141 -0.8543062 -0.62082124 0.29778582
000240 c2 97 d8 3e 6c d5 78 3e 42 65 a2 3e 95 cc 12 3f
       0.42303282 0.24300164 0.3171788 0.5734342
000250 0a dd d9 bd cd 68 af be a0 0a 2f 3f dd 5c 3d 3e
       -0.10637863 -0.34259644 0.6837559 0.18492456
000260 4b 2d f8 bd 69 e0 1e bf 06 b7 54 3d e5 52 19 3f
       -0.12118014 -0.6206117 0.051932357 0.5989211
000270 04 31 37 3d 89 b9 91 be 7d 0a 6e 3e f0 2f ae be
       0.04472448 -0.28461865 0.23246188 -0.34020948
000280 29 c6 f6 3e 09 55 b7 3d 6c 6e 28 3d 8e e8 37 bf
       0.4819806 0.08951766 0.04112093 -0.71839225
000290 41 07 c2 be a8 43 a2 3e d7 8d 28 be 0a 92 f1 be
       -0.3789616 0.31692243 -0.16460358 -0.4718173
0002a0 78 b3 8e be 94 91 4c be ef 7a 71 bf 65 14 f5 bc
       -0.278713 -0.19977409 -0.94328207 -0.029916951
0002b0 a6 b7 e4 be ca 2f e0 3e a5 06 29 be 28 b5 20 3f
       -0.44671363 0.4378646 -0.16506441 0.6277642
0002c0 ec 93 8a 3e 25 26 ec be c3 06 92 3e a9 2b 8c be
       0.2706598 -0.46122852 0.28520784 -0.2737706
0002d0 54 67 dc bd fe 13 27 3d f0 f3 76 3e bc b7 80 3e
       -0.10761896 0.04079055 0.24116492 0.25140178
0002e0 5a 5c 79 be 79 5a 2f be 72 07 95 3e 4d 0b df be
       -0.24351636 -0.17124356 0.29107243 -0.4356331
0002f0 58 cb d4 bd 1f a1 c3 3e f3 f4 27 be be 71 0a bf
       -0.10390347 0.38208863 -0.16402034 -0.54079807
000300 03 44 32 be 45 ae 98 be 98 e7 fa bd d4 1f 4f bd
       -0.17408757 -0.29820457 -0.12251204 -0.050567463
000310 0b 67 af 3e 6b 3b 5b be dc e1 a8 3d 34 2b 9c 3e
       0.34258303 -0.21409385 0.08246204 0.3050171
000320 6e 38 34 3e 4c 8d f4 be 76 1c 43 bf 7b 6d 90 bc
       0.17599651 -0.4776405 -0.762153 -0.01763033
000330 5d 48 91 3e 9b 52 08 3f 1a 41 47 3c 26 3d a8 3d
       0.2837552 0.53251046 0.0121615175 0.08214788
000340 33 90 5f 3e 0e b6 f7 bd 9b 66 cc be f8 60 f6 be
       0.21832351 -0.12095271 -0.39922032 -0.48120856
000350 ff 5a f8 3e 73 f1 1c 3f 12 79 8d bd 1c 74 30 bf
       0.48506925 0.6130592 -0.06907858 -0.6892717
000360 f0 9c 1f 3f 64 45 c5 3e d0 45 98 3e 63 66 91 be
       0.6234884 0.38529503 0.29740763 -0.28398427
000370 f3 00 e9 3e 6f 4a b1 be c9 f5 2c bf c1 ad d4 3e
       0.45508537 -0.346271 -0.6756254 0.41538814
000380 ca eb 5a bf 6c 48 10 be 35 8b 21 bd 14 c8 a5 3e
       -0.85516036 -0.14090127 -0.0394394 0.3237921
000390 4c a0 31 3f 88 7e 1e bc 8b c6 eb be 28 f7 b9 3e
       0.6938522 -0.009673722 -0.46049914 0.36321378
0003a0 25 8c 88 3e 3f 0b 17 3d 82 73 cb 3e e6 57 53 3d
       0.26669422 0.03687596 0.39736563 0.0515975
0003b0 e1 1b eb 3e 74 16 a6 be dc a1 33 3e 85 50 fa be
       0.45919707 -0.32439005 0.17542213 -0.48889557
0003c0 42 47 55 3e 20 41 99 be 66 36 58 bf 3a e9 89 be
       0.20827964 -0.299325 -0.84458005 -0.2693575
0003d0 fe 4b 19 be 3b 31 a9 3d 99 70 e4 3e 61 dd f8 3e
       -0.14970395 0.08261343 0.44617155 0.486064
0003e0 0f 7b 30 3e 56 40 68 3e b6 51 8c be bc 19 0b 3f
       0.17234443 0.22680792 -0.2740609 0.5433614
0003f0 0a 1c 04 bf 18 5c dc 3e 24 ec 1f bc 91 6b 9f be
       -0.51605284 0.43039012 -0.00976089 -0.31136754

net.2.weight f4 [128, 256]
000000 c3 70 d8 3c 6e fd 13 be 21 0b 75 be f8 5d 08 bd
       0.026420956 -0.14452145 -0.23930027 -0.03329274
000010 30 73 fa 3c 23 5d c6 3b ae 5d 60 3e ab 76 28 bf
       0.030572504 0.006053583 0.21910736 -0.6580607
000020 92 92 a5 3d ce 45 33 bb 60 1c dd bc 15 63 41 3c
       0.08084597 -0.002735484 -0.02699107 0.011803408
000030 6e 7c 92 3d 59 e9 a6 3e 2f bc 7c ba 42 87 1e 3d
       0.07152639 0.32599905 -0.00096410787 0.03870321
000040 f7 7e e9 3c da 6a 60 3d e5 be 88 3d 63 98 07 3e
       0.028502924 0.0547894 0.06677035 0.13241725
000050 60 e1 93 3c 62 8e 13 c0 ba 9c 8e 3d a0 e2 07 bd
       0.018051803 -2.3055654 0.06963487 -0.03317511
000060 6d a5 f4 3d 88 13 36 bd 9a 99 85 3d 65 47 22 3d
       0.11945615 -0.04445222 0.06523438 0.03961887
000070 36 6c e6 be ad 15 67 3d 2c be 0d bb 5c 4a 35 3d
       -0.45004433 0.056417156 -0.0021628244 0.044260368
000080 2e fa f2 3d 0b ab 3e 3d f4 f5 f3 be a0 c4 18 3e
       0.11864124 0.046549838 -0.47648585 0.14918756
000090 2c 7f 69 3b 09 20 6d 3d 3c 2f 35 3c 66 a1 d4 be
       0.003562878 0.05789188 0.011058625 -0.41529387
0000a0 91 f0 6b bd 99 61 eb 3d d3 7d 87 3d 09 6b 4b 3d
       -0.05760247 0.11493225 0.06615796 0.049662624
0000b0 71 75 60 be f6 a3 cd be 2e a6 c3 3d 6f b1 a1 3e
       -0.219198 -0.40164155 0.09553181 0.31580684
0000c0 fd 2c ff 3d c1 35 8d 3d e3 54 d2 3e c1 04 cd 3d
       0.12459753 0.06895018 0.41080388 0.10010672
0000d0 3a e1 82 3d b8 96 83 3d eb 91 9d 3d 3e 6d 0c 3e
       0.06390615 0.06425232 0.07693847 0.13713548
0000e0 43 1e 0a 3e f3 e2 01 be 2f a7 7c 3c a2 f7 3f 3e
       0.13488106 -0.1268423 0.015420719 0.18746808
0000f0 6e d7 8b 3e 3a e4 73 3e 04 b1 96 be b5 1b 73 c0
       0.27312797 0.2381753 -0.29431927 -3.798566
000100 06 e7 b4 bf 0b a9 dd bc bf c2 c6 3c e8 07 ea bd
       -1.4133003 -0.027058145 0.024262784 -0.11427289
000110 a9 4a 59 be dc 1c 8f c0 ef 8b f0 3d 2b c0 bf 3d
       -0.21219887 -4.472273 0.1174544 0.09362825
000120 10 94 05 bb 61 66 d5 3e 0f cc b9 bd d3 dd 67 be
       -0.0020382442 0.4167967 -0.09072124 -0.22643213
000130 86 30 04 3e 52 c0 4e 3e f1 ca 03 3e bc 37 0e 3e
       0.12909135 0.20190552 0.12870385 0.13888448
000140 1e a9 1b bd e7 42 a0 3b fa d5 29 3e ed 2f 89 3d
       -0.03800308 0.004890788 0.16585532 0.06698594
000150 19 f9 89 bd 8b c0 71 3d 4e c1 14 be 04 d8 23 be
       -0.06736965 0.059021514 -0.14526865 -0.16000372
000160 ab c2 81 be 46 f2 3f 3b bd af dd bd a5 fa ea 3c
       -0.25343832 0.0029288693 -0.10824535 0.02868397
000170 85 1a 38 bf 80 c9 34 be 0b 7b a3 3d c3 36 ac bd
       -0.71915466 -0.17654991 0.07982453 -0.084088825
000180 f9 39 a8 be 06 e5 b4 3d e6 c3 ea be de 55 14 bd
       -0.3285673 0.08832745 -0.45852584 -0.0362147
000190 2a ad 4e bf 32 9c e5 3d 32 3a 85 3d f0 23 19 3c
       -0.8073298 0.112114325 0.065052405 0.009346947
0001a0 94 bd 72 3d dd 5b f4 3c b9 d5 8b c0 b9 80 e8 bb
       0.059262827 0.02982896 -4.369839 -0.007095423
0001b0 96 cd bc 3d 82 a5 95 3d e6 8b 2c bf f6 51 79 be
       0.092189 0.07306959 -0.6740097 -0.24347672
0001c0 46 6d af 3c 6b 02 5f bd 20 90 bd bb de 2e a2 c0
       0.02141441 -0.054445665 -0.0057850033 -5.068221
0001d0 90 79 a4 bc 60 ed 32 c0 2c 34 08 3e b5 0f 95 3d
       -0.020077497 -2.7957382 0.13301152 0.072783865
0001e0 d0 ac bc 3d 8c e1 cd bd be 2f f3 be 68 7b eb be
       0.09212649 -0.10052785 -0.47497362 -0.4599259
0001f0 79 39 2c 3d de 61 d1 3d 63 c1 9b 3d 3b 5d 56 3e
       0.042046998 0.10223745 0.07605245 0.20934002
000200 cb f7 5c 3d 1a cf 48 3d 4c 67 f0 3b b6 e5 d6 3d
       0.05394725 0.049025632 0.0073365327 0.10493033
000210 33 1b f8 3c 77 c3 d6 3d 0e 88 cc 3c 7a d7 92 3d
       0.030286407 0.10486501 0.02496722 0.07170005
000220 0f f7 0e 3d 3f 79 94 bc 74 a8 34 bf be 5a 52 3d
       0.034903582 -0.01812422 -0.7056954 0.05135607
000230 01 8e 09 be 7f e3 4b be ab 7a d4 3d 2c 1c 90 3d
       -0.13433076 -0.19911002 0.103749596 0.07036623
000240 be bb 33 3d 1a 24 79 3d 8c e4 a1 bc 17 85 20 3d
       0.043880217 0.060825445 -0.0197623 0.039189424
000250 41 6d 69 be c9 04 54 bd 21 e4 8e 3d 4f 3a dd bd
       -0.22795583 -0.051762376 0.06977106 -0.10802137
000260 80 8a b2 3d 15 98 c5 bf a1 34 aa 3d 32 76 a8 bc
       0.08717823 -1.5437037 0.083108194 -0.020564172
000270 77 11 62 bd f0 d7 e2 be 32 1a 85 ba a4 60 b2 bd
       -0.055192437 -0.44305372 -0.0010154902 -0.08709839
000280 5d 65 03 3d f4 24 f9 3d 56 42 0e bf cf cf 2f be
       0.03207909 0.121652514 -0.5556997 -0.17169116
000290 28 a0 73 c0 70 19 21 3c 10 ae f0 bd f9 31 7a bf
       -3.8066502 0.009832725 -0.1175195 -0.977325
0002a0 c6 5d 71 bf e7 4f 19 bd 79 4f 13 3e 2f dc 48 bd
       -0.9428371 -0.037429716 0.14385785 -0.04903811
0002b0 e1 a4 27 be 3e 59 05 3d b8 b0 51 be 00 8b 3a 3d
       -0.1637149 0.03255581 -0.20477569 0.045542717
0002c0 f1 82 03 3d 2b 18 33 be 26 85 0a bd f0 23 6b 3d
       0.032107297 -0.17489688 -0.033818386 0.05740732
0002d0 2e 55 16 be 80 4d 3f be 2b 38 76 bb b9 5c 21 3e
       -0.14680931 -0.18681908 -0.00375701 0.15758027
0002e0 f7 fa cb 3e d0 ad d4 be 27 72 39 3e 9f 50 49 3e
       0.39839908 -0.41538858 0.18109952 0.19659661
0002f0 62 1a ce 3d e9 72 35 3c cc 5c 1d 3f 82 73 5e be
       0.10063626 0.01107476 0.6146972 -0.2172375
000300 b1 71 f7 3d 33 f1 70 be e2 5d c1 be 23 3f 3c 3d
       0.12082232 -0.2352951 -0.3776694 0.04595865
000310 55 98 d7 3d 76 9c d3 be 17 4c c9 bc 5c 47 11 3d
       0.10527102 -0.41330308 -0.024572415 0.035468444
000320 87 23 01 3d 15 f4 09 be db 6d 18 bf ec 04 94 3d
       0.031528022 -0.13472016 -0.59542626 0.07227501
000330 9e 4c e1 3d d7 ef 0c 3d 9b 2b bc be 12 9e 81 3c
       0.11000942 0.034408417 -0.36752018 0.015822444
000340 4f 7b 93 bd 6c b8 4a 3e 05 90 07 c0 cf f6 aa bf
       -0.072012536 0.19796914 -2.1181653 -1.335657
000350 58 95 96 3d 8b 31 1e 3d 40 30 4a 3d 05 3d 94 bf
       0.07352704 0.038621467 0.04936242 -1.1581122
000360 69 87 4a 3d 1a dd 8f 3b 9d 61 ab 3e e1 70 a6 3d
       0.049445543 0.004390371 0.3347291 0.08126999
000370 c8 0c 9d 3d b1 59 7b be 0d a4 55 c0 13 3c 79 3d
       0.076684535 -0.24545933 -3.3381379 0.060848307
000380 09 59 2f c0 45 08 2e be fd 83 be bd 9c 06 e3 3b
       -2.7398093 -0.16995342 -0.093025185 0.006928278
000390 56 a6 bc 3d e8 43 a7 be b2 3e 6c c0 5f 78 29 3d
       0.092114136 -0.32668996 -3.6913266 0.04137456
0003a0 8e 16 7e 3c 1d 63 4d 3e 3e f1 00 3e cc e4 39 bd
       0.015508307 0.2005734 0.12592027 -0.045384213
0003b0 8e bd a2 3d 53 cc b5 bd fa 81 0a 3e 16 b1 39 3d
       0.07946311 -0.088768624 0.13526145 0.045334898
0003c0 03 6a 83 3d 05 e4 b9 bc 80 08 8f 3d 6d d1 e9 3c
       0.064167045 -0.022691736 0.06984043 0.028542245
0003d0 1d 23 8c be 19 61 e5 3d 73 f2 dd 3d 1e ff 80 bd
       -0.2737054 0.112001605 0.10837259 -0.0629866
0003e0 18 3b 8f 3d 55 35 97 3d b4 af 44 bd b1 cc a9 3d
       0.06993693 0.07383219 -0.048019126 0.08290995
0003f0 f6 72 31 3e 30 85 02 3e 45 d0 0a be e5 0b 8b c0
       0.1732901 0.1274612 -0.13556011 -4.345202

net.2.bias f4 [128]
000000 b9 f9 2c 3d 73 81 a4 3b 91 05 87 bc 4a 83 87 bd
       0.04223034 0.0050203144 -0.016482146 -0.06616838
000010 d7 1d 3c 3d 04 97 29 bd ed 9f 1c 3d 0e 9a 15 3b
       0.045926895 -0.041403785 0.038238455 0.002282742
000020 14 62 95 bd 23 8e a3 bb 2c 57 0a 3d 24 47 37 3d
       -0.072940975 -0.0049913093 0.03377454 0.04474558
000030 07 29 59 bd c2 68 d9 bd 5d 51 69 3b a6 eb 64 3c
       -0.053017642 -0.10615684 0.0035601475 0.013972199
000040 32 a3 9d bd 21 08 04 3e 39 1d 83 3d f2 a2 3f 3c
       -0.07697143 0.12893726 0.06402058 0.011696564
000050 0b 02 5d 3d d6 6e ff 3d 15 63 74 bd 1a cf 4a bb
       0.053957026 0.12472312 -0.059664804 -0.0030946196
000060 17 5e 0c 3e eb bd c0 bc 14 82 b8 3d 84 92 0e 3e
       0.13707767 -0.02352806 0.090091854 0.13923079
000070 c9 c2 6a bd 31 53 51 3c 6d 65 8a bd c1 ef 30 3c
       -0.057314668 0.012776182 -0.06757627 0.010799349
000080 1a 66 95 3d f3 83 39 39 a0 db c4 bb f2 68 a5 bc
       0.07294865 0.0001769213 -0.0060076267 -0.020191643
000090 a6 a2 08 3d 3b b5 23 3d 37 66 da 3c a1 f8 9f bd
       0.03335824 0.039967757 0.026660068 -0.07811094
0000a0 ee 51 8a 3d fc 7e fa bc 24 62 8f 3d 2e 20 40 bc
       0.06753908 -0.030578129 0.07001141 -0.011726422
0000b0 36 36 67 3d d5 ae 83 3c 68 3f b7 bd 22 90 83 bd
       0.056448184 0.016074577 -0.08947641 -0.064239755
0000c0 72 16 b1 3c f6 98 79 3d eb fb 07 3d a5 ea be 3d
       0.021617148 0.06093689 0.033199232 0.09322099
0000d0 94 5e 13 3c 39 18 0f 3d c2 7f 80 3c 2d 53 9a 3d
       0.008994717 0.03493521 0.01568592 0.07535396
0000e0 91 57 5e 3d c5 89 18 bd e1 7d 85 bb bb 7c b0 3c
       0.05428273 -0.037240762 -0.004073844 0.021543851
0000f0 61 08 42 bd cb 6c 43 3d 4f a5 81 3d 46 d3 d4 bd
       -0.047371272 0.047711175 0.06330358 -0.1039186
000100 f9 4c 33 bd 02 3d 51 3d f0 cb 84 3d 78 03 27 bd
       -0.04377458 0.051083572 0.064842105 -0.040774792
000110 23 3a 99 bc 1e 59 5b 3d 12 5e 99 bd 83 59 39 3d
       -0.01870448 0.053551786 -0.074886456 0.04525138
000120 78 6e 20 3d 20 05 0f 3d 57 a9 d5 3c 34 7a aa bd
       0.03916785 0.034916997 0.026081724 -0.0832409
000130 84 0a b8 3d 83 9b 11 3e 06 3d db 3d 38 f8 9d bc
       0.08986381 0.1421948 0.10704999 -0.019283399
000140 ae 01 e9 3c 08 ae cd 3d d6 eb b6 3a 41 4c 9b bd
       0.028443184 0.100429595 0.0013955783 -0.07582904
000150 f2 54 20 3d 9a 12 3e bd 00 4d fc 3d 7f 69 2d bd
       0.03914351 -0.04640446 0.12319374 -0.042336937
000160 ce 15 a5 bd 92 0b 97 bd 8d f8 20 bd 2a 3d 5c 3d
       -0.080607995 -0.07375254 -0.039299536 0.053769268
000170 82 52 5a 3d 35 ea 47 3c 3c f7 69 3b 3b 84 e3 bb
       0.05330134 0.012201835 0.0035700342 -0.0069432533
000180 a7 94 98 3d 6e 04 b2 3d da 0a 92 bc 3b d3 bf 3c
       0.07450228 0.08692251 -0.01782744 0.023416152
000190 48 87 1e bd f0 bc 80 ba b8 84 df bc a6 da da bc
       -0.038703233 -0.0009821933 -0.027284965 -0.026715588
0001a0 e7 7e 90 bd 24 fe 6a bd 73 2c 4a b7 92 ca 9b bc
       -0.07055455 -0.057371274 -1.2050487e-05 -0.019017491
0001b0 9e b0 40 bd cc a6 a5 bd 4e 83 09 bd 01 09 1f bc
       -0.047043435 -0.080884546 -0.033572488 -0.009706737
0001c0 56 a3 57 bd 74 c4 79 bd ae 34 8f bd 46 c3 8a 3c
       -0.052646004 -0.060978368 -0.0699247 0.016938817
0001d0 e7 be c4 bc 0b 54 98 3d 59 4f c9 3c 69 b4 bb bd
       -0.02401681 0.07437905 0.024573969 -0.0916527
0001e0 35 b2 95 bd 89 d7 57 3d e1 fc 69 bc 3f 10 03 3b
       -0.07309381 0.052695785 -0.014281482 0.0019998697
0001f0 f2 28 12 3d 08 ab ad 3b 0c a9 59 bd 62 5d 5f 3d
       0.03568358 0.0052999295 -0.05313973 0.054532416

net.4.weight f4 [1, 128]
000000 ae 28 39 3f 62 7a 94 bd ed 24 00 bd 49 6d 84 bf
       0.723277 -0.07249905 -0.031285215 -1.0345851
000010 af 20 65 be e9 d5 4e be 32 c0 d1 3d 89 45 12 3b
       -0.22375749 -0.20198788 0.102417365 0.0022319278
000020 96 95 9a 3e 3f 89 0d 3e 7b fa 04 3a ce 8f b7 3d
       0.3019225 0.13821886 0.0005072725 0.089629754
000030 4f 38 28 be e4 84 08 bf 4b ae 3c 3e 33 8d 17 3e
       -0.1642773 -0.53327775 0.18425862 0.14799957
000040 77 43 1d be 76 4b b0 bd e6 b4 ee bd 38 b1 39 bd
       -0.15357767 -0.08608143 -0.116555974 -0.045335025
000050 32 d6 91 3d d6 c0 88 be d5 c5 6d 3e f6 21 9f 3e
       0.07120933 -0.26709622 0.23219998 0.31080598
000060 28 54 97 3e 9b 5a 6c 3e ec 5f b0 3e e4 ae 80 3e
       0.29556394 0.23081438 0.34448183 0.2513343
000070 f3 65 dc 3c 9f fb 83 be 67 93 11 3d 22 c3 ee 3d
       0.026904082 -0.2577791 0.035540964 0.116583124
000080 1b 5d 3b 3e 7e 59 2c 3e ac f5 56 3e 69 bf c9 3e
       0.18297236 0.16831014 0.20992154 0.39403847
000090 fc db de 3e 1d 2e f7 bd 8e 64 af bd bf 3d 77 3f
       0.4352721 -0.12069342 -0.08564101 0.9657859
0000a0 94 bb 90 bd c1 7a 52 3d 1a 86 fd bd 26 34 73 3d
       -0.07067028 0.0513866 -0.123790935 0.059375905
0000b0 8c 68 bc bd 86 11 97 3d 3f 70 5f 3e b2 b4 a8 bd
       -0.09199628 0.07376389 0.21820162 -0.0823759
0000c0 cf 6b 3b 3e 53 6b 28 3e 2e a3 6b be ed 83 4a bf
       0.18302844 0.16447191 -0.23011467 -0.7910755
0000d0 ee 5a ca be bf 91 79 3f 76 57 fa 3e d0 43 a3 3d
       -0.395225 0.97488016 0.48894852 0.079719186
0000e0 de 6c 53 3e 33 c9 09 c0 ad 9b c6 3e 24 69 aa bd
       0.20646998 -2.1529052 0.38790646 -0.08320835
0000f0 fe d6 f2 3c d5 20 14 3e 68 1c 71 be d5 d9 b4 bf
       0.029643532 0.1446565 -0.23545992 -1.4128977
000100 0c bb 8f 3d de 36 02 3f 77 28 84 be 28 59 a6 3d
       0.07018098 0.5086497 -0.25812122 0.08122474
000110 92 55 7f bd 1d 3b 11 bf d9 b6 c8 be 35 2d 69 be
       -0.062337466 -0.56730825 -0.39202002 -0.22771151
000120 2c 11 ab be fa 6c 97 bd 2f b6 ff 3e 92 ba a6 3e
       -0.3341154 -0.073938325 0.49943683 0.32564217
000130 cf 6d a8 3e dd 93 47 be 7a 88 87 be 54 3d 5f 3e
       0.32896277 -0.19489999 -0.2647131 0.21800739
000140 18 5a b4 bd f6 7d 08 3f d7 54 18 c0 3b dd 09 3e
       -0.088062465 0.533172 -2.3801782 0.13463299
000150 90 07 cb 3e 7e 0e 60 be 20 72 45 3f 65 f6 ed ba
       0.39654207 -0.21880528 0.77127266 -0.0018155096
000160 03 52 0e 3b 0c 85 e7 bc 0c f3 4c 3f 86 70 89 3e
       0.0021716363 -0.028261684 0.8005836 0.2684366
000170 37 f6 8c 3e 98 41 4b bd a3 b0 d8 3e 9e 98 0b bd
       0.27531597 -0.049623102 0.42322263 -0.034081094
000180 de ac b8 be d7 ae f5 bd da e3 88 40 ba 3c 0b be
       -0.36069387 -0.11996239 4.277814 -0.13597384
000190 da 28 97 3d 83 c6 8e be 7a 87 c6 be 63 85 af 3c
       0.07380839 -0.27885827 -0.38775235 0.021425908
0001a0 10 eb 75 3e 03 93 7e 3d 82 94 4d 3e 9f 2a b1 3d
       0.2401545 0.06215192 0.20076182 0.086507075
0001b0 0c 97 d5 3d 1d aa 06 bf 3d bf 82 3d fc c3 5a be
       0.104292005 -0.5260332 0.06384132 -0.21363825
0001c0 6d b8 db 3c e5 ea 2b bd 17 95 e3 be 7d 02 c4 3c
       0.02682134 -0.04197206 -0.44449684 0.023926968
0001d0 13 0a bf 3d 3d 2a 60 3e 62 07 08 3e 9f 54 d2 be
       0.093280934 0.21891113 0.13284066 -0.41080186
0001e0 70 fa 86 bf ec 24 b3 3d 3e 25 93 bd 3d 1b d4 3e
       -1.0545177 0.08747277 -0.07184838 0.4142703
0001f0 55 2e c7 3d 58 f6 f6 3c 5a 05 9e bd 7e 32 90 3e
       0.09725634 0.030146763 -0.077158645 0.28163522
