A5/modelset/ddpg/ddpg_critic.pt (torch, 139511 bytes, 5 tensors)

net.0.weight f4 [256, 4]
00000000: a155 c23e ec6f 5bbf 8db5 31be a9e2 91bd
00000010: 9185 12bf 8a12 243f 3061 ca3e 018f 44be
00000020: 987c 833d b33f 723f c8ee 823e bb4a 3dbe
00000030: 40e4 3f3e 783b a03e 6df5 dabe 525b 853d
00000040: b655 c9be 7ff8 05be 7ee5 20be 5ff8 d3bd
00000050: 4810 03bd 7171 94be 6edf ee3e 9912 9dbd
00000060: 6cfc 33bf 35ef cdbc fb93 abbe 772e 28bd
00000070: e1cc 24bf 2c45 59bf 31ad 723b c7e2 d83d
00000080: ba78 873e 3a14 473e 4f4d a63e 35f5 2ebe
00000090: e7c7 013f 7947 653e 9449 1bb9 e4fd fd3d
000000a0: 2d60 3ebf 70cd 813d 9705 893e 08c5 533e
000000b0: 4eff c23d 7ec7 873d 1f9f 5d3d f2fe cabe
000000c0: 3bb1 ca3d 4e48 9bbf 040d f6be cf3d 6fbd
000000d0: 554d fbbe 4c89 08be 9834 49be b49c 953c
000000e0: 50a3 c3be 958a 033f cfea 06bc 7cf0 b9bc
000000f0: 8d8d af3d 17c8 df3d da2a 9abe 55dc c83d
00000100: ef19 33bf 1c08 793e fbd5 643e b8ff 5a3d
00000110: 3bdd 063f 942f 113f 221e 93bd d2e5 023e
00000120: 08f4 3fbf 9885 0fbf f9f5 88be 91b5 35bb
00000130: a6f3 06bf 3a88 88be 678a 80be 04f2 6e3d
00000140: 2ee5 0b3f cf8c 343f d866 193e 778b fd3d
00000150: b1b9 c83e e063 aa3d 0318 d33c 23ad 1fbf
00000160: 3b41 203f 6802 943e 3ac2 233e ac8d f13c
00000170: b4cf a83e 309c f03e 381a 24be bb8f 953b
00000180: 5961 07bf 994a 103f af80 8cbe 9084 743d
00000190: abc2 dc3e e738 093f fb84 4d3d 59b1 053f
000001a0: 8725 473f 4055 6c3f 71ab 973e 19d2 373d
000001b0: 7882 08bf 4d4b e8bd 9d22 15be 0a43 93bd
000001c0: 8f57 da3e e336 493c 1d0b 08bf f3e2 dabb
000001d0: def9 16bf 293f bb3e 5fbd c6be e0d1 623e
000001e0: c322 bdbe 4b67 0cbe 1ae8 16be e52b 9cbd
000001f0: 9b6a 95bd 568a 92bf 3f7d 4abe 7a86 0bbd
00000200: afc8 193e 0736 f83e 1a57 e2bd bea5 ffbe
00000210: 3fa0 c8be 4017 57bf 7c29 5cbe 9c84 d8bc
00000220: 5edc 14bf d910 c03d 077a 343e 9562 c0bd
00000230: 6f31 b2be f523 cd3e 35b6 a1be c763 843e
00000240: e875 04bc 2338 423f caca 8d3d b14a c5be
00000250: 1f28 0dbe 523a 1b3f 5b21 dc3e 5b9a 443e
00000260: 96dc c93e 9e74 83bc b6e7 ac3e bb27 adbe
00000270: 591a 94be eed1 763f 7d4a 9a3e 7807 38be
00000280: c5e9 72be 4370 cdbe 23fd dfbe 63ac 9fbd
00000290: 928c 83bc 6781 78bf 9599 ffbd 4b16 123e
000002a0: 7a5b 67bd fa25 fdbd 7c09 b9bc 92d7 013f
000002b0: 9cd6 0cbf fd2f 0a3f 8f2c d4bd 2729 55be
000002c0: 0965 a23e a980 5d3e 5679 a63e b18c 98be
000002d0: 60d6 16be 50c8 34bf d7a9 b5be 5b29 4b3e
000002e0: bd63 063f ebbb 0a3f 415c 573d 97ec 953e
000002f0: 1d62 b5be 4adc 353e 726b ccbd f251 163e
00000300: ee58 ce3e d5a0 b5bd eb8e 7bbe a14c 9e3e
00000310: da78 14bf bc05 10bf dd70 c9be dca4 783d
00000320: 35d3 ab3e 2194 71bc 6b21 b1be df08 f73c
00000330: 8550 6f3e 5bc0 5a3e c560 843e e584 b5bd
00000340: c5f1 f13e fdae a53e ada8 23be aead f2be
00000350: 59bb c5be 560d e5bf 1051 d5be 4729 76bd
00000360: 673c a0bd 7f00 27be f666 23be 84ba d53e
00000370: 3d05 403f 3837 903d 4ed9 4b3d 7493 1bbe
00000380: a720 bcbe d9f1 0d3f 2464 c53d 33a9 2a3d
00000390: f4d9 35bf a124 843d 8151 d7be 3fd6 8a3e
000003a0: 1515 c0be 8c24 51bf 73af 4bbe 052c 28bd
000003b0: cc0b 3abe 5997 56bf 8d8f b9be 285f 0b3e
000003c0: 64bd 2ebf 00df 0cbf 54fc 423c c3c9 95be
000003d0: 931a 2ebf a504 293e 3fd6 9ebe 8aac b3bb
000003e0: 2f57 71bf f30a 003f 5930 563e 88be 40be
000003f0: b27d 83bd 0dae 9f3e 3870 c13e c5f3 bfbc
0.37955955 -0.85717654 -0.17354412 -0.0712331 -0.57235056 0.6409079 0.39527273 -0.19195177
0.06420249 0.9462845 0.255728 -0.18485539 0.18739414 0.3129537 -0.4276537 0.065115586
-0.39323205 -0.13083075 -0.15712544 -0.103501074 -0.03199795 -0.289928 0.46654838 -0.07669563
-0.7030704 -0.025138477 -0.33511338 -0.041059937 -0.6437512 -0.8487117 0.00370295 0.10590129
0.26459295 0.1944131 0.32480857 -0.17085727 0.5069565 0.22390546 -0.00014809362 0.124019414
-0.743655 0.06338012 0.26762077 0.2068063 0.09521352 0.06629847 0.054106828 -0.39647633
0.09897085 -1.2131441 -0.48056805 -0.058408555 -0.49082437 -0.13333625 -0.19648969 0.018263198
-0.38210535 0.51383334 -0.008234694 -0.02269768 0.085719205 0.10926836 -0.30110818 0.0980765
-0.69961447 0.243195 0.22347252 0.05346653 0.5268132 0.56713223 -0.07183482 0.12782982
-0.7498174 -0.5606322 -0.26750162 -0.002772663 -0.5271553 -0.26666433 -0.25105593 0.058336273
0.54646575 0.70527357 0.14980638 0.123801164 0.3920417 0.08319831 0.025768286 -0.6237356
0.62599534 0.28908086 0.1599206 0.0294865 0.32970965 0.46994162 -0.16025627 0.004564253
-0.52882916 0.56363827 -0.27441928 0.059696734 0.4311727 0.5360245 0.05017565 0.52223736
0.7779164 0.9231758 0.29622987 0.0448781 -0.5332408 -0.113424875 -0.14563985 -0.07190521
0.42644927 0.012281152 -0.5314196 -0.0066798865 -0.5897502 0.36571625 -0.38816354 0.22150373
-0.36940584 -0.13711278 -0.14736977 -0.0762556 -0.07295724 -1.1448467 -0.1977434 -0.034063794
0.15017961 0.4847872 -0.110517696 -0.4993114 -0.39184758 -0.8401985 -0.215002 -0.02643042
-0.58148754 0.093782134 0.17624675 -0.09393803 -0.3480334 0.40066496 -0.31584325 0.25857374
-0.008084752 0.7586691 0.069234446 -0.38533548 -0.13784836 0.60635865 0.42994198 0.19199507
0.39426106 -0.016046818 0.3377053 -0.33819374 -0.28926352 0.9641408 0.30134955 -0.17971599
-0.23721988 -0.4012471 -0.43747815 -0.07796552 -0.01605824 -0.9707245 -0.12480465 0.14266317
-0.056483723 -0.12360759 -0.02258753 0.5071956 -0.5501497 0.53979474 -0.103600614 -0.2081648
0.3171771 0.21631111 0.32514447 -0.2979484 -0.14730215 -0.7061815 -0.3548114 0.19839995
0.5249594 0.5419299 0.052578215 0.29282066 -0.35426417 0.17759815 -0.09981431 0.14679697
0.40302223 -0.08868567 -0.24566238 0.30917838 -0.57996905 -0.5625875 -0.3934392 0.060704097
0.33559576 -0.014744789 -0.34595808 0.030155597 0.2337056 0.2136244 0.2585508 -0.08863238
0.47254768 0.32360068 -0.15982313 -0.47398132 -0.38619497 -1.7894695 -0.41663408 -0.06009796
-0.07824021 -0.16308783 -0.15957245 0.41743863 0.75007993 0.07041782 0.049767785 -0.15192968
-0.36743662 0.55447155 0.09638241 0.041665267 -0.71035695 0.06452299 -0.4205437 0.27116582
-0.37516084 -0.8169639 -0.19891147 -0.041057605 -0.18168563 -0.8382469 -0.36242333 0.13610518
-0.6825774 -0.5502777 0.01190098 -0.29255494 -0.680093 0.16505678 -0.31022832 -0.0054832147
-0.94273657 0.5001671 0.2091688 -0.18822682 -0.06420459 0.31187478 0.3778093 -0.023431668

net.0.bias f4 [256]
00000000: fc4c 1cbe c137 16be 9ce2 e6be 3cfd 4fbd
00000010: 1472 663f dc4c 103f 9157 5a3d 131c 16be
00000020: d492 c6be bff1 1d3f ad61 09bf dda0 303f
00000030: a392 e3be 56eb 1e3f 9918 fe3e e416 8a3e
00000040: 81c9 263f b0bb 1c3d 7094 113f a417 353f
00000050: 7042 f4be 7704 083e a1fc 05bf 3ea5 bb3e
00000060: c530 3bbd 0b89 0fbf a5bd e5be fb17 1b3f
00000070: 55ae debe f674 433f 1589 0a3f 2876 e63e
00000080: 553e 143f cdba c73d cd46 30bd 2d54 7abe
00000090: e22f acbd 7428 0fbf 70d7 bebe ef88 a13e
000000a0: 5c60 c9bd c14f 1c3f 6a1f 19bf 9e8b 333f
000000b0: 851a 7d3e f1e3 093e 9dfa e03e 25a9 f13e
000000c0: 10d9 a6be 293b 3dbe b501 a1be d07d a6be
000000d0: 3a88 8c3e ebac 4dbe 34c5 3a3f 0e0e c83e
000000e0: b6ee 9f3e 09f2 3e3d f235 133f 283d 6ebe
000000f0: bf58 2d3f aaf7 9bbe 6f40 25bd e298 833e
00000100: ec17 7fbe 39ee c4be 5a1f bb3e 38db a0be
00000110: e736 05bf 667a 383e a01f 94be 1ac7 e43e
00000120: 84c0 14bf 054c a83e ea58 53bb ce4d 2a3d
00000130: 57de 1bbf a8eb 0b3f aa9d 133f 59df b23e
00000140: 7f36 ddbd 4217 7b3f 820a d7be c752 a73c
00000150: ccf1 25bf 247c ae3e 14d1 3f3f 7e95 1c3f
00000160: ea0a 01bf a481 b7be 2cc9 a03e 92c4 b1bd
00000170: 52af 06bf 20ff e63e 53b9 203f 24a4 273f
00000180: 89a5 713d 204b 993e 0dfa 133f 5194 ed3e
00000190: 17ba 2d3e d34a 503d 9f1a ed3e 0b64 b1be
000001a0: a48a 103d 2660 523f 3855 0f3e 1527 57be
000001b0: 1faf 0f3e 544a b73e e489 f63e 2800 173f
000001c0: 9a27 bebc 2b87 203f e740 213f 74a0 62be
000001d0: 4eb5 263e 4635 a73e 97e8 db3e 2739 6a3c
000001e0: 63b0 1d3f 810c d63e 9af8 92be c165 16be
000001f0: cbe0 94bc e032 fa3d 6636 f0be a3cf 6b3d
00000200: 4769 113f 65c4 883e 0a65 30be e57e 053f
00000210: 84f8 e9be 986c 67be a0f6 1ebe 8f54 923e
00000220: 5ca0 ae3e 316a e13e 35b0 91be 1284 1a3e
00000230: ad8c 913e df94 6dbe 06bc 523e a09c 003f
00000240: cdc0 4f3f d7ff 1e3e fed0 a9be c0d4 253f
00000250: 36c8 0d3d 4310 0cbf f7f3 03be 8ad4 983e
00000260: 8e57 41be 2c83 de3e e531 25be 5981 863d
00000270: b0b2 633d f84b 3dba 9607 c43e 8c3c 833d
00000280: f7f5 c43e 0d92 5f3f 8ddc dabe 77f6 c33e
00000290: fe6a 2a3e 3b2e 1d3f e3f6 3d3f ad25 303f
000002a0: efc8 223f 679f 0a3f e6f2 d7be 11a6 0b3f
000002b0: fe9f 253f 3928 b4bd 8286 fcbe 67a6 143f
000002c0: 6927 ea3d fbf1 853d efc1 1ebe c900 44be
000002d0: 21c6 f8be 194f d4bd e329 20bd cf97 45bc
000002e0: 7ee3 6a3e b812 cc3e c720 fdbe 4e52 033f
000002f0: f1bb 1f3e ab5a 18bf cfa5 1fbe e1bd 7cbe
00000300: a68b 53bb 6185 06bf fc52 97be 370e 03be
00000310: d0c9 a43e 7694 62be fc4d 80be 316c 183f
00000320: b2ef cabe b1e5 45bd b72e 963e fc40 903e
00000330: 2d14 c53e dc9e c73e 0fce 663e 8500 f33e
00000340: 973f 433f ad4a 293f 7469 d23c 2b83 1c3f
00000350: a870 a1be 9372 473d 5714 3b3f 35b5 5c3d
00000360: db3c 333f d24e 87be b9de 353d 51aa 33be
00000370: be0e 113e 1b6b b43e e28d 08be 4467 c3be
00000380: 9a25 16bf 6583 b83c 263f de3e 9b05 e2be
00000390: 1a7f 273e 31ca 1ebf d98c 24bf 0454 e23d
000003a0: 56d1 3a3c b30c 2e3e faa7 803d 5c2c 073f
000003b0: fd3e 0d3f 31bf b5be 29dc e2bc 2f32 22be
000003c0: fb20 82be f233 f73e 189f e03e 085b 833e
000003d0: 68f7 153e b307 bdbe 71fa df3c 495d 09bf
000003e0: 61fe 0f3e 6a72 0b3e d422 323f ee9e 1e3f
000003f0: 68d2 97bd 43b0 293c a7d7 d03e 73ef 093f
-0.15263742 -0.14669706 -0.45094764 -0.050778612 0.9001782 0.5636728 0.053306166 -0.14659147
-0.38783896 0.61697 -0.53664666 0.6899546 -0.44447812 0.62077844 0.49628142 0.2697059
0.6515122 0.03826493 0.5686712 0.707392 -0.47706938 0.13282953 -0.52338606 0.36649507
-0.045700807 -0.56068486 -0.4487125 0.60583466 -0.4349238 0.76350343 0.5411542 0.4501202
0.5790761 0.09752426 -0.04303627 -0.24446173 -0.084075704 -0.559211 -0.3727374 0.31549785
-0.09832832 0.61059195 -0.5981356 0.70134914 0.24717148 0.13465859 0.43941203 0.4719936
-0.3258748 -0.18479599 -0.31446615 -0.32517862 0.27447683 -0.20085494 0.7295716 0.39073223
0.3123681 0.04661754 0.5750419 -0.23265517 0.6771354 -0.3046239 -0.04034465 0.25702578
-0.24911469 -0.38463 0.36547357 -0.3141725 -0.520369 0.18015441 -0.28930378 0.44683152
-0.58106256 0.32870498 -0.0032249042 0.041578107 -0.6088614 0.5465646 0.5766245 0.34936026
-0.1080141 0.98082364 -0.42000204 0.020425214 -0.6482208 0.34079087 0.749284 0.61165607
-0.5040728 -0.35841095 0.31403482 -0.08680071 -0.5261127 0.4511652 0.6278278 0.65484834
0.058995757 0.29940128 0.5780342 0.4640222 0.16965519 0.050852608 0.46309373 -0.3464664
0.035288468 0.8217796 0.13997352 -0.21011002 0.14031647 0.35798895 0.48152077 0.58984613
-0.023212243 0.6270625 0.6298966 -0.2213152 0.162801 0.32657832 0.4295089 0.014295853
0.6159727 0.41806415 -0.28705293 -0.14687254 -0.018173596 0.12216735 -0.46916503 0.057571065
0.56801265 0.26712337 -0.17226043 0.5214675 -0.45697415 -0.22600019 -0.15523767 0.28580138
0.3410672 0.4402633 -0.28454748 0.15089443 0.2842764 -0.23201321 0.20579538 0.5023899
0.81153566 0.15527283 -0.3316726 0.64777756 0.034614764 -0.54712313 -0.12886034 0.29849654
-0.18881056 0.4345945 -0.16132315 0.0656764 0.05559033 -0.0007221098 0.38287038 0.06408033
0.38468906 0.8733223 -0.42746392 0.38273975 0.16642377 0.6139867 0.74204844 0.6880749
0.6358785 0.5414948 -0.42177504 0.5455027 0.64697254 -0.08796734 -0.4932137 0.5806641
0.11433298 0.06540295 -0.15503667 -0.19140925 -0.4858866 -0.10366649 -0.039102446 -0.01206012
0.22938344 0.3985803 -0.4943907 0.5129746 0.15599038 -0.5951335 -0.15590595 -0.24681808
-0.0032279282 -0.5254727 -0.295555 -0.12798391 0.3218522 -0.22126946 -0.25059497 0.59540087
-0.39635998 -0.048314754 0.29332516 0.2817458 0.38491955 0.38988388 0.22539543 0.47461334
0.76268905 0.6612957 0.02568505 0.61137646 -0.31531262 0.04869325 0.7307791 0.05388375
0.70014733 -0.26427323 0.044401858 -0.1754544 0.1416578 0.35237965 -0.13335374 -0.38164723
-0.58651125 0.022523591 0.43407553 -0.44144902 0.16357079 -0.6202727 -0.64277416 0.11051181
0.011402449 0.16997032 0.06282039 0.5280206 0.5517424 -0.3549743 -0.027692871 -0.15839456
-0.25415787 0.4828182 0.4387138 0.2565539 0.14645159 -0.36919937 0.0273411 -0.53657967
0.14061882 0.13617864 0.69584394 0.6196126 -0.07413179 0.0103569655 0.4078953 0.53880996

net.2.weight f4 [128, 256]
00000000: 9e10 363e f895 0b3e 8182 753e d129 a43c
00000010: 6fa6 03be de78 a3bd ad95 923d b890 35be
00000020: 9ac4 5f3d d770 74be a8b8 c53d f9e7 75be
00000030: ff43 1b3e b0a6 fcbd 6e12 fdbb feac e13c
00000040: f8dd bcbd 130c 02bf 4c1a c73b 0242 67bd
00000050: 967a b23d 5b01 c13d 4ce5 173d 8d15 5abd
00000060: 833a 373d a702 083e d81d 8a3d 98b0 1bbe
00000070: 2f78 813d 33fb 51bd cced 75be e57a b43d
00000080: ee23 313b ee3e 073c 240a 983d a991 aa3d
00000090: de7e 583d 7c30 cd3d 27ca d1b8 a596 4b3d
000000a0: 8b9a 0b3e bd00 2b3d b67e c03e b947 13be
000000b0: 5eb0 2cbd 410a b63c ba4a 80bd 8d40 adbd
000000c0: 67fc 77bc 7aea ac3d 9cd1 e3bb 492d f73c
000000d0: 73fe 7fbd b852 353e 64ea 87bd cf26 eebe
000000e0: 8e75 b33c b2bc 94bc d3c9 5ebd 70b0 c43d
000000f0: f68a 16be 7d45 853d 6e67 1d3e ae27 99bb
00000100: c732 223d 3694 363e d2cf 003d 810f 0d3e
00000110: 804a 3c3d ee41 783d c1fa a73d 4cb0 4fbd
00000120: 904c 5a3e 4d98 1fbe 73c1 96bd f09a c7ba
00000130: 0134 193e 0c03 933d 0f2a 9bbd 2466 b43d
00000140: f0c2 063e 4540 4fbd c2c0 343d 8710 693e
00000150: 2b94 ed3d cb3b cdbc 9c68 a5bd 31a6 f1bd
00000160: 50a8 a83d eaac f13c 74fe 0ebe 2661 fcbb
00000170: f596 b73d ef55 463d a245 643c a0bd 71be
00000180: c18e 033e 5631 c1bd d25e 40bd 55f6 b0bc
00000190: 24cc c9bd 2dc4 443d a969 983b 720b 8c3d
000001a0: bb94 443d 4a82 3d3b 8759 f23c 842b f03d
000001b0: e31c 8e3d f134 853d be29 d3bd a267 50be
000001c0: 2e31 5e3d de1d dabc 420a 0cbe c2b5 8b3d
000001d0: e1a2 513d 22cf c13c 380f 193b 3448 7a3d
000001e0: 1c40 0d3d 22af 7ebc 1021 453e 74a2 633d
000001f0: 3b67 a8be 0d3f 013d 78ea 6c3d a9be 413d
00000200: 3f25 7c3d b42f 843c 11f7 023e 0c50 2ebe
00000210: 9430 3fbe f61d b53d 507d 283e ccbf 5cbd
00000220: fac5 bebd c6a5 8cbb d44c 813e de59 a43d
00000230: cb58 15be 5746 cd3d 42c7 b7bc 1fdd 613d
00000240: 48a1 42bc d722 093e b0d2 fdbc 8d11 cabb
00000250: 5de7 313e fd31 b33c 9e9b 663d 03e2 ce39
00000260: ea43 3a3d 12b2 cdbc ac62 9b3d 213c bd3d
00000270: b2c3 55bd 1987 9c3d a59d 9c3c 0f84 8b3c
00000280: 862d 153d 7b7b 1abe 52eb be3c 8a38 7b3c
00000290: 199d 04bd ac36 a1bd bd6c 2bbd c157 2e3d
000002a0: c146 cdbd db78 21be 9dc9 c6be 199e 83be
000002b0: 88c2 953d f186 f5bd 1fef 0c3e 5d6c 68be
000002c0: ad27 93bc f3ce 923d fab4 1b3e 2701 2c3e
000002d0: 509b ab3d 9549 053e 9799 333d d283 5fbd
000002e0: bbc4 23bf 4080 27bd b7b6 78bf e88b 5ebc
000002f0: 7d8a 9abd 7b0d 8b3e fe25 fe3a 4342 453d
00000300: 8a93 3e3d 0a8c 3d3e 778d 213e b2b0 d73d
00000310: b10a 53bd 1f1f fdbb d48a 5bbc 3ed2 2ebd
00000320: 24e2 183e bd77 9c3d 375a 593d 7477 66bd
00000330: 4972 103d b1f6 1bbd aba5 3e3b 5636 d5bd
00000340: 8a62 54be eb02 34be 67ef df3d 9111 fdbc
00000350: 2d34 213e 3482 773d 5ea0 a3bb 35d6 51bf
00000360: 91ad 083d dc5e 58bc af90 703d 6c56 c83d
00000370: 5a00 c73d 8a66 05bd 852c 863d 2cd5 483d
00000380: 8310 29bd de3a c13d 9976 dfbd a25c a93d
00000390: 87f6 9b3d 9d02 713e 28eb a2bd 01fe 7e3c
000003a0: e1ec 173e 55ee 3ebd 276e fd3d bd14 51bd
000003b0: 549a 7fbd 212a 6b3e 8c95 3b3e dc90 2c3d
000003c0: bd02 003d 225e 37bd 1fb2 15bc e32b 823d
000003d0: b81e cd3c 3a95 e53c 9f4e febd 1393 7a3d
000003e0: 9a3d adbd a37c 1c3e 302e 54be fdce 783c
000003f0: dc26 e03d 5776 bc3c 8393 9a3d a070 cabe
0.17779776 0.13631427 0.23975565 0.02003947 -0.12856458 -0.07982038 0.07157455 -0.17730987
0.054630853 -0.2387117 0.09654361 -0.24014272 0.15162657 -0.123364806 -0.0077231443 0.02754831
-0.09222025 -0.50799674 0.006076133 -0.056459434 0.08714788 0.09424087 0.03708391 -0.05324321
0.044733535 0.13282262 0.067439735 -0.15204084 0.06321751 -0.051264953 -0.24016494 0.08812503
0.0027029472 0.00825475 0.07423809 0.08328564 0.052855365 0.10019013 -0.000100035504 0.049704213
0.13633172 0.04174875 0.37596673 -0.14382829 -0.042160384 0.022221686 -0.06264253 -0.08459578
-0.015135861 0.0844316 -0.0069524776 0.03017296 -0.06249852 0.17707336 -0.06636503 -0.46513984
0.02190664 -0.018156383 -0.054391693 0.09603965 -0.14701447 0.065073945 0.15371487 -0.0046739196
0.039599206 0.17829975 0.031448193 0.13775446 0.045969486 0.06060975 0.082021244 -0.05070524
0.21318269 -0.15585442 -0.07361116 -0.001522867 0.14961244 0.071783155 -0.075763814 0.08808544
0.131603 -0.0505984 0.04412914 0.22760211 0.116005264 -0.025052926 -0.08076593 -0.117992766
0.08235228 0.029501397 -0.13964254 -0.0077020107 0.0896434 0.048421796 0.013932617 -0.23607492
0.12847425 -0.09433238 -0.046965428 -0.021601835 -0.0985339 0.04803865 0.0046512675 0.068381205
0.047993403 0.002891677 0.029583706 0.1172705 0.069391035 0.065042384 -0.10310696 -0.20352033
0.05424612 -0.02662557 -0.13675788 0.06821777 0.051180724 0.023658339 0.0023355018 0.061104015
0.034484968 -0.015544685 0.19250894 0.05557485 -0.3289126 0.03155427 0.057840794 0.04730097
0.06155896 0.016136028 0.12789561 -0.17022723 -0.18670875 0.08843605 0.16454053 -0.05389385
-0.09315105 -0.0042922227 0.25253928 0.08024953 -0.14584653 0.10023182 -0.02243388 0.055142518
-0.011879273 0.13392197 -0.030984253 -0.006166643 0.17373414 0.021874422 0.056300752 0.00039459774
0.045474924 -0.025109325 0.075871795 0.09239984 -0.052188583 0.07642955 0.01911814 0.017030744
0.036420368 -0.15086167 0.023305569 0.015333304 -0.032376382 -0.07871756 -0.041851748 0.042564157
-0.10023261 -0.15768759 -0.38825694 -0.25706556 0.073124945 -0.11988629 0.13763092 -0.22697587
-0.017963255 0.07168379 0.15205756 0.16797315 0.08379233 0.1301635 0.043847647 -0.054569073
-0.6397206 -0.040893793 -0.971538 -0.013583161 -0.07545946 0.27158722 0.0019389985 0.048158895
0.046527423 0.18510452 0.15776621 0.10531749 -0.051523868 -0.007724657 -0.013399798 -0.04268097
0.14930016 0.07640026 0.05306455 -0.056266263 0.03526524 -0.03807706 0.0029090445 -0.104107544
-0.20740715 -0.17579238 0.10934334 -0.030892165 0.1574256 0.060426906 -0.0049934825 -0.8196748
0.03336865 -0.01320621 0.05873173 0.09782109 0.09716864 -0.032568492 0.0655146 0.04903142
-0.041275512 0.09435056 -0.109112926 0.082696214 0.07615381 0.23536153 -0.07955009 0.015563489
0.14836456 -0.04661401 0.123745255 -0.05104517 -0.06240304 0.2296529 0.18318766 0.042130336
0.03125261 -0.044767506 -0.009136706 0.06356027 0.025039062 0.028025258 -0.124173395 0.061175417
-0.08459015 0.1528192 -0.20720744 0.015186069 0.10944912 0.023005648 0.07547667 -0.3953905

net.2.bias f4 [128]
00000000: 0632 1ebe 6f34 293e 1a1a 673d d76e 463e
00000010: 8a85 2e3d b764 09bd 3ce7 133e e0c1 b8bc
00000020: 0557 de3d f3e3 b93c de48 d73d ba2c 283d
00000030: d958 9a3d 0778 a33b fa36 f53c 5cc3 7e3c
00000040: 84cc 6a3d b591 a03d c485 d3bc 8fd6 433d
00000050: 0cb1 e03d 33e2 e33d 550d 3cbe 9d9e 763d
00000060: 873c 993d ca4f 39bd 8bf7 c53d 3592 fc3c
00000070: ccbf 3fbd 6c20 a13d 018a ff3c 9cfd cc3d
00000080: 8a6a 633d 27ae 98bc 45d8 c83d 8275 aa3d
00000090: daba 503d e6f3 e73d 77d3 b2bc 6e45 353e
000000a0: 334d c63d f85c 753d f165 d93c 53f6 6f3c
000000b0: d9f2 993d cf14 eb3d 154e 0e3e 2022 7b3c
000000c0: 7a0b 1a3d 5f66 08bd 2277 61bc fc63 6a3c
000000d0: 3fde 8b3d f1d5 d13c 48fd 073e b3e1 9cbc
000000e0: abbf 983d 6253 c23c debb 02bd ea7a 553e
000000f0: b6f6 f33d 681b 47bd 7c0d 153e b23d 253d
00000100: 3ed5 a73d 8956 27bd 8eff 73bd 24d7 b43d
00000110: ee32 3a3e 6385 e53d fa4d a63d ef9c 1d3e
00000120: 9d42 783d 2930 7b3d bb54 b53d 5323 71bd
00000130: f9a4 0e3e cdb0 cb3d 3444 613d 87f9 15be
00000140: 0fcc 8e3d 4a6e bc3d 5736 033e 6876 1e3d
00000150: 8e7d 643d 4b6a 043e 53a9 0c3d 3916 ac3d
00000160: 0674 21bd 1fbb 36be c09f 2cbe 6f70 b03c
00000170: 40cd 693d 9a38 973d 4d14 993d a1e9 ba3c
00000180: f5ac b73d a432 9d3d 7cdd bebc 2d20 19bd
00000190: 1519 dc3d e86a af3c 64b8 d33d 4bb9 9e3d
000001a0: 6efa c63b eae8 fc3d 20af 0d3c fe0d f73c
000001b0: 2fba 8f3d 086d 643e caf3 913e d6a1 8dbc
000001c0: 8187 c73d d78c 25bc 54c8 f0b9 d14b 083e
000001d0: d846 6ebd 407d e33c 1df0 a73c 2589 333e
000001e0: 58c5 743d 1d0f 573d 5496 1a3e 2506 423d
000001f0: 8e24 1f3d 3367 99bc ef59 eebc dbe9 f53d
-0.1544877 0.16523908 0.056421377 0.1937822 0.04260782 -0.033543315 0.14443678 -0.022553384
0.108564414 0.022691702 0.10511945 0.04105828 0.075364776 0.0049886736 0.029933441 0.015549507
0.057323948 0.078402914 -0.02582062 0.04781204 0.10971269 0.111271285 -0.18364461 0.06020986
0.07482248 -0.04524211 0.09666356 0.030831436 -0.04681377 0.07867512 0.031193735 0.1000931
0.055521525 -0.01863773 0.09806875 0.08323194 0.050959446 0.11325817 -0.02182935 0.17702267
0.09682693 0.059903115 0.026537867 0.014646131 0.07517023 0.11478578 0.13896973 0.01532796
0.0376086 -0.033300754 -0.013761314 0.014306065 0.068294995 0.02561471 0.13280213 -0.01915059
0.07458433 0.0237214 -0.031917445 0.20847669 0.11912291 -0.04861012 0.14555925 0.04034204
0.081949696 -0.04085401 -0.059569888 0.08830097 0.1818349 0.11207082 0.081203416 0.15391897
0.060610402 0.061325226 0.08854052 -0.05887158 0.1393012 0.099458314 0.054996684 -0.14645968
0.06972515 0.092007235 0.12813698 0.03868714 0.0557838 0.12931173 0.034341168 0.08402676
-0.03941729 -0.17844819 -0.16857815 0.021537988 0.057080507 0.07383843 0.07474575 0.022816481
0.08968536 0.076756746 -0.023298971 -0.0373842 0.107469715 0.021413282 0.10337904 0.077501856
0.006072334 0.12349112 0.00864771 0.03015804 0.070179336 0.22307217 0.2850631 -0.017289083
0.09742642 -0.01010438 -0.00045925623 0.13310172 -0.05817303 0.027769685 0.020500237 0.17532785
0.059758514 0.052504648 0.15096408 0.04736914 0.03885322 -0.018725967 -0.029095618 0.12007495

net.4.weight f4 [1, 128]
00000000: 7dea f43e aab0 1ebe 2822 34be 12a9 3a3f
00000010: 5b98 83be f384 233f a946 14be 0e4e c43b
00000020: 34f4 24be 7df4 903d 0647 68be a1e5 06be
00000030: ca2b 58be a173 b63c a636 33be 5a9c a23e
00000040: 4ad6 893e cd18 2a3f 476e da3e 72b3 4cbe
00000050: 7532 1bbe 77eb 2abe c44b 153f 8c82 f3bd
00000060: 3ac6 9d3e ee80 0a3f ec3c 55be 8748 89bd
00000070: fd78 783f 1865 30be 87da 20be 1f8d 683f
00000080: d902 a0be 4532 7d3e 9966 1abe b9b2 57be
00000090: bdf4 28be c469 21be 420f 453f f6fb 3bbe
000000a0: 9759 4dbe 7cd0 57be fe15 963e 433b 4e3d
000000b0: 787b 4fbe 02e2 0ebe 9334 1abe 110e 3fbe
000000c0: 93fa 6a3d 2208 bb3c fb0e d9bb 7568 4dbe
000000d0: a78c 4dbe 8677 673d fcd1 2dbe 7b66 953d
000000e0: 6f51 33be dd1b 2cbe 32bb 45bd 8aec 353f
000000f0: 00cf 79be 927a 553d e1b4 9b3e 6d88 17be
00000100: f0c6 1cbe bd98 803d 7cf1 af3c 90ac 24be
00000110: 9d82 6f3f 52bb 1bbe 6ce4 14be b8ff 473f
00000120: 2e1e 20be 17a7 36be fce8 45be c149 ce3b
00000130: 657c 1ebe 4819 30be a3bc 33be 69e4 ef3e
00000140: 716a e83e 62cb 49be b0eb 963e d1bc 13be
00000150: a919 7fbe 9400 20be 42ce 193d 1b6a 47be
00000160: 8c8e b13e 292a 293f 220e d73f 1d4c 25be
00000170: ccc6 2abe 8e4c 46be 5db5 49be 9d41 31be
00000180: d1dc 14be d9b0 3bbe 4d98 52be d5b4 2f3f
00000190: 8545 0cbe 02a4 48be 42df c53f fdc6 45be
000001a0: 2f15 fa3e 8f2a 7d3e 1544 36be f5b7 07bd
000001b0: 4a94 3fbe 67a3 b63e 7353 af3f 6e1a b23e
000001c0: 7ea9 1ebe 329b d53e 5295 dabb 9683 e13f
000001d0: 5fc8 243d ead7 793d 3692 29be fcad 10be
000001e0: 7010 2cbe f8fc 263f 1706 9b3e ea58 31be
000001f0: 1147 34be 3a0d 5a3f 9fbd 693e a069 3cbe
0.4783515 -0.1549708 -0.17591155 0.7291423 -0.25702175 0.6387474 -0.1448008 0.00599075
-0.16108781 0.070778824 -0.22683343 -0.13173534 -0.21110454 0.022271933 -0.17501315 0.31759912
0.26921302 0.66444093 0.4266226 -0.19990328 -0.15155967 -0.16691385 0.58318734 -0.11890134
0.30815297 0.5410298 -0.20824021 -0.067032866 0.97059613 -0.17226064 -0.15708362 0.90840334
-0.31252173 0.24726208 -0.150782 -0.21064271 -0.1649961 -0.15763003 0.76976407 -0.18357834
-0.20053707 -0.21075624 0.29313654 0.050349485 -0.20261943 -0.13953403 -0.15059118 -0.1865771
0.057367872 0.022831026 -0.0066241003 -0.20059378 -0.20073186 0.05651047 -0.16974634 0.07294937
-0.17511533 -0.16807504 -0.048274226 0.71064055 -0.2439537 0.052118845 0.30411437 -0.14798136
-0.15310264 0.062791325 0.021477453 -0.16081452 0.93558675 -0.15208176 -0.14540261 0.7812457
-0.15636513 -0.17837177 -0.19327158 0.0062954132 -0.1547714 -0.17197144 -0.17552428 0.4685395
0.45393708 -0.1970649 0.2947669 -0.14427496 -0.24912132 -0.1562522 0.03755022 -0.1947407
0.34679067 0.66079956 1.6801188 -0.16142316 -0.16677397 -0.19365141 -0.19698091 -0.17310186
-0.1453736 -0.18329181 -0.2056591 0.686353 -0.13698395 -0.19593814 1.5458758 -0.1931419
0.48844287 0.24723266 -0.17799409 -0.03313442 -0.18708912 0.3567154 1.3697342 0.3478579
-0.15494344 0.41719967 -0.0066706324 1.7618282 0.04023015 0.060996927 -0.16559681 -0.1412887
-0.16803145 0.6522975 0.30278084 -0.17319074 -0.17605235 0.8517643 0.22826241 -0.18399668
