A5/modelset/ddpg/ddpg_critic.pt (torch, 139511 bytes, 5 tensors)

net.0.weight f4 [256, 4]
000000 5b eb b8 3d b8 69 9b bf 0e 4f 85 be 08 d9 dd bc
       0.090292655 -1.2141638 -0.26036876 -0.027081028
000010 79 ed 1e bf 7b bf c2 3e a1 a1 1e 3f 65 ed cd bc
       -0.62081105 0.38036713 0.61965376 -0.025137613
000020 da d0 10 bf 11 d8 b4 3f 70 0a bc 3e 4e 85 36 3d
       -0.5656868 1.4128438 0.36726713 0.044560723
000030 19 5c 55 3f 97 52 aa 3e b6 64 0f bf 09 ed 7f bd
       0.83343655 0.33266136 -0.5601305 -0.062481914
000040 61 08 f3 be 30 40 1a bd 0e 6d da be 42 14 4d be
       -0.4746733 -0.03765887 -0.42661327 -0.20027259
000050 fe 75 60 3f 6e 7c 91 3e 75 6b 5c 3c 3f 5e c9 be
       0.8768004 0.28415245 0.013453354 -0.39329717
000060 90 b1 5b bf a8 d5 37 bf 53 1c 0d be 40 52 b2 bd
       -0.85817814 -0.7181039 -0.13780336 -0.08707094
000070 05 53 d3 bd 27 33 67 bf 76 32 94 bd 67 7e b2 3c
       -0.10318569 -0.9031243 -0.07236187 0.021788789
000080 63 fa 8b be 3c fa 18 3f 9e 78 da 3e 09 96 2d 3d
       -0.27339467 0.5975683 0.4267015 0.042379413
000090 fb 26 84 3f da da 63 3e 49 3d 28 bd e9 ff 26 3d
       1.0324396 0.22251454 -0.04107407 0.0407714
0000a0 81 50 8f bf 10 80 0c bf 7b 9c d3 3e 6c 6e 4b 3e
       -1.1196443 -0.5488291 0.41330323 0.19866341
0000b0 75 93 b2 3e bd 91 0e 3d fd 1e 4b 3e 69 64 b9 be
       0.34878126 0.034806956 0.1983604 -0.3620942
0000c0 12 e3 58 3f 27 42 92 bf 54 e3 cf be 0c 80 76 3d
       0.8472148 -1.1426438 -0.40603125 0.06018071
0000d0 08 26 f4 be 67 02 29 bf 10 24 88 bb 19 a7 86 bd
       -0.47685266 -0.6601929 -0.0041546896 -0.0657484
0000e0 cc 8d 0c bf 0f 88 7e 3e 5a a4 68 3e 06 83 6f 3d
       -0.54903865 0.2485659 0.22718945 0.058474563
0000f0 a6 98 86 3f 1e a5 97 3e ad 28 e7 be 91 95 89 3e
       1.0515335 0.29618162 -0.4514822 0.26871923
000100 38 00 6f bf 19 ef 0c 3f 2c 84 a0 3e e2 75 5c 3d
       -0.9335971 0.55052334 0.3135084 0.05382336
000110 82 89 45 3f 0d 5b bc 3e 81 a7 75 be 49 4e c3 3d
       0.77162945 0.36788216 -0.23989679 0.09536416
000120 c5 41 81 bf f9 e7 63 3d df 34 e2 be df 4d 8e bc
       -1.0098196 0.05564115 -0.44180962 -0.017371116
000130 e9 bd 56 bd 98 f3 39 bf 35 03 1f 3e 9c 05 5d 3c
       -0.052427206 -0.7263732 0.15528567 0.013490107
000140 98 34 7b 3e 9b 7a 7a 3f d6 ff e1 3c 80 35 43 3c
       0.24531782 0.9784333 0.027587812 0.011914611
000150 ca d9 cd 3e b2 c1 ca 3e aa 59 55 be 5d fe fd be
       0.40205222 0.39600903 -0.20834985 -0.49608126
000160 ff 71 d9 bd fe 9e 9c 3f 0b b3 21 3e ae 01 dc 3d
       -0.10617446 1.223602 0.15790956 0.10742508
000170 41 33 b5 3e 47 80 56 3f 15 8b d9 bd 0a 1c 07 3e
       0.35390666 0.83789486 -0.10622231 0.1319429
000180 6f 46 ef be 16 45 a1 3e b5 2f be be 4e fa 62 3e
       -0.46733424 0.3149802 -0.37145773 0.22165796
000190 cd 18 05 bf 46 b7 aa 3f c2 ad b0 3e a2 16 45 3d
       -0.5199097 1.3337181 0.34507567 0.048117287
0001a0 0a a8 66 bd 68 45 a3 3f 1a ed df 3e f7 98 a4 3d
       -0.0563126 1.2755556 0.43735582 0.08036988
0001b0 38 33 40 bf ec b7 35 bf 29 8e 53 3e 10 b9 2b 3d
       -0.75078154 -0.7098377 0.20659699 0.041924536
0001c0 85 40 2d 3f 34 a1 9b 3e de d9 14 bf f2 45 3c be
       0.67676574 0.30396426 -0.5814494 -0.18386057
0001d0 d3 39 9d bf 9a f7 84 3e 38 b9 00 bf da 6a 78 3c
       -1.2283272 0.25970155 -0.5028262 0.015162194
0001e0 2b 96 02 bd 01 41 f3 be 27 34 1f 3e 76 af 4d be
       -0.031881493 -0.47510532 0.15547238 -0.20086464
0001f0 1f c9 b6 be 03 eb 92 bf 01 9b b4 be ec da 6c bd
       -0.35700318 -1.147797 -0.3527451 -0.057825968
000200 83 3c dc 3e ed eb 05 3f 98 c8 3f be 93 a1 ef be
       0.43014917 0.5231312 -0.18728864 -0.4680296
000210 b8 8c f0 bc 5d 5e 75 bf c3 b7 19 3e 57 55 e8 bb
       -0.029363975 -0.9584711 0.15011506 -0.0070902514
000220 60 24 9c be b1 73 8c 3d 25 da 34 3f 3a c4 c7 3d
       -0.30496502 0.06858004 0.7064536 0.09754224
000230 49 72 f4 3e ca 04 1c 3f 65 68 c9 be 44 6c 20 3e
       0.47743443 0.6094481 -0.3933746 0.156663
000240 c7 a5 34 bf f6 8a 39 3f b1 cb 8b 3e d0 e0 3b 3d
       -0.70565456 0.7247766 0.27303842 0.045868695
000250 90 fd 56 bf 28 76 19 3f f5 47 07 3f 87 30 86 3e
       -0.83980656 0.5994592 0.5284417 0.26208898
000260 64 d5 26 3f 58 06 c5 be 38 d5 e8 3e d2 74 53 be
       0.6516936 -0.38481402 0.45475173 -0.20650032
000270 0a e5 87 bf 65 10 45 3f fa 74 bb 3e fa f1 5a 3d
       -1.0616772 0.7697814 0.36612684 0.053453423
000280 d0 dc 25 be bf 6a 27 bf 7e c0 e5 be 6c 67 a1 bd
       -0.16197515 -0.65397257 -0.44873422 -0.07881054
000290 03 d0 32 be 45 a2 69 bf 34 b2 b2 be b1 01 53 bd
       -0.17462163 -0.9126323 -0.34901583 -0.051515285
0002a0 f7 6f 98 3e 70 0d a5 bf 33 0b 16 be 6c a8 f2 bd
       0.29772922 -1.2894726 -0.1465271 -0.1184853
0002b0 68 92 0d bf c1 27 92 3e 10 54 a8 be c0 d3 43 be
       -0.55301523 0.28545955 -0.32876635 -0.19123745
0002c0 14 50 0d bf 91 2a 96 3e 4b 56 8d 3e 0b 84 c3 be
       -0.55200315 0.2932935 0.276049 -0.38186678
0002d0 83 ab 10 3b 62 93 16 bf 5b c4 ee be 65 a3 8e 3e
       0.0022074885 -0.5881864 -0.46634182 0.27859035
0002e0 96 4a b9 be d5 c6 39 3f 62 aa 08 be d0 ef ae bb
       -0.36189717 0.7256902 -0.13346246 -0.0053386465
0002f0 d3 fc 4e 3e 71 d4 10 3e 79 49 ce bd 6f 2f 21 3e
       0.20213632 0.1414354 -0.100726075 0.1574075
000300 e1 eb 13 3f 66 0d 86 3c fc 0b cd be 62 eb e7 3d
       0.577818 0.01636381 -0.40048206 0.113241926
000310 3c 06 cd be b6 21 53 bf b5 c3 d4 be 8e 21 04 bd
       -0.4004382 -0.82473314 -0.41555563 -0.032258563
000320 7a 30 37 3f b1 e7 bd be be 17 f6 be c6 e7 db 3d
       0.71558344 -0.3709083 -0.4806499 0.10737567
000330 a7 5d 58 3e 62 8b b9 3f b3 b6 94 3e ee 4d c1 3c
       0.21129476 1.4495661 0.29045638 0.02359673
000340 20 91 a8 3f fd 6c 9b 3e 34 55 b6 be 25 98 03 bf
       1.3169289 0.3035659 -0.3561188 -0.5140403
000350 b5 c8 65 3e f5 aa cc bf c7 cc 08 bf 53 75 00 be
       0.22439845 -1.5989672 -0.53437465 -0.12544756
000360 a7 dd 2a 3e c0 a3 a8 be 28 d6 6f be ad 2d bb 3e
       0.16686116 -0.3293743 -0.23421538 0.36558285
000370 1f dd 76 3f 88 b6 ad 3e 1a 34 7a 3d 9c 08 dd bd
       0.96431154 0.33928323 0.061084844 -0.10792658
000380 91 04 14 bf 54 fb fb 3d b9 d3 64 be e2 80 8c bb
       -0.5781947 0.123037964 -0.22346391 -0.004287825
000390 ca 28 60 bf 32 56 b4 3d 63 a0 d7 be 53 89 88 3e
       -0.8756224 0.08805503 -0.42114553 0.2666727
0003a0 3a 9b 3e be 57 12 8d bf 1a ff 6b be 50 98 7c bc
       -0.18613902 -1.1021222 -0.23046532 -0.0154171735
0003b0 77 71 7d 3f 02 ea ab bf 7d cc da be 6b 6a 95 bd
       0.9900126 -1.3430789 -0.42734137 -0.07295688
0003c0 6a 08 54 be 70 8a 0f bf e1 83 73 bc a1 09 a0 be
       -0.20706335 -0.56070614 -0.014862985 -0.31257346
0003d0 c6 be 74 bf 47 4a 47 3e 60 01 a8 be a9 43 60 be
       -0.956036 0.19461928 -0.3281355 -0.2190081
0003e0 d3 9f 96 bf 4f a7 dd bd 83 a1 81 3e e5 e0 08 bd
       -1.1767524 -0.10822927 0.25318536 -0.0334176
0003f0 b3 86 9b 3f dd b8 72 3f 28 52 ac 3e 47 d4 66 bd
       1.2150482 0.9481333 0.3365643 -0.056354787

net.0.bias f4 [256]
000000 ec 26 a4 be 78 dc cb bb 2f 0f cd 3d dc af f4 be
       -0.32060945 -0.0062213503 0.10012662 -0.4779042
000010 33 d2 5b 3f ce c8 8c 3f 4b 30 13 3f f8 60 b7 3e
       0.85867614 1.0998781 0.57495564 0.3581617
000020 cb a4 c4 be 08 a1 3b 3f 97 87 ae bd 48 9b 42 3f
       -0.38406977 0.7329259 -0.085219555 0.7601819
000030 d6 0d ee be de 53 41 3f 6b 86 3e 3f 1d 9a 8c 3c
       -0.4649493 0.75518596 0.74423856 0.01716333
000040 64 ae 3f 3f 70 dd 85 bd d3 44 2e 3f 91 df 24 3f
       0.74875474 -0.065363765 0.6807377 0.64403635
000050 9b ff 1e bf 6e b0 de be e4 a2 1d be f7 b8 d6 3e
       -0.62108773 -0.4349398 -0.15394169 0.41937992
000060 be 55 c0 3d e3 e5 b7 3d 93 db 37 be a8 8f bd 3e
       0.09391354 0.08979394 -0.17954855 0.37023664
000070 71 bd 54 bf e8 de 6b 3f 42 15 d3 3e 1c 63 0a 3f
       -0.83101565 0.92137 0.41227156 0.5405748
000080 4f da 24 3f 77 b9 a5 3e 46 9d 26 3f 8a 26 98 be
       0.6439561 0.3236806 0.6508373 -0.29716903
000090 6c cc f3 3e 53 0d 78 be 48 2d a6 be 63 97 49 3f
       0.476169 -0.24223833 -0.32456422 0.7874662
0000a0 ef da 88 bc ed 14 2f 3f 03 0c 82 bd e2 60 68 3f
       -0.016705958 0.68391305 -0.06349947 0.9077283
0000b0 af ba d7 3e 9a e8 8f 3e 03 3a 24 3f 58 79 32 3f
       0.42134616 0.28107148 0.6415102 0.69716406
0000c0 e2 4e 1d bf 48 a8 26 be e0 38 5f bf 47 06 58 3d
       -0.6144849 -0.16275132 -0.8719616 0.05274036
0000d0 32 78 88 be df 20 07 bf 7e 21 43 3f 54 30 17 3f
       -0.26654202 -0.5278453 0.7622298 0.5905812
0000e0 f4 ab ea 3e 8d 4b 86 3e 02 04 dd 3e 76 a4 0d bf
       0.45834315 0.26229516 0.4316712 -0.5532907
0000f0 e7 a1 56 3f 85 64 2f be 54 27 09 3f da 12 5c 3f
       0.83840793 -0.17128189 0.53575635 0.85966265
000100 55 87 00 bf 79 c9 3d 3c af ae 06 3f 27 be 97 bd
       -0.502065 0.011583679 0.52610296 -0.074093156
000110 69 6e 8f be fa c2 9e 3e ea 7a 8b 3e 68 75 3c 3f
       -0.28013924 0.3100813 0.27242213 0.7361665
000120 f7 a7 21 bf 41 32 8d 3e 7d 96 a1 3e db 18 5f 3f
       -0.6314692 0.27577403 0.31560126 0.871473
000130 c1 12 a3 be f9 60 1c 3f 92 e6 31 3f b8 f1 35 3f
       -0.31850246 0.6108547 0.6949245 0.7107196
000140 3e 31 e5 3c c0 5b fb 3e 41 a5 88 3c 8c 16 18 3f
       0.027977582 0.49093437 0.016680362 0.59409404
000150 46 49 75 be ca 8e e0 bb 7a 0d 1e 3f da 17 5b 3f
       -0.23953733 -0.0068529593 0.61739314 0.8558327
000160 18 a7 93 be d3 c2 01 bf 68 48 3c 3f f0 8c ee 3e
       -0.2883842 -0.50687903 0.73547983 0.46591902
000170 af a8 ef be 58 83 40 3f 4b 2e 31 3f b0 70 4e 3f
       -0.46808383 0.75200415 0.6921126 0.806407
000180 eb 37 56 3f eb 3f f1 3e a6 56 48 3f 84 60 46 3f
       0.83679074 0.47119078 0.78257215 0.7749102
000190 aa a2 1e 3f 7e df f6 3e 77 32 38 3f 54 94 86 be
       0.61966956 0.48217386 0.71952003 -0.2628504
0001a0 c5 c3 5c 3e c6 9a 00 3f 38 7d e2 3e d4 65 30 bf
       0.21559055 0.50236166 0.4423616 -0.6890538
0001b0 40 da 16 3f 63 a1 b7 3e 41 c0 5f 3e b5 ef 12 3f
       0.58926773 0.35865316 0.21850683 0.57397014
0001c0 57 e7 91 bd 28 1b c6 3e 38 1b 92 3e 45 72 5e 3e
       -0.07124203 0.38692594 0.2853639 0.21723278
0001d0 ef 25 08 3f e2 59 71 3f 3d 17 25 3f 74 db f1 3e
       0.5318288 0.94277775 0.64488584 0.47237742
0001e0 88 ec 7a 3f da 39 ab 3e 6b 0f b1 be 64 fe f8 be
       0.9801717 0.33442575 -0.34582075 -0.48631585
0001f0 a1 5c 9e 3e 24 2b fa 3e 85 bf dd be 38 36 1f 3e
       0.30930045 0.4886104 -0.4331018 0.15548027
000200 f7 5e 67 3e ea d0 1a 3f 53 ab bd bd ed 74 0d 3f
       0.2259482 0.6047503 -0.09261193 0.5525654
000210 30 af c6 3e 01 cc 7c 3e 12 86 c7 3d 87 dd 68 3f
       0.38805532 0.24687196 0.09742369 0.90963024
000220 92 98 53 3f 43 ba 2a 3f 7d ef 20 3e 3c d5 d8 3e
       0.8265468 0.6669046 0.15716358 0.42350185
000230 1b be 20 3e 81 47 a9 bd 99 2d 19 3f b5 bf 44 3f
       0.1569752 -0.082655914 0.598352 0.7685502
000240 93 42 21 3f ea f5 13 3f c2 e7 23 bf f2 b9 88 3f
       0.6299221 0.5779711 -0.6402551 1.0681746
000250 d5 1d 27 3f 8d 1c ca 3e fc 4c 89 3e 92 94 07 3f
       0.65279895 0.39474908 0.26816547 0.52961075
000260 4f b3 dc be 8f cb 22 3f ee 59 f9 be b1 38 49 3f
       -0.43105552 0.63591856 -0.48701423 0.7860213
000270 98 44 57 bf 87 cb 50 3e cb 65 c8 3e 05 02 e8 bc
       -0.8408904 0.2039014 0.39140162 -0.028321275
000280 5c 90 f3 3e 19 43 50 3f 89 5a e3 3e 83 0f 1a 3f
       0.47571075 0.8135238 0.4440501 0.6017992
000290 76 27 c6 3e 53 72 06 3f 19 b0 37 3f 12 e3 79 3f
       0.3870198 0.52518195 0.7175308 0.97612107
0002a0 2a 26 41 3f b7 b3 21 3f 08 c3 af bd 16 33 08 3f
       0.7544886 0.6316485 -0.08582121 0.5320295
0002b0 1a 6f 32 3f 4f 93 f9 3d e8 d0 3e bf af d2 3b 3f
       0.6970078 0.121863 -0.74537516 0.7336835
0002c0 7b d5 88 3e b5 c3 0f 3f 97 2f f5 bd 56 c8 64 be
       0.26725373 0.56158 -0.11971968 -0.22342047
0002d0 5d 77 49 bf 7a 6a 96 be 64 c3 7d 3d ff 77 00 3f
       -0.7869776 -0.2937811 0.061953917 0.501831
0002e0 4f 33 bd 3e 4d 4e e7 3e 94 87 21 bf 52 7f 47 3f
       0.36953208 0.45176926 -0.630975 0.7792865
0002f0 da 6a 2a 3f 5c 71 2b bf 45 db 06 bf c0 03 de 3c
       0.6656929 -0.6696985 -0.5267833 0.027101398
000300 c6 b5 8d 3e 0c d4 e6 bd 76 5f 29 be ef 5a 5c 3e
       0.27677745 -0.112709135 -0.16540322 0.21519063
000310 93 2a 6c 3f f0 ba 1e 3e 8e 3e 0c bf 70 70 ee 3e
       0.92252463 0.15500998 -0.5478295 0.46570158
000320 b7 b1 77 be 79 a7 5a be 32 8d 38 3f 58 d2 e0 be
       -0.24188887 -0.21352948 0.72090447 -0.4391048
000330 8c 07 0c 3f b9 9c 52 3f ee 4c 81 3e 09 a7 74 be
       0.54699016 0.8227039 0.25254005 -0.23891844
000340 91 f4 20 3f a4 fb 25 3f 29 d0 aa 3e c3 4c 47 3f
       0.6287318 0.648371 0.3336194 0.77851504
000350 7c 0b 81 be 38 d4 38 be f6 3a 43 3f 7d 21 e4 be
       -0.25204074 -0.18049705 0.7626184 -0.445568
000360 0d 6c 21 3f c5 03 8a be 5a cc c5 3e 2f 80 9c be
       0.630555 -0.26956 0.3863247 -0.30566546
000370 33 59 c6 3e 13 6a 39 3f 4a e5 09 bf c9 e2 10 bf
       0.3873993 0.7242748 -0.5386549 -0.56596047
000380 01 4a cc be a2 58 e3 3e 83 f5 85 3e 30 04 f7 3e
       -0.3990021 0.4440356 0.26163873 0.48245382
000390 59 2c 40 3f a1 9d 21 bd cb 0f 08 bf 82 59 90 3e
       0.7506767 -0.039456967 -0.531491 0.2819329
0003a0 1c 8b 08 bf d4 c1 d3 3e 34 01 3b 3f 0c a2 71 3e
       -0.53337264 0.41358817 0.7304871 0.23596972
0003b0 12 af 67 3f a0 cf 44 be 4a 6b 56 3e cd b2 9a bc
       0.9050151 -0.19219828 0.20939365 -0.018884087
0003c0 7b 00 33 bc 59 61 b4 3e 00 f4 62 3f 4b 69 f5 3e
       -0.0109254075 0.3523052 0.88653564 0.47931895
0003d0 c7 00 b6 3e 96 be 34 bf 05 a3 9e be 5f 4b 35 be
       0.35547468 -0.7060331 -0.3098375 -0.17704533
0003e0 77 ad 9f 3e b6 a6 60 3e d7 f4 5f 3f a8 38 29 3f
       0.3118703 0.21938595 0.8748297 0.66102076
0003f0 a2 86 36 3f 6d db 02 bd 01 04 16 3f 00 f2 c2 3e
       0.71299183 -0.031947542 0.5859986 0.38075256

net.2.weight f4 [128, 256]
000000 76 1c 00 3d 7a c3 ac 3e c4 8c 6a 3e cc fc 01 3e
       0.031277142 0.33742887 0.2290526 0.1269409
000010 76 2d 7f 3d bb 89 31 bc fb fe ba 3e 57 98 05 3e
       0.062299214 -0.01083606 0.3652266 0.13046394
000020 98 f7 a7 3e 89 5a 69 be 81 82 8f 3e f1 83 14 3d
       0.32806087 -0.22788443 0.28029254 0.03625864
000030 b4 05 49 3e 66 0a 84 3e 4b 33 66 be de 9e 2b 3e
       0.19631082 0.25789183 -0.22480504 0.16759822
000040 69 21 a3 be ce bc a9 3d 7e 35 f9 3d 0a 77 7a 3e
       -0.31861427 0.08287965 0.12168406 0.24459472
000050 83 6d 7c be 75 fd 56 3d 17 9a c0 3e 3f cd 09 3e
       -0.2465115 0.05248781 0.3761756 0.13457201
000060 e2 b3 ac 3d 55 97 fc bd 8a 4d ad 3e 15 c9 0d 3e
       0.084327474 -0.12333552 0.3384822 0.13846238
000070 87 ca e7 3d f9 8d 6c 3c e4 32 9d 3d 8e aa f5 3d
       0.11317926 0.014438146 0.07675722 0.11995421
000080 f4 ae 83 3d e2 6d bf 3d 81 5c 45 3e 85 b5 1d 3e
       0.06429854 0.0934713 0.19273569 0.15401275
000090 2a 6d e5 bd 8d 4c c3 3e 19 15 c6 3d 9f 21 aa bd
       -0.11202462 0.3814434 0.09671993 -0.08307194
0000a0 f4 91 6c 3e 1b 5e 00 3e 84 4c de 3e c7 c3 1f bc
       0.23102552 0.12535898 0.43417752 -0.009751267
0000b0 02 6c 43 bc 3d 8d 1d 3e 3f b9 ae be f8 18 be 3d
       -0.011927607 0.1538591 -0.34125707 0.09282106
0000c0 84 97 f1 3c 47 84 4b 3e 29 aa 45 3d 44 f9 b4 3d
       0.029491194 0.19874679 0.04825798 0.08836606
0000d0 04 3b 3e bb 66 4d 80 3e 3b ed 1e 3e 3a 99 6f be
       -0.0029026875 0.2505905 0.15520184 -0.23398295
0000e0 1d c2 8d bd bd c8 85 3d e9 42 48 3e e6 6d b4 3d
       -0.0692179 0.065324284 0.19556774 0.08810024
0000f0 e1 a2 40 3e e5 cd ef 3d 0d f4 d9 3e dd 0b ff bc
       0.18812133 0.11709193 0.42569008 -0.031133587
000100 1e 4e 9d bd 8c c9 df 3d 7a d1 55 be c0 3a b3 3e
       -0.07680915 0.10927114 -0.2088069 0.3500576
000110 46 49 11 3d 73 07 2a 3e b1 65 ee 3e 67 a9 bc be
       0.03547027 0.16604404 0.4656196 -0.36847994
000120 08 a2 60 3e be c5 9f 3d ea 9f 14 bd 30 6e 48 3e
       0.2193681 0.07801388 -0.03628532 0.19573283
000130 45 7b f2 3e bb de 0d 3e b6 b6 49 bc 48 0c d6 3d
       0.47359672 0.13854496 -0.012311628 0.10451561
000140 ec 6e 94 3e c5 e6 29 3e 31 19 91 3e 27 c9 15 3d
       0.28990877 0.16591938 0.28339532 0.036568787
000150 ad 58 d1 3e 67 d3 c4 3d f7 ea f1 3d 4c 67 72 3e
       0.40887967 0.09610634 0.11812394 0.23672217
000160 67 8e 93 3e 1a 0d 95 bd 04 92 c2 bd c0 1b fb 3b
       0.28819582 -0.072778895 -0.095005065 0.00766322
000170 27 a3 b5 3e 98 d8 84 bd 07 e8 87 be 32 b7 40 bb
       0.35476038 -0.064866245 -0.2654421 -0.0029406068
000180 cc 73 18 3e 54 4e 03 3e b9 93 06 be c7 1f 07 3e
       0.14887923 0.12822849 -0.13142289 0.13195716
000190 75 10 9a 3d a5 c8 b4 be 45 53 14 be 47 d2 a8 3e
       0.0752267 -0.3530933 -0.1448489 0.3297293
0001a0 79 19 41 3e 97 ae 0e 3e eb 05 a8 3d 52 e0 03 be
       0.18857373 0.13933788 0.08204254 -0.1287854
0001b0 ed ef a2 bd 8e 2a 19 3e 7e 68 57 be ef 3b 51 3e
       -0.079559185 0.1495764 -0.21035954 0.20433019
0001c0 14 25 1f 3e 69 a6 e8 3d a0 24 ff 3d 64 82 9e 3e
       0.15541488 0.11359865 0.124581575 0.30958855
0001d0 49 00 84 3e 95 7b 95 3d 0d 8d 6f bd 4a 78 2f ba
       0.25781468 0.07298962 -0.058484126 -0.00066936447
0001e0 e2 bd 3d 3d 2c 24 ef 3d 95 1f 92 3d 0c 39 08 be
       0.046323664 0.11676821 0.0713493 -0.13303012
0001f0 81 08 85 3d 7c 3a a4 3e c6 83 17 3e 52 43 38 3e
       0.064957626 0.3207587 0.14796361 0.1799443
000200 e5 ca 05 3e 04 97 04 3e c5 a2 48 3e d5 d8 a7 bd
       0.1306568 0.12948233 0.19593342 -0.08195654
000210 69 86 57 be 3b db 4a 3e f1 c7 ce 3e b4 57 c6 bd
       -0.21047367 0.19810192 0.40386918 -0.09684697
000220 e1 52 af 3d fb 1c 10 be 22 cc af bc aa d6 31 bd
       0.0856073 -0.14073555 -0.021459643 -0.04341761
000230 64 e4 c8 3b a7 1f 1f 3e ec fa b4 be 6e d9 0c be
       0.006130742 0.15539418 -0.35347688 -0.13754818
000240 49 d9 04 3e 59 a8 1a 3e 5d e0 cb 3d 51 c7 aa be
       0.12973513 0.15103282 0.09954903 -0.3335519
000250 0a d9 be 3c d1 45 44 be aa a5 33 3d e5 c1 bf 3e
       0.023296852 -0.19167258 0.04385916 0.37452617
000260 8f 3b 26 3e 12 c5 aa be 8c 7e 10 3e 6b 28 1d 3e
       0.16233657 -0.33353478 0.14110774 0.1534745
000270 ed 1e 81 bf 43 ca 15 be 07 7e be 3d b4 a5 19 ba
       -1.0087563 -0.14627938 0.093013816 -0.00058611785
000280 c1 ae 9d 3c 09 25 7d 3e 05 18 75 3e 66 ea 9c 3e
       0.019248368 0.24721159 0.23934944 0.30647582
000290 81 5b 71 3d 9f e5 8b 3e 22 fc 1d 3e be e2 09 3e
       0.058925156 0.27323624 0.15428212 0.13465402
0002a0 6d f3 fe bd 14 d1 48 3d ba 78 00 bf e7 e9 75 3e
       -0.124487735 0.049027517 -0.50184214 0.24015008
0002b0 1e de 26 3e 66 ef 94 3d 7b c1 14 3e 11 d2 c6 bd
       0.16295668 0.07272224 0.14526932 -0.09708036
0002c0 9c 79 39 3d 94 a0 8f 3e 19 18 94 3e 17 85 66 3e
       0.04528199 0.280522 0.28924635 0.22511707
0002d0 61 83 8f 3e 6a d1 4d 3e 72 91 92 3d 3f fa b4 3d
       0.28029922 0.20099416 0.07156648 0.08836793
0002e0 ff c6 96 3c 72 41 1f 3e 5b 84 19 bf 98 93 11 3e
       0.018405436 0.15552309 -0.59967583 0.14216459
0002f0 46 a0 f8 3b af 9f b9 3e e5 a1 d4 3d 21 59 82 3e
       0.0075874655 0.3625464 0.103824414 0.25458625
000300 d8 52 2e be 41 11 53 3e 93 df 0d bf 3e 58 3f 3e
       -0.1702379 0.2061205 -0.5541927 0.18686005
000310 92 fc ca 3d a2 48 2c 3e 7a 2b da 3e f5 2f 71 3e
       0.09911455 0.16824582 0.42611295 0.2355345
000320 13 1c 64 3e 2b 0c cb 3c ee 96 eb 3d 45 ef 0b bf
       0.22276334 0.024786076 0.11503397 -0.5466197
000330 3e 2a 55 be fc 02 9f be 70 65 71 3d cb d4 02 bf
       -0.20816895 -0.31056964 0.05893463 -0.51105946
000340 12 12 7a 3d 13 7d 5a 3a 8a 53 f9 3d 72 ce 1f be
       0.06105239 0.00083346776 0.12174137 -0.15606096
000350 cb e7 24 3e 45 f5 30 3e e2 a4 de 3d 38 29 1c 3f
       0.16104047 0.17281063 0.10871293 0.61000395
000360 f6 c0 3b 3e e0 6d 06 bf b8 5f 02 3e 68 94 1b 3e
       0.18335328 -0.52511406 0.12731826 0.15193331
000370 de 2e aa bd 81 f5 85 39 09 2f 80 3e 23 a1 95 3e
       -0.083097205 0.00025550651 0.25035885 0.292245
000380 6f 88 15 bf ca 89 82 3e 44 24 45 be 49 3a 2d 3e
       -0.58411306 0.2549575 -0.19252115 0.16916765
000390 2a 94 71 be b3 45 9a 3e 20 d7 32 3e ff bd 8f bd
       -0.23591676 0.301313 0.17464876 -0.07018661
0003a0 e3 f8 fe 3d 4f 04 54 be 5d 90 9b 3d ca d1 b5 3d
       0.12449815 -0.20704769 0.075958945 0.08877905
0003b0 69 24 09 be 25 3d cc 3e 05 25 f9 3e 7e 61 86 3e
       -0.13392796 0.398904 0.48661056 0.26246256
0003c0 2f 6d 80 3e 8c 2d 96 3d 21 22 78 bd 79 f5 63 3e
       0.250833 0.07332906 -0.060579423 0.22261609
0003d0 b2 a4 3b be 9e 7b 79 bd 67 61 34 be 6b 0c 7f be
       -0.18324545 -0.060908906 -0.17615281 -0.24907081
0003e0 52 45 dd bd 55 f1 10 be 03 d8 45 3e 23 15 b0 bc
       -0.108042374 -0.14154561 0.19320683 -0.021494454
0003f0 d3 23 8b 3c 93 05 e5 3d c1 6e 85 be 87 15 c2 bd
       0.016984856 0.11182704 -0.2606106 -0.09476762

net.2.bias f4 [128]
000000 db a8 f3 3d 6c d0 24 3e 49 2f 27 bd 6e c5 63 3e
       0.11897441 0.16095132 -0.04081658 0.22243282
000010 89 a5 66 bb ce 5e 86 3c e1 e6 2b 3e 51 18 9d bc
       -0.0035193881 0.016402628 0.16787292 -0.019176634
000020 e3 8f e3 3d 47 50 b6 3c dc ac b6 3d 9e f4 45 3d
       0.111114286 0.022255076 0.08919689 0.04832899
000030 b9 39 8b 3d 91 b7 9a 3d f4 e0 06 3d 69 88 2b bd
       0.06798119 0.07554544 0.032929376 -0.041878138
000040 5b bb 6d 3e f6 40 e2 3c fe 59 f9 3d 67 57 38 3d
       0.23216002 0.027618866 0.12175368 0.04500523
000050 82 b6 ee 3d 60 53 e5 3d 6d 83 1e be d8 9c 77 3d
       0.11655904 0.11197543 -0.15479822 0.060452312
000060 ef e3 b9 be bb d4 96 3e 2d e9 b6 3d 92 4a 0b 3d
       -0.36306712 0.29459175 0.089311935 0.034006663
000070 fc 61 d9 bd a3 5d a9 3d be 9c f4 3c 5a a4 98 bd
       -0.10614392 0.08269813 0.029859897 -0.074532226
000080 22 99 b0 bb 7a 9b 7b bb 5d 46 d2 3d e3 be 9a 3d
       -0.0053893486 -0.0038392232 0.10267327 0.0755594
000090 35 d3 56 3d be 04 e8 3d 0e 1d 64 3e 28 c2 30 3e
       0.052447516 0.113290295 0.22276708 0.17261565
0000a0 9b 5b bf 3d 05 65 44 3d 43 9e 64 bd a8 af 3e 3d
       0.09343644 0.047947902 -0.055814993 0.046554238
0000b0 f1 ae 8b 3d 94 0d f6 3d 39 a1 0c 3e 02 c8 3a 3c
       0.06820477 0.120143086 0.13733377 0.011400225
0000c0 52 97 aa 3e 0e 80 06 bd 8b 3b 78 bc ca cb 48 3c
       0.33318573 -0.032836966 -0.015150915 0.012255618
0000d0 d2 cc 6a 3d 9c e8 d1 3c d2 f0 fa 3d 36 47 9c 3e
       0.057324238 0.025623612 0.12252964 0.3052308
0000e0 6e 85 85 3d 1b 65 b6 3c a1 3b 05 bd 23 fc 49 3d
       0.0651959 0.022265008 -0.03252757 0.049312722
0000f0 f8 4f 8e 3d 39 90 a7 3d 36 2d 7e 3e f0 3e 25 3d
       0.069488466 0.08181805 0.24821934 0.040343225
000100 2c 0c a7 3d 93 a8 28 bd 17 f2 fc 3d 51 c2 b6 3d
       0.081566185 -0.04117639 0.123508625 0.08923782
000110 c4 fd 08 bd 5b 22 e9 3d c9 21 a8 3d d5 d5 18 3d
       -0.033445135 0.11383506 0.08209569 0.0373133
000120 b7 01 81 3d 66 1b 75 3d b9 50 a1 3d d6 88 97 bd
       0.06299155 0.059840582 0.07876725 -0.07399146
000130 5d 7d 11 3e 4b 7e c4 3d 3a 8c 43 3d d7 cc 64 bc
       0.14207979 0.09594401 0.047741152 -0.013964853
000140 95 ac 8f 3e 72 25 a6 3d 48 b3 05 3f 1f ff 1e 3d
       0.28061357 0.08112611 0.52226686 0.03881752
000150 dd 69 1c 3d 5c dc 01 3e db 5c ae be be 7e 9d 3d
       0.038186897 0.12681717 -0.34055218 0.0769019
000160 72 39 37 bc d1 d4 c2 3e d3 fe 0d 3e 87 b5 b5 3c
       -0.01118313 0.3805299 0.13866739 0.022181286
000170 ed e7 84 bd ad 18 88 3d f4 99 8d 3d 74 88 59 3d
       -0.06489549 0.066453315 0.0691413 0.053108647
000180 06 a5 b9 3d 33 e3 8e 3d 44 bf e2 bc 5c f1 2a bd
       0.09064679 0.069769286 -0.027679093 -0.041734084
000190 f6 83 fd 3d f9 87 a3 3c 7f 0d 3c 3d 6b f0 df 3d
       0.12378685 0.019962298 0.04591131 0.10934528
0001a0 d5 cc 26 bc bf 52 6a 3e 94 ef 06 3c be 99 03 3d
       -0.010180672 0.22883128 0.008235831 0.03212904
0001b0 e4 97 7d 3d 85 1f eb be fd a7 99 3e 73 87 86 3e
       0.061912432 -0.45922485 0.30010977 0.26275215
0001c0 56 5d c5 3d 5b ee 15 bd e0 b9 30 3b 95 82 b0 3c
       0.09636943 -0.036604267 0.002696626 0.021546641
0001d0 d4 c6 6a 3e f1 81 e2 3c 4f ba 78 3c 01 58 30 3e
       0.2292741 0.027649852 0.015181138 0.17221071
0001e0 82 c3 7c 3d 2c 26 5b 3d f4 36 a1 3e 62 1b 47 bd
       0.06170989 0.0535032 0.31487238 -0.0486101
0001f0 22 3f 1e 3d 01 c8 0e 3e a8 fb b1 3c 25 c0 f3 3d
       0.038634427 0.13943483 0.021726444 0.11901883

net.4.weight f4 [1, 128]
000000 e5 3b 1f 3f d9 a2 9b be af 28 99 bc 0b 75 41 3f
       0.62200767 -0.3039768 -0.018696157 0.7556922
000010 15 f2 cc be 54 c6 b1 3c 1c aa 9b be 89 62 10 3c
       -0.40028444 0.021701016 -0.3040322 0.008812555
000020 e5 0d ae be fa 61 8e 3d d5 25 d0 be 24 aa 96 be
       -0.33994976 0.06952281 -0.40653864 -0.29426682
000030 0c ad c4 be 45 f7 bf 3f 58 21 b5 be e4 12 03 3c
       -0.38413274 1.4997336 -0.35377002 0.008000109
000040 b4 5d 81 3f 34 ae ef 3f 4d 9a 41 3f cc cc bf be
       1.0106721 1.8725038 0.7562607 -0.37460935
000050 de ff a9 be ae 29 ac be 7c f8 cf 3f 78 c4 87 be
       -0.33203024 -0.3362555 1.6247706 -0.2651708
000060 8e db d1 3f db 1d cc 3f e1 1f c8 be a6 b6 8f bd
       1.6395128 1.5946611 -0.39086822 -0.07017259
000070 5a 22 69 3f cc 95 b7 be 8e e3 a3 be 13 4b dd 3f
       0.9106804 -0.35856473 -0.32009548 1.7288536
000080 51 04 cf be f8 d4 16 3d 4a 47 98 be 10 5f c5 be
       -0.4043298 0.036824197 -0.2974189 -0.3854909
000090 2b 55 aa be 28 23 a7 be db f8 22 3f 7c 74 95 be
       -0.33268103 -0.3264401 0.63660973 -0.29190433
0000a0 b3 a3 be be 49 e2 c4 be b2 5d 7f 3c 69 33 6f 3f
       -0.37234268 -0.38453892 0.015586304 0.9343782
0000b0 05 7c c0 be 15 3a 9c be 6a e6 9d be c3 a4 be be
       -0.3759462 -0.30513063 -0.30839854 -0.37235078
0000c0 b7 80 21 3f b2 29 b6 3c 94 31 1f bb ef 16 c0 be
       0.6308703 0.022236679 -0.0024291025 -0.37517497
0000d0 49 f9 bf be 9a 2a 64 3d d2 d2 aa be b0 b3 24 3f
       -0.37494877 0.05570469 -0.33363968 0.6433668
0000e0 a1 21 b0 be aa 34 b2 be c0 00 3c bd 29 78 fa 3c
       -0.34400657 -0.34805804 -0.045899153 0.030574875
0000f0 72 84 c4 be 99 fd 6e 3f e9 c4 9c 3f 6f 9e 98 be
       -0.38382298 0.9335571 1.2247592 -0.29808375
000100 cd 87 9d be ad f8 7f 3d d3 f0 8b 3f 85 15 a6 be
       -0.3076767 0.062493015 1.0932869 -0.32438293
000110 89 45 1d 3d 43 f9 99 be 66 bb 96 be 6b 8a 0e 3d
       0.038396392 -0.30072984 -0.2943985 0.034799974
000120 3f bd a6 be ed 51 b3 be 6b 54 b6 be 4c 3a 73 3f
       -0.32566258 -0.35023442 -0.3561128 0.9501083
000130 f7 3e 9f be 55 29 ae be 60 d9 b3 be 03 6a 89 3f
       -0.31102726 -0.3401591 -0.3512678 1.0735477
000140 11 27 7b 3f 03 8c b5 be 9f 09 d2 40 fd 28 96 be
       0.98106486 -0.35458383 6.5636744 -0.29328147
000150 a6 6a d7 be 89 79 a3 be 4d 01 f3 3f 0e 70 b9 be
       -0.42073554 -0.3192866 1.8984772 -0.36218303
000160 35 86 94 3f 0c 78 f0 3f 80 b8 84 3f b8 48 a9 be
       1.1603457 1.8786635 1.0368805 -0.33063293
000170 b2 c2 3d bb af 92 bb be b7 a3 c0 be 9f 70 af be
       -0.0028955159 -0.36635348 -0.37624905 -0.3426561
000180 68 5c 97 be 0c fa b4 be 49 74 c4 be b2 14 a0 3d
       -0.29562688 -0.3534702 -0.3836997 0.07816447
000190 7a 9c 98 be f9 d1 c2 be 06 66 33 3d 08 f2 c1 be
       -0.29806882 -0.3805082 0.04379847 -0.37879968
0001a0 95 9c 22 3d 53 c9 fe 3f 60 a5 b5 be 99 f1 04 bd
       0.03970011 1.9905189 -0.35477734 -0.032456968
0001b0 10 77 b9 be 5d 74 89 3f 75 d6 25 3f 5f ba c6 3f
       -0.3622365 1.0738636 0.6478036 1.5525626
0001c0 a3 db 9b be db 92 b2 3f 48 51 1d bc 63 17 a4 3d
       -0.30441007 1.3951067 -0.0096018985 0.08012273
0001d0 1a b7 9e 3f eb 18 76 3d 3b f9 a8 be 3a 27 8c be
       1.2399628 0.060082357 -0.33002648 -0.27373677
0001e0 37 67 b2 be e9 8a 5f 3d 2a 3b d8 3f 7a 26 98 bc
       -0.34844372 0.054575834 1.6893055 -0.018573035
0001f0 f3 b5 bb be 7c f4 2e 3f 91 a0 60 3f 6e 8a b8 be
       -0.36662254 0.68341804 0.87745005 -0.36043113
