A5/modelset/ddpg/ddpg_actor.pt (torch, 138479 bytes, 5 tensors)

net.0.weight f4 [256, 3]
0	0x3e6dc141	0.23218252
1	0x3ec2be73	0.38035926
2	0xbe45b80f	-0.19308494
3	0x3f1158e7	0.5677628
4	0xbf387feb	-0.7207019
5	0xbdef71b5	-0.1169161
6	0x3f1d4f78	0.61449385
7	0x3d910fbb	0.070830785
8	0x3e74fbb3	0.2392414
9	0x3de28ad9	0.11061639
10	0x3e959a19	0.2921913
11	0xbeaf30a4	-0.34216797
12	0xbea4b837	-0.32171795
13	0x3f3bc7ff	0.73352045
14	0xbea5c049	-0.32373264
15	0xbe0c3780	-0.13693047
16	0x3f0d96e4	0.55308366
17	0xbb3636cc	-0.0027803658
18	0xbe8bd97e	-0.2731437
19	0xbecf4c03	-0.4048768
20	0x3e5238b8	0.20529449
21	0xbe1bcab5	-0.15214045
22	0xbe01cb1b	-0.12675135
23	0x3e9842d9	0.297385
24	0xbe699143	-0.22809319
25	0x3f2e3205	0.68045074
26	0xbda95d59	-0.08269758
27	0xbe91b671	-0.28459504
28	0xbf259b4e	-0.646901
29	0xbe80eeb5	-0.2518212
30	0xbfabb25d	-1.3413807
31	0xbd281ca4	-0.04104294
32	0x3db2d316	0.08731668
33	0xbeec9407	-0.46206686
34	0x3e07deea	0.13268629
35	0xbe839e0c	-0.25706518
36	0xbf130128	-0.5742364
37	0x3f73dc08	0.95257616
38	0xbe2e3439	-0.17012109
39	0x3e31648c	0.17323512
40	0xbf3f9ebd	-0.7485159
41	0xbf00637f	-0.5015182
42	0x3f1558a3	0.58338374
43	0xbee709a8	-0.45124555
44	0xbe807263	-0.2508727
45	0x3e9fa2a4	0.31178772
46	0x3f0935ca	0.535977
47	0xbe6fde13	-0.23424558
48	0xbe43cfac	-0.1912219
49	0x3e5cce9f	0.21563195
50	0x3d007cd9	0.031369064
51	0x3ea58271	0.3232608
52	0xbe8ba447	-0.2727377
53	0x3e41ae08	0.18914044
54	0x3e8246c1	0.25444606
55	0xbef0f127	-0.47058985
56	0x3de010c2	0.10940696
57	0x3dde00da	0.10840006
58	0x3f2a80f5	0.6660302
59	0x3e5ef864	0.21774441
60	0x3e8e8c84	0.2784158
61	0x3decafc4	0.11556962
62	0x3e88398c	0.26606405
63	0x3f00779f	0.5018253
64	0xbece25df	-0.40263268
65	0xbd47aa05	-0.048746128
66	0x3f3a2596	0.727136
67	0x3ef92ef4	0.48668635
68	0x3de890d0	0.11355746
69	0x3f0dfa2f	0.55459875
70	0xbeae92f0	-0.3409648
71	0xbe805c4e	-0.25070423
72	0x3f115dd6	0.5678381
73	0x3f6248db	0.8839242
74	0x3e932530	0.2873931
75	0xbf83dacd	-1.0301148
76	0x3d9060df	0.07049727
77	0x3d51132d	0.051043678
78	0x3d928f16	0.07156198
79	0x3f626a40	0.88443375
80	0xbe839c03	-0.25704965
81	0xbf14f0c8	-0.58179903
82	0xbf6de9ce	-0.9293488
83	0xbdfe3b15	-0.12413613
84	0xbe9779c7	-0.29585096
85	0xbf17a311	-0.59233195
86	0x3e9108d7	0.28327057
87	0xbe948ab5	-0.29012075
88	0x3ed966dc	0.42461288
89	0xbf181c10	-0.5941782
90	0x3ee1ad34	0.44077456
91	0xbf153b92	-0.5829402
92	0xbf06b691	-0.52622324
93	0xbdd5f269	-0.10446627
94	0x3ee113a7	0.43960306
95	0xbca705fe	-0.0203886
96	0xbd815911	-0.06315816
97	0xbed7236c	-0.42019212
98	0xbed4a9ff	-0.41535947
99	0xbf0218b7	-0.5081896
100	0x3f1947ec	0.5987537
101	0xbe72028d	-0.23633786
102	0xbf225b22	-0.6342031
103	0xbeb9d312	-0.36293846
104	0x3c4f8254	0.01266535
105	0x3e3174fa	0.1732978
106	0xbef3c8df	-0.4761419
107	0xbefb03ba	-0.4902628
108	0x3e0d1735	0.13778384
109	0x3f36a782	0.71349347
110	0x3ed0884b	0.40728983
111	0x3ea8ca0d	0.32966653
112	0x3f56897a	0.8380352
113	0xbe415d20	-0.1888318
114	0xbf55292d	-0.83265954
115	0xbf136240	-0.5757179
116	0x3debd738	0.11515659
117	0xbea357b0	-0.31902838
118	0xbc44d617	-0.012013934
119	0x3e6a7f2e	0.22900078
120	0x3e589d5f	0.21153782
121	0x3f342e10	0.70382786
122	0x3e0b44b7	0.13600431
123	0x3e2c6240	0.16834354
124	0x3f07e326	0.53080976
125	0xbd824310	-0.063604474
126	0xbdcd15a7	-0.100138955
127	0xbf48ccbe	-0.7843741
128	0xbe94d8ed	-0.2907175
129	0xbbaa73f7	-0.0052018124
130	0xbeaa021a	-0.33204728
131	0xbe96f757	-0.2948558
132	0x3ebd0781	0.36919788
133	0xbf186472	-0.5952827
134	0x3da4f1e3	0.08053949
135	0xbeaa25e9	-0.33232048
136	0xbcea5cf5	-0.028608778
137	0x3eac80a3	0.33691892
138	0x3e5c32ca	0.2150375
139	0xbe7e9167	-0.24860154
140	0x3e0c8043	0.13720803
141	0xbe8aad2f	-0.27085254
142	0xbe29794d	-0.16550179
143	0xbefdff99	-0.49609068
144	0x3d430b34	0.047618106
145	0x3f1d0a87	0.6134419
146	0xbea97647	-0.3309805
147	0x3e9439c6	0.28950328
148	0x3f89eea8	1.0775957
149	0xbe744799	-0.23855437
150	0x3f011d51	0.5043536
151	0x3f078bdf	0.529478
152	0x3ddc7108	0.107637465
153	0x3d4843e6	0.048892878
154	0x3f40c75e	0.7530421
155	0xbe570604	-0.20998389
156	0xbeb28739	-0.34868792
157	0x3f4f063a	0.80868876
158	0xbe785b1e	-0.24253508
159	0xbf2178cd	-0.6307495
160	0x3d6343c8	0.055484563
161	0xbe76ebc1	-0.2411337
162	0x3d7e9079	0.0621495
163	0x3e876bee	0.2644953
164	0xbe14c7c1	-0.14529325
165	0x3eafa526	0.34305686
166	0x3f263ffc	0.6494138
167	0xbe06722c	-0.1312949
168	0xbc2deda3	-0.010615739
169	0x3e407ba9	0.18797173
170	0xbe4b32c6	-0.19843587
171	0xbe927b28	-0.28609586
172	0x3ea48521	0.3213282
173	0xbd81021f	-0.06299233
174	0x3f20bbbc	0.6278646
175	0x3d6da373	0.058017205
176	0xbe548c6b	-0.2075669
177	0xbe6d0487	-0.23146258
178	0x3c9a17ca	0.018810172
179	0x3eb66014	0.35620177
180	0xbeb94c42	-0.36190993
181	0xbf24d0db	-0.6438119
182	0x3ec48950	0.3838601
183	0xbe3a5da1	-0.18199779
184	0xbefdbc14	-0.49557555
185	0xbf014694	-0.5049832
186	0x3f1423fb	0.578674
187	0xbec9825b	-0.39357266
188	0xbe1a70d2	-0.150821
189	0x3f178bf4	0.59197927
190	0x3d313093	0.043259215
191	0xbe8fd3f8	-0.28091407
192	0x3f11cd83	0.5695421
193	0xbf0d903c	-0.5529821
194	0x3b96a303	0.004597069
195	0x3e7d5061	0.24737693
196	0x3efec5e9	0.49760368
197	0x3e73193a	0.23740092
198	0x3eae5bda	0.34054452
199	0x3eec2b9b	0.46127018
200	0x3e94307b	0.28943238
201	0xbf026f93	-0.509515
202	0x3d3f6417	0.046726312
203	0x3e1a7472	0.15083483
204	0xbf4f5eb5	-0.81003886
205	0xbf35081f	-0.70715517
206	0x3df05dc4	0.117366344
207	0x3e802610	0.2502904
208	0xbf5844f0	-0.8448019
209	0xbe0a29c6	-0.13492498
210	0xbeb62095	-0.35571733
211	0x3edee542	0.43534285
212	0xbe278ac5	-0.1636153
213	0x3f10ee59	0.5661369
214	0x3f24d033	0.64380187
215	0xbeb60898	-0.35553432
216	0xbf5d73a0	-0.86504555
217	0xbe3efbfe	-0.18650815
218	0xbdf278bc	-0.118394345
219	0xbed58047	-0.4169943
220	0xbe670179	-0.22559156
221	0xbe996355	-0.29958597
222	0x3d4a84e1	0.04944313
223	0xbf410846	-0.7540325
224	0xbe330c16	-0.17485079
225	0x3f18c2e8	0.59672403
226	0x3e9a22fb	0.30104813
227	0xbea460dc	-0.32105148
228	0x3ed32b8c	0.4124416
229	0x3f314ba7	0.6925606
230	0x3ef1d699	0.47234038
231	0xbf240707	-0.6407322
232	0x3f596506	0.84919775
233	0x3ea90b75	0.33016554
234	0xbe22f6b0	-0.15914416
235	0x3f69b17a	0.9128643
236	0xbe214065	-0.15747221
237	0xbee39b56	-0.4445445
238	0x3ec7817e	0.38965982
239	0xbe44e9e9	-0.19229855
240	0xbe85c186	-0.2612421
241	0xbf251317	-0.64482254
242	0xbe2ce6b6	-0.16884884
243	0xbe53003d	-0.2060556
244	0xbedbf7d8	-0.42962527
245	0xbe7c66a3	-0.24648528
246	0x3d71f909	0.05907539
247	0x3f3c4e02	0.7355653
248	0x3e80cd04	0.25156415
249	0x3eafa33b	0.34304222
250	0x3f582201	0.84426886
251	0x3e54e085	0.20788772
252	0x3ebc4014	0.36767638
253	0xbe776fb4	-0.24163705
254	0x3ece560a	0.40300018
255	0x3f41b098	0.75660086

net.0.bias f4 [256]
0	0x3dcab729	0.09898216
1	0xbf03d206	-0.51492345
2	0xbf7101f9	-0.94143635
3	0x3d998eb5	0.07497922
4	0xbe4ababd	-0.19797798
5	0x3ef98e79	0.4874151
6	0xbd300507	-0.042973544
7	0xbd834ec6	-0.06411509
8	0x3e75b350	0.23994184
9	0x3ed9c8f1	0.4253612
10	0x3ec90aa0	0.3926592
11	0x3e2ef954	0.17087299
12	0x3f24a9e7	0.6432175
13	0x3d896063	0.067078374
14	0x3e4a8f4e	0.19781229
15	0x3dd6b152	0.1048304
16	0x3ea761d2	0.32691818
17	0x3e48f9b5	0.19626506
18	0x3ed991dc	0.42494094
19	0x3e7a57f4	0.24447614
20	0x3f015544	0.5052073
21	0x3ce58cc1	0.028021218
22	0xbdc26b81	-0.09493161
23	0xbd0d6aa5	-0.034525532
24	0xbe721fb7	-0.23644911
25	0x3ec2c461	0.3804045
26	0x3e92b23a	0.286516
27	0xbe73e5fb	-0.238182
28	0x3c25afbe	0.010112701
29	0x3cb0f925	0.021603176
30	0x3e882708	0.26592278
31	0x3ea4ffc3	0.3222638
32	0x3dcd7730	0.10032499
33	0x3f3573fb	0.708801
34	0xbde00e3e	-0.109402165
35	0xbf44d9be	-0.7689475
36	0x3e48c21a	0.19605294
37	0x3cfa9e9e	0.030593213
38	0x3f0d6a3a	0.55240214
39	0xbd122004	-0.035675064
40	0xbd4a09b3	-0.049325656
41	0x3e59a52b	0.21254413
42	0x3e09948c	0.13435572
43	0x3ec6c45e	0.3882169
44	0x3eb7e94d	0.35920182
45	0x3e182a04	0.14859778
46	0x3e1be0bd	0.1522245
47	0xbe9b9c26	-0.3039257
48	0xbdfca4a3	-0.123360895
49	0xbda356ee	-0.07975565
50	0xbf1ccbe7	-0.6124863
51	0x3df9f162	0.12204243
52	0x3eb09abe	0.3449306
53	0xbf17c5f7	-0.59286445
54	0x3dc8beb5	0.098019995
55	0x3e5b3187	0.21405612
56	0xbb8b7fef	-0.004257194
57	0xbeba1b74	-0.3634907
58	0xbe6202e4	-0.22071415
59	0xbedf1ef8	-0.43578315
60	0xbcc537a1	-0.024074377
61	0xbea50c25	-0.32235828
62	0xbf018d5f	-0.5060634
63	0xbed3df10	-0.4138112
64	0x3d2dd538	0.04243967
65	0x3eaae340	0.33376503
66	0xbea0e228	-0.31422544
67	0xbeead58f	-0.45866057
68	0xbdc1cb42	-0.094625965
69	0x3ef0497b	0.4693106
70	0x3f003248	0.50076723
71	0x3e8e6ac4	0.2781583
72	0x3de4a758	0.11164731
73	0xbe8dc76b	-0.27691206
74	0xbe872cc6	-0.26401347
75	0xbece01bf	-0.40235707
76	0xbee00a63	-0.43757924
77	0x3edb4594	0.4282652
78	0xbd3e143e	-0.046406023
79	0xbebe5e4f	-0.37181327
80	0x3f20bea9	0.62790924
81	0x3c7513da	0.014958346
82	0x3f03eb88	0.5153127
83	0xbdddabff	-0.10823821
84	0x3ef3d010	0.47619677
85	0xbe99f665	-0.30070797
86	0x3f190235	0.5976899
87	0xbd64a8ef	-0.05582517
88	0xbdff812f	-0.12475812
89	0x3ec9a335	0.3938233
90	0x3dc6e341	0.09711314
91	0x3eb10a33	0.34578094
92	0x3e93ef9a	0.2889374
93	0xbea67892	-0.32513863
94	0x3ec03b05	0.37545028
95	0x3c5eacb6	0.013590982
96	0xbbe7702a	-0.0070629315
97	0x3e893045	0.2679464
98	0xbe7df160	-0.24799109
99	0x3f1e5ada	0.6185738
100	0xbf156a80	-0.5836563
101	0x3edae804	0.4275514
102	0xbef6a371	-0.4817157
103	0xbf0cf1db	-0.5505654
104	0xbe83e6c6	-0.25762004
105	0x3ea891a9	0.3292363
106	0xbdf49b70	-0.1194371
107	0x3e500ac9	0.20316614
108	0x3f2581f1	0.646514
109	0x3e72dc24	0.2371679
110	0x3f0a87f7	0.54113716
111	0x3f1d997d	0.6156233
112	0x3e86d036	0.26330727
113	0xbe99f631	-0.30070642
114	0x3ed11fc9	0.40844563
115	0x3ea74b81	0.32674792
116	0x3ea13ca9	0.31491593
117	0xbe474ee8	-0.19463694
118	0x3d92450e	0.071420774
119	0xbe6f2806	-0.23355111
120	0x3f0a5528	0.5403619
121	0xbda5829d	-0.08081553
122	0xbf05bfa4	-0.52245545
123	0x3d8de3a0	0.06928182
124	0xbe71629d	-0.23572774
125	0x3e980a20	0.29695225
126	0x3ef774db	0.4833134
127	0xbe9e3ad4	-0.30904257
128	0x3ea01a27	0.31269953
129	0x3d5de7aa	0.05417601
130	0x3f191b70	0.5980749
131	0xbe8225aa	-0.2541936
132	0x3db46acd	0.08809433
133	0x3f16e84f	0.58948225
134	0xbe8c76fc	-0.27434528
135	0x3e84d2e6	0.25942153
136	0x3ee588e7	0.4483101
137	0xbf570cb4	-0.8400376
138	0xbef2a8a1	-0.4739428
139	0x3e2d730b	0.16938417
140	0xbeedfb94	-0.46481
141	0xbf32028a	-0.69535124
142	0xbecfa9e8	-0.40559316
143	0x3e78c6ae	0.2429454
144	0x3c7e7960	0.015531868
145	0x3eacd6fd	0.33757773
146	0x3ebb433e	0.3657474
147	0x3f2f79e8	0.6854539
148	0xbeb566e2	-0.35430056
149	0xbee84aba	-0.45369512
150	0x3ef19f9a	0.4719208
151	0x3e8e0fa6	0.27746314
152	0xbe9456be	-0.2897243
153	0xbee594fc	-0.4484023
154	0x3e4a4679	0.19753446
155	0x3efa4648	0.48881745
156	0xbdc6d312	-0.09708227
157	0xbe668e3d	-0.22515197
158	0xbda5e56a	-0.08100398
159	0xbee2e441	-0.4431477
160	0x3efc5704	0.49285138
161	0x3e890a88	0.26765847
162	0xbe5deddd	-0.21672769
163	0xbf01c4c7	-0.50690883
164	0xbd12a527	-0.035802033
165	0x3df81487	0.1211329
166	0xbd441b42	-0.047877558
167	0x3c99d356	0.01877753
168	0xbe9f17d4	-0.31072867
169	0xbef73d07	-0.48288748
170	0xbf085c53	-0.53265876
171	0xbe98cb65	-0.29842678
172	0xbea9943b	-0.33120903
173	0x3eae7ba3	0.34078702
174	0xbf3b7320	-0.7322254
175	0x3ebebfd2	0.37255722
176	0xbe2e9ba9	-0.17051567
177	0xbef96a38	-0.4871385
178	0x3ca0a504	0.019609936
179	0xbf27d0a2	-0.65552723
180	0xbc64cba5	-0.013964568
181	0xbeb3cbe0	-0.35116482
182	0x3daba1b9	0.083804555
183	0x3ee4f0a6	0.4471485
184	0xbe4aaf67	-0.19793473
185	0xbf0c765d	-0.5486811
186	0x3d8a9ad9	0.06767816
187	0xbf423919	-0.75868374
188	0xbe378849	-0.17923082
189	0x3d68881d	0.056770433
190	0xbe0e0633	-0.13869552
191	0xbef71fca	-0.4826644
192	0xbe242711	-0.16030528
193	0xbddb4285	-0.10706047
194	0xbe7a7ee1	-0.24462463
195	0xbef0864c	-0.4697746
196	0x3c8d2fec	0.017234765
197	0xbdb9b14c	-0.0906702
198	0x3db22a0d	0.08699427
199	0x3ec3e607	0.38261434
200	0x3ec8cfb0	0.39220953
201	0xbf6cc28e	-0.92484367
202	0xbf14536e	-0.57939804
203	0x3e10563e	0.14095399
204	0x3efeb0aa	0.4974416
205	0x3ecb6000	0.3972168
206	0x3d720ae8	0.059092432
207	0x3eb91f40	0.36156654
208	0x3ea8b5a4	0.3295108
209	0xbd69b7ff	-0.057060238
210	0xbe7889b9	-0.24271287
211	0xbeec463e	-0.4614734
212	0x3e82992c	0.25507486
213	0x3eae9bd1	0.34103253
214	0x3cc57639	0.024104225
215	0xbb5c6ffc	-0.0033636084
216	0x3f075c02	0.5287477
217	0xbc90e49a	-0.01768713
218	0x3e55c431	0.20875622
219	0xbf07430c	-0.5283668
220	0x3f12d099	0.57349545
221	0xbf09b211	-0.5378733
222	0xbecbfd1e	-0.3984155
223	0x3ed02c56	0.40658826
224	0xbf15a314	-0.5845196
225	0xbe8afdc3	-0.2714673
226	0x3eb69a96	0.35664815
227	0x3ed42879	0.41437128
228	0x3f26c35c	0.65141845
229	0x3f2370b0	0.6384382
230	0x3db94630	0.0904659
231	0x3f0b083a	0.5430943
232	0x3e95a3af	0.29226443
233	0xbf012e6a	-0.5046145
234	0x3eb62e6f	0.355823
235	0x3cccc36d	0.02499553
236	0x3eb30718	0.3496635
237	0xbeba04c0	-0.3633175
238	0x3d0b7e1c	0.034055814
239	0xbefa5085	-0.48889557
240	0xbe3b9b69	-0.18321003
241	0xbdfe0a8d	-0.12404356
242	0xbf0ca737	-0.5494265
243	0xbeaec3ee	-0.34133857
244	0x3da902bb	0.08252474
245	0x3d8cbc91	0.06871904
246	0x3ee32f62	0.44372088
247	0x3e87cb29	0.26522186
248	0x3d5f37f6	0.054496728
249	0x3ea3de6e	0.32005638
250	0xbdcdf2ef	-0.100561015
251	0x3f1695ec	0.5882251
252	0xbf6569fe	-0.89614856
253	0x3ead7169	0.33875588
254	0xbda5ab5c	-0.08089325
255	0xbe065664	-0.13118893

net.2.weight f4 [128, 256]
0	0xbd2325e8	-0.039831072
1	0xbd56e256	-0.052461945
2	0xbd5ecf2e	-0.0543968
3	0x3d013d36	0.031552516
4	0xbd556c03	-0.05210496
5	0xbd840e2e	-0.06448017
6	0xbc1b8f7e	-0.00949466
7	0xbcacfd99	-0.021117019
8	0xbba5dac6	-0.00506148
9	0x3d0b83f0	0.034061372
10	0x3d63a925	0.05558123
11	0xbd6db7f1	-0.05803675
12	0xbc5160c3	-0.012779417
13	0xbb6a36a0	-0.0035738125
14	0x3d7ec43a	0.062198855
15	0xbcf7338e	-0.03017595
16	0xbcb585ce	-0.02215853
17	0xba650dea	-0.000873773
18	0x3aeca18e	0.0018053518
19	0xbb29cb63	-0.0025908581
20	0x3d107c50	0.035274804
21	0x3d148d16	0.036267363
22	0x3bb6adb4	0.0055749062
23	0xbbf47010	-0.007459648
24	0x3d74e2ce	0.05978661
25	0xbd18d4ae	-0.037312202
26	0x3c838ba2	0.016057793
27	0xbd0c9262	-0.03431929
28	0xbcfe314e	-0.03102937
29	0xbcff028e	-0.031129148
30	0xbd49c150	-0.049256623
31	0xbd1da8cb	-0.03849105
32	0xbd56146e	-0.052265577
33	0xbccbb709	-0.024867551
34	0x3cc42210	0.023942024
35	0xbd15714a	-0.036484994
36	0xbc06ca8b	-0.008227001
37	0xbbf563f4	-0.007488722
38	0xbcf365de	-0.02971166
39	0xbd4ae7a1	-0.049537305
40	0xbd331384	-0.043719783
41	0x3d394e5b	0.04524074
42	0x3abf3f40	0.0014590994
43	0x3c67bb77	0.014143816
44	0xbd79c95b	-0.060983043
45	0x3d5c0d3f	0.05372357
46	0xbc9bf5e2	-0.019038144
47	0xbcf3dcf4	-0.029768445
48	0x3d216c89	0.039410148
49	0x3a56dce3	0.0008196367
50	0xbd3fba0a	-0.04680828
51	0x3c39a472	0.011330711
52	0xbbf1ca4b	-0.0073788515
53	0x3cbec544	0.023287423
54	0x3bf40555	0.0074469247
55	0x3d0ccf7c	0.03437756
56	0x3d4cfb27	0.050044205
57	0xbd478f30	-0.04872054
58	0xbcf27f6c	-0.029601775
59	0x3d0fa79f	0.035071965
60	0xbb0c69be	-0.0021425332
61	0xbc6ed408	-0.014576919
62	0x3d1adb12	0.037806578
63	0xbbf036a0	-0.0073307306
64	0xbc9931fc	-0.018700592
65	0xbcbd2d1c	-0.023092799
66	0xbd7227d1	-0.059120003
67	0xbd802ea8	-0.06258899
68	0xbcb23c06	-0.021757137
69	0x3d27a1e6	0.040925883
70	0x3d713194	0.058885172
71	0x3d20e573	0.03928132
72	0xbd58977e	-0.05287885
73	0x3d2e912e	0.042618923
74	0x3d43c166	0.04779186
75	0xbd4eb382	-0.05046416
76	0xbc2c61eb	-0.010521392
77	0xbc71b3de	-0.014752356
78	0x3d25a662	0.04044188
79	0xba6ffcd9	-0.00091548037
80	0xbd0fac06	-0.035076164
81	0x3c8244d8	0.015901968
82	0x3d7224b5	0.059117038
83	0x3d013acc	0.031550214
84	0x3c99c519	0.018770741
85	0xbd6e792f	-0.05822104
86	0xbaa9e8be	-0.0012963039
87	0xbc8d0624	-0.017214842
88	0xbd41b128	-0.04728809
89	0x3c5f4259	0.013626658
90	0xbd72739b	-0.05919228
91	0xbd14fea4	-0.036375657
92	0xbc9d67d0	-0.01921454
93	0x3cd0db0e	0.025495078
94	0x3c0a0e0e	0.008426202
95	0xbd1d61da	-0.038423397
96	0xbcc4080a	-0.023929615
97	0x3c9876da	0.01861136
98	0x3c97954c	0.018503807
99	0xbd7b89e6	-0.061410807
100	0xbd251760	-0.040305495
101	0x3cf100df	0.02941936
102	0xbb8927f0	-0.004185669
103	0x3d4a5634	0.049398616
104	0xbc8e0e08	-0.017340675
105	0xbb6ae9b1	-0.0035844857
106	0xbc3ae100	-0.011406183
107	0xbd1139d4	-0.03545554
108	0x3d3c85e1	0.046026114
109	0xbc6925a3	-0.014230165
110	0x3c3bd9f8	0.011465542
111	0xbc47b1b0	-0.01218836
112	0xbd41237a	-0.047152974
113	0xbd07c46e	-0.033146314
114	0xbd84e260	-0.0648849
115	0xbd745460	-0.05965078
116	0xbd61962e	-0.055074863
117	0xbca709c8	-0.020390406
118	0x3d2fc116	0.04290875
119	0x3d052344	0.032504335
120	0x3bf6c5c5	0.0075309
121	0xbd544d9c	-0.051831827
122	0x3d67bd90	0.056577265
123	0x3be39ec2	0.0069464156
124	0x3d7499ea	0.059717096
125	0x3c90d006	0.017677318
126	0xbc03914c	-0.008030247
127	0x3d3a21ea	0.0454425
128	0x3c9f8e60	0.01947707
129	0x3c625eff	0.013816594
130	0xbd812190	-0.0630523
131	0xbc89d147	-0.016823424
132	0x3d23578a	0.039878406
133	0x3ace3800	0.0015733242
134	0x3ce742d5	0.02823011
135	0x3be2408f	0.0069046686
136	0x3cfe4fa5	0.031043837
137	0xbd0b2257	-0.033968296
138	0x3c93ffa8	0.018066242
139	0xbcf8f7e3	-0.03039164
140	0x3d6e02e6	0.058108233
141	0x3b083400	0.0020782948
142	0xbd5c5642	-0.0537932
143	0xbbb21b07	-0.005435351
144	0x3d39e6ad	0.045386005
145	0xbbfdc320	-0.007744208
146	0x3d690f2a	0.056899227
147	0xbcf37902	-0.029720787
148	0xbd802411	-0.06256879
149	0xbcc74126	-0.024323057
150	0xbc7f77bf	-0.015592515
151	0xbcd89e44	-0.026442654
152	0xbd42fb91	-0.047603194
153	0xbc944350	-0.018098503
154	0x3c375ad4	0.011191089
155	0xbcc3ca27	-0.023900105
156	0xbd5b6d7a	-0.0535712
157	0xbd215e7f	-0.03939676
158	0x3ceb6f97	0.028739734
159	0x3caa6724	0.020801134
160	0xbd3240ea	-0.043518938
161	0x3c8028a8	0.015644386
162	0x3d252063	0.04031409
163	0xbd679c38	-0.056545466
164	0xbd482050	-0.04885894
165	0xbc892cd7	-0.016745014
166	0xbc1c2778	-0.009530894
167	0xbd32addb	-0.043622833
168	0x3d75dd4c	0.0600255
169	0x3ca41b00	0.020032406
170	0xbb964120	-0.0045854
171	0x3c2a04c8	0.0103771165
172	0xbcfc3e74	-0.030791499
173	0x3c98d5ce	0.018656638
174	0x3c3105af	0.010804578
175	0xbc8ae142	-0.016953114
176	0xbc2487d0	-0.010042146
177	0x3c6024f1	0.0136806825
178	0xbd39019a	-0.045167543
179	0x3c10beb4	0.00883453
180	0x3d106a3c	0.035257563
181	0x3ccb8d6e	0.024847712
182	0xbd00f7e6	-0.031486414
183	0x3cd8efc0	0.02648151
184	0xbc4d0ff7	-0.012516013
185	0x3c5577db	0.013029064
186	0x3cdf0ba4	0.02722723
187	0x3c96632e	0.01835784
188	0xbd1700e9	-0.036866102
189	0xbd4a3121	-0.04936326
190	0x3bb2aea0	0.005452946
191	0xbcd2efe8	-0.025749162
192	0xbb6d2cae	-0.0036189961
193	0xbd1a0488	-0.037601978
194	0xbd2b87d3	-0.04187758
195	0xbc6e2448	-0.014535017
196	0x3d150269	0.03637925
197	0xbd69c85c	-0.057075843
198	0x3cbe5bc4	0.023237117
199	0x3d595cad	0.053066898
200	0xbd109ea6	-0.03530755
201	0xbd2dfc20	-0.042476773
202	0x3c4cce60	0.0125003755
203	0x3ce7b4fc	0.028284542
204	0x3c8d266d	0.017230237
205	0xbcaccc62	-0.021093551
206	0xbd1f68bf	-0.038918253
207	0xbd2f33e6	-0.042774104
208	0xbd7e70ed	-0.062119413
209	0x3cd9567c	0.026530497
210	0x3d7cddea	0.06173507
211	0x3d50d79a	0.050986864
212	0x3d6f9980	0.058496
213	0xbcdcc133	-0.026947593
214	0xbcb7635a	-0.022386242
215	0xbcfa6584	-0.030565985
216	0xbd09af6c	-0.03361456
217	0x3c1bcae4	0.009508822
218	0x3c7aed20	0.015315324
219	0x3ccf9437	0.025339229
220	0x3c46f0dc	0.012142386
221	0xbc866baf	-0.01640877
222	0xbb4f83a0	-0.0031664148
223	0x3cbfb003	0.023399359
224	0x3cb93a7c	0.022610895
225	0xbd08fbb2	-0.03344316
226	0xbd3d178c	-0.046165034
227	0xbd75c805	-0.060005207
228	0xba07aae8	-0.00051753083
229	0x3a997a4f	0.0011709424
230	0xbd6ec054	-0.058288887
231	0x3cffdab0	0.031232208
232	0xbd28e376	-0.04123255
233	0x3d4993bb	0.049213152
234	0x3d2937ea	0.04131309
235	0x3c163230	0.009167239
236	0x3ceced3e	0.02892172
237	0x3c8e0c46	0.017339837
238	0x3d6a41ba	0.057191588
239	0x3d39b116	0.045334898
240	0x3ce42f85	0.02785469
241	0x3d780538	0.060551852
242	0x3d4d3f8c	0.05010943
243	0xbca6d81c	-0.02036672
244	0xbd5d25d0	-0.05399114
245	0x3ca6abbe	0.020345565
246	0x3d67f87c	0.056633458
247	0xbd31d255	-0.04341348
248	0x3cfc97b8	0.030834064
249	0x3d6f0d68	0.058362395
250	0x3cad453f	0.021151183
251	0x3c3fa8c3	0.011697951
252	0x3d716e54	0.058943108
253	0x3d3ff8b4	0.04686804
254	0xbd688ddc	-0.056775913
255	0x3bda6c70	0.006665759

net.2.bias f4 [128]
0	0xbb95d32e	-0.0045722937
1	0x3c04c17f	0.008102774
2	0xbd0d66dc	-0.034521922
3	0xbd98a93d	-0.07454155
4	0xbcf3b940	-0.02975142
5	0xbd030f1f	-0.031996842
6	0xbe7319ee	-0.2374036
7	0x3d7ad86e	0.06124156
8	0xbd2e1bd1	-0.042506997
9	0xbcd64c56	-0.026159447
10	0x3c872828	0.01649864
11	0x3d4ab554	0.049489334
12	0xbd3676eb	-0.044547003
13	0xbd0dd378	-0.0346255
14	0x3d1e348b	0.038624328
15	0x3c66297a	0.014047975
16	0xbc51b25b	-0.012798871
17	0x3d19fa05	0.037591953
18	0xbc45857c	-0.012055751
19	0x3c33bf67	0.010970927
20	0x3d59e19d	0.053193677
21	0x3ac46ce3	0.0014986064
22	0xbd43360b	-0.04765896
23	0xbd218388	-0.03943208
24	0x3d530b33	0.051524352
25	0xbd347017	-0.04405221
26	0x3d6f30a8	0.05839601
27	0x3d036e71	0.032087747
28	0xbd73766b	-0.059439104
29	0xbc83025d	-0.015992338
30	0xbd84ecec	-0.06490502
31	0x3d4f334c	0.05058603
32	0x3d0d51bf	0.034501787
33	0xbd20d6cd	-0.03926735
34	0xbd566da9	-0.052350674
35	0x3d5040aa	0.05084292
36	0xbc5a8b75	-0.013338913
37	0xbd94fb4b	-0.07274493
38	0xbd0151fa	-0.03157232
39	0xbd948f03	-0.0725384
40	0x3d4a194c	0.04934053
41	0xbc218564	-0.009858463
42	0x3d9a54b1	0.07535685
43	0xbe0f33dd	-0.13984628
44	0x3bc88389	0.006119196
45	0x3d0094db	0.03139196
46	0x3c075e72	0.008262264
47	0xbc122e27	-0.008922136
48	0x3d37bb24	0.044856206
49	0x3d2f7413	0.042835306
50	0xbd997c72	-0.07494439
51	0xbdc2ba03	-0.09508135
52	0x3d25f14e	0.04051333
53	0xbbdc0f2d	-0.0067156763
54	0x3d5cfc78	0.05395171
55	0x3d499f26	0.04922404
56	0x3d4eaf7e	0.05046033
57	0xb9113ea9	-0.0001385162
58	0xbd31a660	-0.04337156
59	0xbd102e07	-0.035200145
60	0x3be85eff	0.0070914025
61	0x3b5397d3	0.003228654
62	0x3ce725cc	0.028216265
63	0x3d90313a	0.07040639
64	0xbceb7eda	-0.028747011
65	0x3b292c9f	0.002581395
66	0x3d56fbc3	0.052486192
67	0xbc332fa5	-0.010936652
68	0x3d0c0d4d	0.034192372
69	0xbd4b7040	-0.049667597
70	0xbd7194cd	-0.058979798
71	0x3c1f4e2c	0.0097232275
72	0x3d546631	0.05185527
73	0x3d093aec	0.033503458
74	0x3d6b7246	0.057482027
75	0xbb8d6a0b	-0.00431562
76	0x3d34c956	0.04413732
77	0xbc28caf9	-0.010302299
78	0x3caa08aa	0.020756084
79	0x3c018bb9	0.007906848
80	0xbcedd9a1	-0.029034438
81	0x3d215fe7	0.0393981
82	0xbdd1a726	-0.10236959
83	0xbd5d9506	-0.054097198
84	0xbd1b3c32	-0.037899204
85	0xbdf9dbd0	-0.12200129
86	0x3dab819b	0.0837433
87	0xbd8f722c	-0.070041984
88	0xbd2f6ea7	-0.042830136
89	0xbd808f8b	-0.06277379
90	0xbd05d802	-0.032676704
91	0x3d25cb05	0.040476818
92	0xbc9fc478	-0.019502863
93	0x3c5e4641	0.0135665545
94	0x3cc9d221	0.02463633
95	0xbb891fb0	-0.0041846856
96	0x3d323b1d	0.043513406
97	0x3bf4046f	0.0074468176
98	0x3c882722	0.016620222
99	0xbd59ae77	-0.0531449
100	0xbd6acf20	-0.057326436
101	0x3ce7bb49	0.028287547
102	0x3c4817a1	0.012212665
103	0xbbf477ed	-0.0074605853
104	0xbd80cdfd	-0.06289289
105	0xbd744b3c	-0.05964206
106	0xbbb2a94e	-0.0054523116
107	0xbd334a7e	-0.043772213
108	0xbd8d92a3	-0.06912734
109	0xbc4b96c1	-0.012426079
110	0xbccc4473	-0.024934983
111	0xbd550e93	-0.052015852
112	0x3dcfb0dd	0.10141156
113	0xbd715aa9	-0.05892435
114	0xbd2deabe	-0.042460196
115	0xbd141514	-0.036152914
116	0xbce4e081	-0.027939083
117	0x3cc62529	0.024187641
118	0x3c9cfd9e	0.019163903
119	0x398df2e1	0.00027074575
120	0xbd18379c	-0.03716241
121	0xba9708cb	-0.0011523006
122	0xbddeb0cf	-0.10873567
123	0x3bda4f50	0.006662287
124	0x3d85da2f	0.06535756
125	0x3cca3da5	0.024687598
126	0xbd620b0e	-0.055186324
127	0xbc210b24	-0.009829316

net.4.weight f4 [1, 128]
0	0x3d41c9f6	0.047311746
1	0x3f898475	1.0743548
2	0xbd78e128	-0.0607616
3	0xbe164beb	-0.14677398
4	0xbf5eef8b	-0.87084264
5	0xba80e3db	-0.0009833531
6	0x3fd19a0a	1.6375134
7	0xbec2a939	-0.38019732
8	0x3f55fa03	0.8358461
9	0x3cc5dcda	0.024153162
10	0xb9d41cfe	-0.00040457392
11	0x3c85b3cb	0.016321084
12	0xbfec687f	-1.846939
13	0xbd1f1d77	-0.03884646
14	0xbf5bf878	-0.8592601
15	0x3d85575c	0.06510803
16	0xbe632173	-0.22180729
17	0xba0c71f2	-0.00053575553
18	0xbe446e4d	-0.19182701
19	0xbd17de48	-0.03707722
20	0x3d7bbd45	0.0614598
21	0xbdd8e977	-0.10591405
22	0x3eb4bd40	0.35300636
23	0x3f1ea67f	0.619728
24	0x3e042014	0.12902862
25	0x3e5d7fe5	0.21630819
26	0x3e07f1fe	0.13275906
27	0x3e9bb548	0.30411744
28	0x3d1393b0	0.036029518
29	0xbe83f3d2	-0.25771958
30	0x3d13790f	0.036004122
31	0x3db4fe3b	0.08837553
32	0x3abd76db	0.0014454977
33	0x3d711381	0.05885649
34	0x4034e549	2.8264945
35	0xbeea5fa1	-0.45776084
36	0x3e9b5be9	0.3034356
37	0xbb3e967a	-0.002908139
38	0x3a51ce8b	0.00080034946
39	0xbb3015d7	-0.0026868486
40	0xbd818b1c	-0.06325361
41	0x3e2c2419	0.16810645
42	0xbe6b575f	-0.22982548
43	0x3f692d80	0.9108505
44	0xbe0c4aaa	-0.13700357
45	0xbb182906	-0.0023217811
46	0x3e1754a7	0.14778386
47	0xbeb3c5c3	-0.35111818
48	0x3de7d25f	0.11319422
49	0x3dadccbe	0.08486317
50	0xbd4ebe6c	-0.05047457
51	0xbe3a36fe	-0.1818504
52	0xbe87fc00	-0.26559448
53	0x3d2603a9	0.040530834
54	0x3f168166	0.58791196
55	0xbf016d0f	-0.50557035
56	0x3de7f8ea	0.113267735
57	0xbec211f6	-0.37904328
58	0x3e8d0156	0.27540082
59	0x3a91a2cf	0.0011111143
60	0x3e1008af	0.14065813
61	0x3d00f561	0.03148401
62	0xbe2ba979	-0.16763867
63	0xbe33d010	-0.17559838
64	0x3e03d899	0.12875594
65	0x3e9e752f	0.3094878
66	0xbdacc6ed	-0.084363796
67	0x3df6e6a3	0.12055709
68	0xbd960aa5	-0.07326249
69	0xbbcb6d9c	-0.006208135
70	0xbf42a029	-0.76025635
71	0xc0022c4c	-2.0339537
72	0xbe1b1201	-0.15143587
73	0xbda4b6dc	-0.0804269
74	0xbe02b44a	-0.12764087
75	0x3d8efd5d	0.06981919
76	0x3e378d69	0.17925037
77	0xbf25b10a	-0.64723265
78	0xbe0450b0	-0.12921405
79	0x3f7f8253	0.99808234
80	0xb8cf8cd3	-9.89676e-05
81	0x3d71f9c1	0.059076075
82	0xba1a537d	-0.00058870745
83	0x3a59bd0e	0.00083060644
84	0x3f4e1008	0.8049321
85	0xbea85c01	-0.32882693
86	0x3d7ada6d	0.061243463
87	0x3a3db0e2	0.00072361354
88	0x3fdb04aa	1.7110798
89	0x3dc2f9b0	0.0952028
90	0x3d52535b	0.051349025
91	0x3f5fa89c	0.8736665
92	0x3e8fd83d	0.28094664
93	0xbd46e348	-0.048556596
94	0x3c9a72c0	0.018853545
95	0xbd184c7f	-0.037182327
96	0x3f04908e	0.5178307
97	0x3d86d6e4	0.06583956
98	0x3ae43572	0.0017410947
99	0x3b2a47cb	0.0025982733
100	0x3d04c6f7	0.03241631
101	0xbdf1f48e	-0.11814223
102	0xbe5045ac	-0.20339078
103	0x3f5821be	0.84426486
104	0xba78aa03	-0.0009485783
105	0x3e2babab	0.16764705
106	0x3d2224b4	0.039585784
107	0x3ec5a502	0.38602453
108	0x3ab26ad6	0.0013612162
109	0xc0bb32fc	-5.8499737
110	0x3f045e71	0.51706606
111	0xbfdc8eaa	-1.7231038
112	0x3f36d73f	0.7142219
113	0xbd33c12d	-0.0438854
114	0xbfb8e606	-1.4445198
115	0xb8c57bc9	-9.416749e-05
116	0x3cd98c6d	0.026556218
117	0xbf2215c5	-0.6331447
118	0x3c026247	0.007958001
119	0xbf0f034d	-0.5586441
120	0x3e483cd0	0.19554448
121	0x3c0c0dd6	0.008548221
122	0xbdb62de4	-0.08895472
123	0x3db594b4	0.088662535
124	0x3f652e9a	0.89524233
125	0x3f0b7b9f	0.54485506
126	0xbdaac1b5	-0.08337728
127	0x3f8f6d7f	1.120529
