A4/models/double-dqn.pt (torch, 20335 bytes, 6 tensors)

0.weight f4 [64, 2]
000000 f4 1a 25 40 ec 5d c7 c0 e8 17 49 bf 1b a2 63 c0
       2.57977 -6.230215 -0.78552103 -3.5567691
000010 d7 05 8f be 44 90 71 c0 05 4a 02 bf 48 8e 99 bf
       -0.27934143 -3.7744303 -0.50894195 -1.1996546
000020 8e 4c 0f 3f 37 66 16 c1 2c b0 3e 3f 10 7c 11 c0
       0.5597619 -9.399955 0.74487567 -2.2731972
000030 af 7e 72 3f 14 9a 44 c1 4d fb b9 bd e2 af fb c0
       0.94724554 -12.287617 -0.09081135 -7.86522
000040 a0 58 17 3f fc da be c0 35 ca c6 3f 1e a3 05 c0
       0.59119606 -5.9642315 1.5530459 -2.088081
000050 0b f7 a9 be 27 92 a0 bf 7d 6f 61 3f e7 cd 67 40
       -0.3319629 -1.2544602 0.8806074 3.6219423
000060 05 8c 35 3f 69 ef ab c0 f3 3a 01 bf 52 88 3d c0
       0.7091678 -5.372975 -0.50480574 -2.9614453
000070 e0 a5 22 bf 4d 9e 2c bf 3b 40 90 bf c6 d8 f5 c0
       -0.63534355 -0.6742905 -1.1269602 -7.6827116
000080 57 79 20 3f 05 4d 1e c1 47 ad 39 bf 99 fc 87 c0
       0.6268515 -9.893804 -0.72530025 -4.2495847
000090 b9 87 0b be ae 25 35 c1 43 e8 92 bd 8c 90 65 c1
       -0.13625993 -11.321699 -0.07173207 -14.34779
0000a0 8a 4a 60 3f 18 b4 35 c0 4c dc 46 3f 32 15 11 c0
       0.8761374 -2.839117 0.77679896 -2.2669187
0000b0 26 3a 5c 3f d4 a6 85 c0 8c 3c b1 3f 55 db 9c bf
       0.8602623 -4.1766148 1.3846602 -1.2254435
0000c0 10 c0 a4 be bb b6 07 c1 c1 84 c0 3d 9e 52 dc c0
       -0.32177782 -8.482112 0.09400321 -6.885085
0000d0 18 d6 af 3f 3c e1 07 c1 f9 27 58 3f 81 e9 bb bf
       1.3737211 -8.492489 0.84435993 -1.4680635
0000e0 39 0f 5f bf 6a b9 59 c0 33 50 15 3f c2 dd b6 40
       -0.871326 -3.4019418 0.583255 5.71457
0000f0 e2 c5 25 3e 73 3a e4 c0 d2 2d a3 3e ef e6 d2 c0
       0.16188768 -7.132135 0.31870896 -6.59069
000100 a3 18 38 bf 04 72 93 c0 61 fd 83 3e c9 87 bb c0
       -0.7191259 -4.607668 0.2577925 -5.8603253
000110 dc 09 be bc f1 42 03 41 7b 1f 65 bf 67 3a 3d 41
       -0.02319806 8.203843 -0.8950116 11.826758
000120 77 11 b6 3f e1 37 73 41 52 a6 73 3f b7 92 f3 3f
       1.422408 15.201142 0.9517566 1.9029149
000130 26 b6 3b 3f 40 4d 51 c0 82 6b d4 3f 89 e8 75 40
       0.7332481 -3.27034 1.6595309 3.8423178
000140 e9 5c 30 bf e2 7a 83 bf c2 a0 8b be 63 f0 ba c0
       -0.6889177 -1.0271876 -0.27271086 -5.841844
000150 a6 5a 5f 3e 2c e7 ad c0 6c b7 ee 3e 79 96 b7 c0
       0.21811923 -5.434469 0.46624315 -5.7371182
000160 3a ef 43 bf c1 8b f5 be c5 48 08 bf d0 50 18 c1
       -0.76536906 -0.47958186 -0.5323604 -9.51973
000170 30 5c 87 3f b2 20 56 c0 6b ef 17 bf 1d 1e 58 c0
       1.0575008 -3.3457456 -0.593497 -3.376838
000180 46 6b 2b 3f a9 73 1f 3f b2 d3 bf 3d 9e 31 57 41
       0.6696056 0.6228586 0.093665496 13.449614
000190 c8 c7 f2 3f a1 68 78 40 1a 13 06 bf e3 47 8c c0
       1.8967218 3.881386 -0.52372897 -4.383775
0001a0 8a ee 1b bf 28 a5 83 c0 04 b4 a0 be a2 4b f4 c0
       -0.60910857 -4.1139107 -0.3138734 -7.6342325
0001b0 96 d2 c4 3d 6f 4a 2a 40 aa 0e a5 bf d4 d3 66 c0
       0.096104786 2.660793 -1.28951 -3.606679
0001c0 eb f3 14 bf 1a 94 46 c0 6a e1 8d 3f f9 52 ea bf
       -0.5818469 -3.1027894 1.1084416 -1.8306571
0001d0 2a cd 77 3f 9a 6a 94 c0 09 10 22 40 11 1e 13 41
       0.9679743 -4.638013 2.5322287 9.19484
0001e0 ed 32 f1 3c 08 38 e8 c0 74 24 d7 3d 67 c3 31 c1
       0.029443229 -7.2568398 0.10505 -11.110206
0001f0 6b a5 2a c0 5e ee 6d 41 6c c5 4b 3f af 8b 11 c0
       -2.6663463 14.870695 0.79598117 -2.2741506

0.bias f4 [64]
000000 58 e2 a3 3f a6 3b e2 be 37 69 26 3e 05 82 e1 3e
       1.280345 -0.44186133 0.16251074 0.4404451
000010 39 76 22 3f 4f 1f 4a 3f 1e 65 12 3f 8a af 35 3e
       0.63461643 0.78954023 0.5718554 0.17742744
000020 90 d0 00 3f 74 c6 75 3f bf 6d 08 3f 5c 83 c0 3e
       0.5031824 0.9600594 0.5329246 0.3760022
000030 45 b3 93 3e 94 71 eb 3f a1 6d df 3e 9d b9 f1 3e
       0.2884771 1.8394036 0.43638328 0.47211924
000040 da ec eb 3e eb 10 0f 3f 27 36 81 3e ff a1 37 3d
       0.4607914 0.5588519 0.25236627 0.044832226
000050 ec 79 5f 3f 51 7f c8 3e c2 da cc 3e a4 42 2f 3f
       0.87295413 0.39159635 0.4001065 0.6846106
000060 68 a8 8f 3e 92 07 9a 3e d1 d5 6f 3f dc b2 54 3f
       0.2805817 0.300839 0.9368563 0.8308542
000070 c0 30 36 3f ef 0d 5b 3f 1f 48 0e 3c 09 8d 23 3e
       0.71168137 0.85568136 0.008684187 0.1597177
000080 83 4a 2f bf e8 56 c5 3e 0a 40 00 3d be f9 37 bf
       -0.6847307 0.38542867 0.031311072 -0.7186545
000090 45 a9 4d 3f c2 a4 9d 3f 57 06 0f 3f 1a a0 05 3f
       0.8033641 1.2315905 0.5586905 0.5219742
0000a0 0c 06 d1 3e 90 26 62 be be 2b e1 3d 17 24 be 3e
       0.40824926 -0.22085023 0.10994671 0.3713691
0000b0 a0 06 15 be 63 68 b7 3e 0b fc e8 3e 92 5e 2d 3f
       -0.14553308 0.35821828 0.45504794 0.6772243
0000c0 39 47 be 3f 6b c5 0e bd 5f bf e6 3e 39 ea 23 3f
       1.4865485 -0.03485624 0.4506788 0.6402927
0000d0 2d 67 04 3f 68 f0 ae bd 50 c0 f1 3d 18 22 78 bf
       0.51719934 -0.085419476 0.11804259 -0.9692702
0000e0 8e 3a da 3e 83 cc 8c 3f ec 6c f4 3e e8 cb 2c 3f
       0.426228 1.0999912 0.4773935 0.67498636
0000f0 43 46 79 3c 4a 2f ba bd 9e 12 80 bf d3 da 3b 3f
       0.015214506 -0.09091051 -1.0005682 0.73380774

2.weight f4 [64, 64]
000000 34 85 08 3e 22 a4 c8 3c 99 c3 20 3d 10 dc 38 3d
       0.13332063 0.024492327 0.039249036 0.045131743
000010 c2 aa d4 bc 04 5e f6 bd 18 66 f8 3c 44 39 a4 bc
       -0.02596033 -0.12029651 0.03032212 -0.020046838
000020 13 25 8d 3d cf 74 34 be c4 1e 64 3e 56 20 f9 bd
       0.06891837 -0.17622684 0.22277361 -0.12164371
000030 3a 15 71 bc a6 df c5 bd 7a d6 0f bd 67 17 81 be
       -0.014714533 -0.09661798 -0.03511665 -0.25213167
000040 dc 42 0c 3d 79 5a f9 bc eb ba 8f 3b 96 01 99 bd
       0.03424345 -0.030438649 0.004386296 -0.074710056
000050 8b 0d f3 bd fc 9b ce 3d 6f 03 46 bd 71 e0 0c 3e
       -0.118678175 0.100883454 -0.04834312 0.13757493
000060 8d e8 37 bd 66 3b 42 3e 64 a0 62 bd aa 22 86 bd
       -0.044899512 0.18967971 -0.05532874 -0.065495804
000070 1f ed aa ba ca 30 8d bd e7 96 63 be 3e b3 58 bc
       -0.0013040638 -0.068940714 -0.22225533 -0.013226328
000080 62 6f 0b bd 56 44 c0 bd f7 37 aa 3b 31 5c 17 be
       -0.03404177 -0.09388034 0.00519466 -0.14781262
000090 4a 99 de bd 67 32 b8 bd cb fd 30 3e c7 e0 4b be
       -0.10869081 -0.089939885 0.17284314 -0.19909965
0000a0 75 f2 bc 3d 1b fb e5 bd ad 73 de bd 84 00 e4 3d
       0.092259325 -0.11229535 -0.10861907 0.11132911
0000b0 a1 30 e3 3d 8b 93 15 bd fa 0a 52 3d ec b6 ba be
       0.110932596 -0.03651766 0.05128 -0.36467683
0000c0 a4 fd 05 3d 1b 73 71 3d 48 ff 2f be 1a c5 9e 3d
       0.032712594 0.058947664 -0.17187226 0.07752438
0000d0 36 e6 82 3e 33 4e b8 3d ef 1f 0b 3d b6 7e 3d 3d
       0.25566262 0.0899929 0.033966 0.04626342
0000e0 c7 b0 59 be af ee 3b bd 81 fc 08 3e da bc 83 3d
       -0.21258841 -0.045881923 0.13377573 0.06432505
0000f0 34 90 88 be 70 5b 60 bd bb fa f8 bc ea ec 4c 3c
       -0.26672518 -0.0547747 -0.030392995 0.012507657
000100 07 55 d5 3e 07 30 26 c1 c1 64 1d 3e 5b 8a 44 be
       0.41666433 -10.386725 0.15370466 -0.19193403
000110 b5 c5 01 3e 0a d2 c3 bd 62 a9 2b 3f db 0d 2e 3d
       0.12673075 -0.09561546 0.6705533 0.042493682
000120 46 e3 9b bd 41 5a 41 3f 91 d8 b1 3e 47 7e 28 c1
       -0.07611708 0.7552834 0.3473554 -10.530829
000130 4f 05 55 c1 c2 22 86 bd ed e5 70 3d 88 20 22 3e
       -13.313796 -0.06549598 0.058813024 0.15832722
000140 85 b8 d2 3f 22 79 0d 3c 14 27 f5 be 8f c9 b2 3e
       1.6462561 0.008634837 -0.47881377 0.34919402
000150 44 46 c6 3d 84 62 16 bf 4e 37 89 c0 fb 82 94 3e
       0.09681371 -0.5874407 -4.288001 0.2900618
000160 1c 77 b0 3d 1b 77 7d bb c2 f2 90 3f 33 ef 08 bf
       0.08616468 -0.0038675729 1.1324084 -0.5348999
000170 22 8d 21 bc bf 0c 82 bf 95 1b 06 3e 6d 8b 23 c0
       -0.009860309 -1.016014 0.13096459 -2.5553849
000180 aa 7c b7 c0 aa d9 bc bd 88 ec b9 c0 67 8f 0f c0
       -5.733968 -0.092212036 -5.8101234 -2.2431276
000190 5f e9 af 3f 35 44 d0 be 34 d3 8d be 1c 0a 92 c0
       1.3743094 -0.40677038 -0.27700198 -4.563734
0001a0 65 0d d6 3e 5a 8d 1b c1 4e 19 93 c0 ca 4d d6 be
       0.41807094 -9.72201 -4.596839 -0.41856223
0001b0 2e d2 93 3c f8 95 7e 3d 1b f8 4e bd e5 47 ad 3e
       0.018044557 0.06215474 -0.05052958 0.33843914
0001c0 69 96 46 bf 29 27 b5 bf 38 80 28 be 2f 0b 19 3e
       -0.7757326 -1.4152576 -0.16455162 0.14945672
0001d0 73 72 24 3d a7 27 40 c0 d1 13 3d 3f 95 0e de c0
       0.04014821 -3.0024202 0.7385836 -6.93928
0001e0 79 f0 da bc 41 8f aa bc 8f 45 85 c0 1e 63 3c 3f
       -0.026725994 -0.020820262 -4.164741 0.7358874
0001f0 95 5c ca c0 8f ca d4 3f 2b ec 08 c1 51 4d 01 be
       -6.3238015 1.6624316 -8.557658 -0.1262715
000200 89 95 dc bc c0 06 58 bd 9d 58 b9 3c 98 71 5a bd
       -0.026926773 -0.052740812 0.022625262 -0.053330988
000210 8b 4d a6 bc cc a9 d6 bb 76 29 5e be 90 da e2 bc
       -0.020300647 -0.006551003 -0.21695504 -0.02769211
000220 f4 6d 0a be 87 88 84 3e d9 7f 44 be fd b9 81 3e
       -0.13518506 0.25885412 -0.19189395 0.2533721
000230 74 8f 21 3d 57 15 7f bd 02 d8 21 bd ba 4d 13 bd
       0.03944345 -0.06227621 -0.03951264 -0.035962798
000240 fa 6e 9e 3c 65 b8 47 3e 26 bd 8c 3c 72 24 df bc
       0.019340027 0.19503935 0.017180037 -0.027239058
000250 ff c0 aa be f1 98 bf bd 87 4c 56 3e 55 f1 93 3d
       -0.3335037 -0.09355343 0.2092763 0.07223765
000260 e6 e2 b7 bd ec c9 7e bc af 81 06 bd e1 37 0a be
       -0.08978824 -0.015551072 -0.03283852 -0.13497879
000270 a3 bc 0c bc a0 f9 80 bd 5c a3 0a 3e e4 b2 2c 3d
       -0.008589896 -0.06297612 0.13538879 0.04216279
000280 01 a5 55 3e 24 25 b7 be 8e fb 9e bd 7e 3d 7d bd
       0.20863725 -0.35770524 -0.07762824 -0.06182622
000290 f6 3c b2 bd 3f 2b 31 be 73 ba dd 3b d3 5e 83 bc
       -0.087030336 -0.17301653 0.0067666112 -0.016036427
0002a0 3b 8b 1a be c1 d9 d4 bd 97 38 a2 3d 96 bf 9c bd
       -0.15092175 -0.10393096 0.0792095 -0.076537296
0002b0 02 86 b9 bd 61 0b 16 3d ef d6 bb bd 77 e0 ca bd
       -0.09058763 0.036631946 -0.09171855 -0.099060945
0002c0 b0 08 96 bd a5 ef 25 3e 74 a2 11 be 9a b7 d8 3c
       -0.07325876 0.16204698 -0.14222127 0.026454736
0002d0 56 91 b8 3d 8b 37 68 bd fd df 8d be 84 75 89 bd
       0.09012096 -0.056693595 -0.27709952 -0.067118675
0002e0 44 d9 c1 bb 54 a5 f0 bc de 14 ac 3d 32 df f1 3d
       -0.0059157927 -0.02937571 0.084024176 0.11810149
0002f0 f9 47 c2 3c 43 7f 00 be 99 31 2e 3e 52 37 e5 ba
       0.02371596 -0.12548546 0.17011108 -0.00174878
000300 df e6 89 3d a8 4e 81 3d b5 a5 85 bd 72 b5 d6 bd
       0.06733488 0.063138306 -0.06525747 -0.10483827
000310 2d 4f 6d be b6 dc a4 be 82 7e d4 bd c8 07 79 bd
       -0.23174734 -0.3219964 -0.10375692 -0.060798436
000320 86 1c 8f be 0c 60 a6 be 6d b1 8c bd 28 18 b7 b8
       -0.2795145 -0.32495153 -0.06869779 -8.7306194e-05
000330 94 c3 98 be d9 e1 e2 bc 43 be a0 bc 40 3a 78 3d
       -0.29836714 -0.027695583 -0.019621974 0.060602427
000340 47 a2 be 3c 18 58 14 be b4 48 c6 bd 4a e7 e8 bc
       0.02327074 -0.1448673 -0.09681836 -0.0284306
000350 fb 41 3a be 73 6f 1c be 2c 5c 42 be 30 ba 86 bd
       -0.18189232 -0.1527689 -0.18980473 -0.06578481
000360 d8 aa b0 bd 4f ca 8d bd e5 ac 0b 3e 14 c4 c2 bd
       -0.08626336 -0.06923353 0.13640173 -0.09510055
000370 2a f1 3c be c8 91 de 3d db cb 60 3e b8 eb da 3d
       -0.18451372 0.10867649 0.21952765 0.10689491
000380 4b 0a 93 3d 59 0b 88 3e 8a 30 87 bc ea 3e 2c 3d
       0.071796976 0.26571158 -0.016502637 0.042052187
000390 e0 74 97 bd 37 a7 1b be f9 6b 84 be 8e 04 cc bd
       -0.07395339 -0.15200506 -0.25863627 -0.09961806
0003a0 87 9f 13 be 3c fa 07 3e 2d 24 fa bc 64 ef 13 be
       -0.14416324 0.1327905 -0.030534828 -0.14446789
0003b0 dd ae d7 bc c7 20 84 bd 66 b7 41 be b7 ca c8 bd
       -0.026328498 -0.06451564 -0.18917617 -0.0980429
0003c0 3e a3 5a 3e 6a 94 e0 bd 64 04 39 bc 5d 81 00 be
       0.21351334 -0.10965808 -0.011292551 -0.12549348
0003d0 54 85 38 bd 9b 57 b1 3e ea 07 49 be ee 57 2d be
       -0.045049027 0.3463715 -0.19631925 -0.16928074
0003e0 d5 48 60 be ca 2e 33 be cd aa b1 bd ac 13 50 bd
       -0.21902783 -0.17498317 -0.08675156 -0.05080001
0003f0 69 89 1b 3e 01 0f 32 be a6 db 06 3e 09 2f 82 be
       0.15189137 -0.17388536 0.13169727 -0.2542651

2.bias f4 [64]
000000 58 f7 e1 bc 60 69 ac 3e dc cd fd bc 8c f9 89 bd
       -0.027583763 0.33674145 -0.03098195 -0.067370504
000010 2d c0 46 bd 66 ab 25 3d df 9b 3d bd f4 01 0b bc
       -0.048523117 0.04044666 -0.04629123 -0.008484352
000020 0d d9 33 3e c8 1f ae 3f b9 48 b2 bc 75 ed a3 bc
       0.17563267 1.3603449 -0.021763192 -0.02001069
000030 c6 51 52 3e 82 25 46 bd 7e ce 92 bc b2 b0 7e bc
       0.20539007 -0.048375614 -0.017920729 -0.015545057
000040 0a d7 23 3c 0a d7 23 3c c6 47 b2 bc f9 21 ec 3e
       0.01 0.01 -0.02176274 0.4611967
000050 b7 17 11 3e 9d c2 f6 3e 69 5a 4b 3e 85 5d b6 bd
       0.14169203 0.48195353 0.19858707 -0.08904556
000060 15 97 12 3f 25 f3 b4 bd b7 35 b2 bc 5c 6f 86 3e
       0.5726178 -0.08835439 -0.021754129 0.26256835
000070 b4 7d a8 3f 30 68 ae 3d 9a 7a ac bd a4 4a bc 3b
       1.3163362 0.08515966 -0.08421822 0.0057462025
000080 4b cf 5d bd 08 31 19 bd 7f b3 f9 bd 0c da a9 bd
       -0.054152768 -0.037400275 -0.12192439 -0.08293542
000090 3f 4d b2 bc f1 dc 4a bd ce 1e e1 3e 84 42 6f bd
       -0.02176535 -0.049527112 0.43968815 -0.058413044
0000a0 e7 9e 31 bd ed 21 d1 3d 01 5f c2 3e f8 0c ae 3e
       -0.04336443 0.10211549 0.37963107 0.3399427
0000b0 7f 82 23 3e 8f f2 9c 3f 9e 6d 30 3e cd 4c b2 bc
       0.15967749 1.2261523 0.17229316 -0.021765137
0000c0 6b 66 b2 3f 0a d7 23 3c 75 c7 17 bd a7 a6 26 bd
       1.3937505 0.01 -0.03705545 -0.040686276
0000d0 74 19 a5 bd 75 f3 26 3f 7e 58 90 3e 2c 2f 92 3e
       -0.080614954 0.65215236 0.28192514 0.28551614
0000e0 b3 da b1 bc 4d 27 58 bc a4 20 bf 3e 32 e8 a1 bc
       -0.02171073 -0.013192964 0.3732959 -0.01976404
0000f0 e3 97 54 bd c0 f5 88 3e 0e e1 ff bc 95 4d b2 bc
       -0.051902663 0.26749992 -0.031235244 -0.02176551

4.weight f4 [3, 64]
000000 9e b1 a2 3d 1d b1 a7 c0 ca ac 9b 3d 9b 92 ca 3d
       0.07944034 -5.2403703 0.07601316 0.09891244
000010 6a 28 fd bd 4b 57 ae bf b4 52 58 bd 46 f8 3a be
       -0.12361224 -1.362039 -0.052813247 -0.18258771
000020 d7 80 98 40 36 a9 0c bf 2f d2 90 bc 2e bc da 3d
       4.7657275 -0.54945695 -0.017678348 0.10680424
000030 be 55 8b bf 02 24 31 be 84 a0 f8 bd 5c 77 6c bd
       -1.0885541 -0.17298892 -0.12139991 -0.057731017
000040 9e 33 47 be a3 ed a5 bc fe 9b 16 be d8 38 03 41
       -0.19453284 -0.020254916 -0.14707944 8.201378
000050 19 c2 9e 40 ae ce 71 c0 6d 31 87 c0 47 c8 39 3e
       4.9611936 -3.7782397 -4.2247834 0.18142806
000060 8f 61 d9 40 77 56 d5 3b ba d0 d8 3d ce db 55 c0
       6.793159 0.0065105516 0.105866864 -3.3415408
000070 c9 38 73 bf df 12 a5 c0 ca 6b 11 3e 08 8e 69 c0
       -0.9500852 -5.1585536 0.14201275 -3.649294
000080 c2 25 2f 3d e9 9c 36 3b 75 65 1c 3e 7c 24 12 3d
       0.042760618 0.0027864522 0.15273078 0.035679325
000090 4c d6 4f 3e 37 c4 74 bd 29 01 ab 40 5b e3 ef c0
       0.20296592 -0.059757438 5.3438916 -7.4965034
0000a0 78 53 4f 3d db 4c b2 c0 02 d0 75 40 fb e1 86 c0
       0.05061671 -5.571882 3.8408208 -4.2150855
0000b0 09 b7 74 c0 d8 b8 73 bf dd cc bc bf d4 30 da bd
       -3.8236716 -0.95203924 -1.4750019 -0.106538445
0000c0 23 6e bc bf a3 1d 47 3e 1e 81 fe 3b f5 3c 10 3e
       -1.4721111 0.194449 0.007766857 0.14085753
0000d0 4a d2 ca 3d f2 1e 84 40 8e 0b 25 c0 08 d9 0b c0
       0.09903391 4.1287775 -2.5788302 -2.1851215
0000e0 9d c7 c8 3c 64 e6 31 be d6 31 95 40 8d 89 cb bd
       0.024509246 -0.17373043 4.6623335 -0.09938345
0000f0 ca 8a 8a 3d df 5c 11 c0 98 da 8f bd 1e ec 9c bd
       0.06764753 -2.2712934 -0.07024115 -0.07662223
000100 d8 88 29 bd 34 49 84 c0 8d 72 e7 3d 41 2c d3 3d
       -0.04139027 -4.133936 0.11301146 0.10311175
000110 83 23 65 3d 90 4d e0 bf 26 62 fc 3b 72 0c bb 3d
       0.05594207 -1.752367 0.00770213 0.09133233
000120 8f ad cf 40 ec 08 6a bf 2b 17 6d 3e ef 92 52 3e
       6.4899364 -0.91419864 0.23153369 0.20563863
000130 2c 6f d5 bf 0b df 0f 3e d8 58 0b 3e 34 d4 d0 3c
       -1.6674552 0.14049928 0.1360811 0.025491811
000140 59 62 fa bd 6b 67 f2 3b 67 6a 7e 3d 0a fc 13 41
       -0.122257896 0.0073975823 0.062113192 9.249033
000150 80 a0 ef 3e 46 35 72 c0 43 05 88 c0 e5 f6 8c 3e
       0.4680214 -3.7845016 -4.2506423 0.27532116
000160 74 06 b2 40 94 91 8f 3e c0 ba 85 be 11 9e 2f c0
       5.5632877 0.28040755 -0.2611904 -2.7440226
000170 fd 80 2e bf 9c 91 6c c0 65 f1 78 3c 02 d7 62 c0
       -0.6816557 -3.6963873 0.015194272 -3.544373
000180 57 da 61 3e 42 f1 9e 3d e9 04 bc bd b6 89 0a be
       0.22055946 0.0776086 -0.09180624 -0.13529095
000190 4e ee 39 be ef 18 f4 3d c9 48 cd 40 61 5b e5 c0
       -0.18157312 0.11918818 6.415135 -7.1674047
0001a0 8b 6e c8 bc 05 fe dc c0 f1 4a 9f 40 46 e6 a1 c0
       -0.024466773 -6.9060082 4.977898 -5.0593596
0001b0 20 ad 5f c0 57 ef 6b bf a2 38 39 c0 ef 1b cc bd
       -3.4949417 -0.9216208 -2.8940816 -0.099662654
0001c0 39 92 9e bf c7 be c2 bd 5b 6b ea bc 3b f4 72 bc
       -1.2388374 -0.09509044 -0.028615644 -0.014828737
0001d0 1f 9a 1c 3e 0e 5c 87 40 cf 16 0c c0 ca 56 02 c0
       0.15293168 4.229987 -2.1888921 -2.0365472
0001e0 d3 31 ad 3d f3 99 1d be 5a 3f b0 40 4f 99 31 bd
       0.08456769 -0.15390758 5.5077333 -0.043359097
0001f0 21 59 2d 3c 68 65 10 c0 dc 9d c3 3c 52 1d 08 be
       0.010580332 -2.2561893 0.023878984 -0.13292435
000200 33 0a 12 be 30 27 07 c0 27 2a 5d 3d 1d e7 b4 bc
       -0.14261703 -2.1117668 0.053995278 -0.02208286
000210 28 fd 4d bc 99 43 2d c0 50 ed cb 3d bc 2f 1c 3e
       -0.012572564 -2.7072508 0.09957373 0.15252584
000220 01 6e f5 40 7a 79 bf bf d0 0d bb bd f8 c1 c2 3d
       7.669678 -1.4958947 -0.09133494 0.09509653
000230 32 dd 2a c0 c6 09 0d 3d ee 25 35 3e c4 85 5b 3e
       -2.6697507 0.03443315 0.1769025 0.21437746
000240 6c 5f c3 bd a6 fd f6 bc 10 4f ee 3d 85 95 13 41
       -0.09539685 -0.030150246 0.11636174 9.224004
000250 2e 1e 18 c0 25 eb 6a c0 26 5b 83 c0 1b ea 9f 3c
       -2.376842 -3.670602 -4.1048765 0.01952081
000260 64 58 c8 40 f5 ea b4 3b 98 cf 59 3d 5b 04 a2 bf
       6.26079 0.005521173 0.053176492 -1.2657579
000270 a8 ec 92 bf 99 68 5f c0 04 b7 2c bd b3 c5 4b c0
       -1.1478472 -3.4907591 -0.042166725 -3.1839416
000280 98 04 b2 3b c3 24 32 3e a6 37 74 3c b0 b8 1b 3e
       0.0054326765 0.17396836 0.014905846 0.15207171
000290 af 3a 60 bd cb 73 ef 3c 74 99 09 41 7f 17 b6 c0
       -0.054743465 0.02923002 8.599964 -5.690368
0002a0 82 d1 04 be cc 46 e1 c0 6b 2b 88 40 88 2c b7 c0
       -0.12970546 -7.039892 4.2553 -5.724186
0002b0 4c 6b 38 c0 fb 98 4b bf 3a 5f 51 c0 e9 09 ac bd
       -2.881549 -0.79530305 -3.2714372 -0.08400328
0002c0 5f 53 d8 be 43 46 69 be aa 0a de bc fa 29 0d 3e
       -0.42251107 -0.22780709 -0.027104694 0.13785544
0002d0 46 e5 bc 3c cc 6e 8a 40 85 88 84 c0 84 3f 08 c0
       0.023058545 4.326025 -4.141665 -2.1288767
0002e0 4b 83 87 bc 2f 8d b7 3d 85 26 d1 40 6f 19 5f be
       -0.016542098 0.089624755 6.535952 -0.21787046
0002f0 f4 6b d9 bc b0 bb 05 c0 1d a3 cf bd 19 b9 17 be
       -0.026540734 -2.0895805 -0.10138533 -0.14816703

4.bias f4 [3]
000000 d1 ca 91 bf 3b 11 58 c0 cf 30 6a bf
       -1.139002 -3.3760517 -0.91480726
