A4/models/double-dqn.pt (torch, 20335 bytes, 6 tensors)

0.weight f4 [64, 2]
000000 c4 f6 b4 bf d8 50 d5 c2 aa 2d 00 c1 fb 26 76 42
       -1.4137807 -106.6579 -8.011148 61.538067
000010 b9 26 aa bf 44 09 8a c2 f7 a2 8b 40 ae dd 92 42
       -1.3293067 -69.0181 4.363643 73.43297
000020 e2 96 04 41 fc f7 73 c2 32 53 b8 bf 0a 6d 8d c2
       8.286837 -60.992172 -1.4400389 -70.71297
000030 0b 9f a5 c0 90 0e e3 c2 62 26 a0 c0 66 cf 84 41
       -5.1756644 -113.52844 -5.0046854 16.601269
000040 b9 ce 88 c1 41 08 88 42 46 16 47 41 05 9f 8c 42
       -17.100939 68.01612 12.442938 70.310585
000050 71 e8 10 41 3c 65 04 c2 24 7e d2 bf ad bc 76 42
       9.056748 -33.09886 -1.6444745 61.684254
000060 46 24 bb 41 6a d9 90 42 b4 7f a7 bf 7d a8 8f c2
       23.392712 72.42464 -1.3085847 -71.82908
000070 95 be 5b c0 42 6d 9a c2 2b ed 8a 3e 53 95 ae 40
       -3.4335072 -77.213394 0.2713407 5.455728
000080 32 89 18 40 29 9d 6e 42 de 41 95 bf 74 3f 8a c2
       2.3833737 59.653477 -1.1660726 -69.12393
000090 c0 8b 31 c1 65 fe a0 c2 7e 31 ad c1 b1 71 0e 42
       -11.096619 -80.496864 -21.649166 35.611027
0000a0 2c ef dd bf 6f 2c c4 c2 73 e3 a3 c1 33 78 84 c0
       -1.7338614 -98.086784 -20.48606 -4.1396728
0000b0 89 52 8c 40 be d0 7c c2 cd 2a 04 c1 c1 4e 78 42
       4.385075 -63.20385 -8.260449 62.07691
0000c0 a0 ad bc 41 6a 90 08 41 00 9d 23 c1 b1 77 85 42
       23.584778 8.535257 -10.22583 66.73377
0000d0 35 7c 28 bf 29 e7 0c 41 73 57 93 c1 73 0a f6 c1
       -0.65814525 8.806436 -18.4177 -30.755102
0000e0 26 77 9e 3d 2e 85 eb 40 a4 f3 d8 3e 2b db 83 42
       0.077375695 7.3600073 0.42373383 65.92806
0000f0 5e 87 42 3e 78 40 b3 40 cb 04 a3 c1 89 35 86 c0
       0.18996951 5.6016197 -20.37734 -4.194035
000100 ae 0b 16 3e 64 73 18 bf eb 0e 94 c1 8c f6 9a c0
       0.14652893 -0.5955107 -18.507284 -4.842596
000110 cc 4f cf 3d 1c 9b b9 40 db 8e d3 3e 32 9b 15 c0
       0.10122642 5.8001842 0.41319928 -2.3375974
000120 ff 78 63 c1 98 a2 18 41 0d 2b bc 3f 8e 73 4f 42
       -14.21704 9.539696 1.4700638 51.862846
000130 81 62 b3 c1 d0 13 18 42 8b a7 b3 bf a6 67 89 c2
       -22.423098 38.01935 -1.4035505 -68.70244
000140 c4 a0 6c c0 82 b2 58 42 b4 b1 53 c0 3a a7 64 c2
       -3.6973124 54.174324 -3.3077211 -57.163307
000150 ca 39 21 3e bc f7 ed 3d f9 80 39 41 58 5d 60 c2
       0.15744701 0.11619517 11.593987 -56.091156
000160 9d f5 a4 3e 64 f6 e4 40 77 b2 29 bf fd 34 13 42
       0.32218638 7.155077 -0.6628794 36.801746
000170 c1 c9 ba c1 39 15 83 c0 0c 09 9f bf 20 17 8d c2
       -23.348513 -4.0963407 -1.2424636 -70.545166
000180 c1 3d 16 40 fc 58 8e c2 cd 27 43 c1 81 a3 64 42
       2.3475192 -71.1738 -12.197217 57.15967
000190 9c f7 37 3e 3c 5c 82 41 28 bd 9e c1 71 f7 ce 41
       0.17965549 16.295036 -19.842361 25.870821
0001a0 34 0e 35 40 a3 26 82 c2 6f e4 3d 3d d9 e9 2f be
       2.828992 -65.07546 0.04636043 -0.1717905
0001b0 05 44 aa 3f f5 9f 61 42 56 d6 73 3e 51 06 24 3f
       1.3302008 56.406208 0.23812231 0.6407214
0001c0 fe 3b ad c1 12 6c 04 40 e5 ca 18 42 a8 00 84 42
       -21.654293 2.069096 38.19814 66.00128
0001d0 00 d9 cc c1 6f f0 89 c0 38 bf ae 41 25 da be c0
       -25.605957 -4.3106 21.843369 -5.964129
0001e0 e9 0a 01 c0 ba fd 72 42 5d 4b 86 bf 84 5d 72 42
       -2.016291 60.74778 -1.0491749 60.591324
0001f0 c4 a8 92 c0 ac da b1 c2 75 58 a1 bf e3 2d 88 c2
       -4.5831013 -88.92709 -1.260512 -68.08962

0.bias f4 [64]
000000 eb 63 18 40 95 3d b5 3f 16 fb 76 40 14 ce b9 40
       2.3810985 1.4159418 3.859075 5.806406
000010 b5 1a 04 41 56 58 7e 40 95 52 27 40 5b f9 94 c0
       8.25652 3.9741416 2.6144154 -4.655439
000020 c8 8c 97 40 f3 f0 25 41 a8 8d 98 41 09 35 4f 41
       4.735935 10.3713255 19.069168 12.950448
000030 b3 2e 4e 41 db 14 80 40 89 1a a9 41 72 86 ce be
       12.886401 4.002546 21.137957 -0.4033695
000040 b7 78 89 41 ed 40 75 40 a8 0d ca c0 f6 cb 10 c0
       17.183943 3.8320878 -6.314167 -2.2624488
000050 0e 17 94 bf 9c ef 23 41 83 16 b9 40 1c 1a c5 3f
       -1.1569536 10.245998 5.783998 1.5398593
000060 82 94 52 41 ea 38 08 40 82 7b 7a bf 83 90 5e c0
       13.161257 2.1284738 -0.9784471 -3.4775703
000070 5b b1 e0 be f0 84 53 41 1d 4f c0 be 54 1d 23 41
       -0.4388531 13.219955 -0.3756036 10.19466
000080 da a5 f0 bd 8b c8 82 c0 15 f1 ab be 70 9d 5a be
       -0.11750384 -4.0869803 -0.33582368 -0.2134912
000090 3a fa 89 c0 8b 55 74 41 0e 22 f6 bf bf 18 77 40
       -4.311795 15.2708845 -1.9229143 3.8608854
0000a0 e0 e6 57 41 1c 82 77 41 16 c4 b7 bd 0a 5d 3d 41
       13.493866 15.469265 -0.08972947 11.835215
0000b0 f7 91 02 bf 19 eb 63 41 1f 93 3a 41 b0 6a 7b 40
       -0.51003975 14.244897 11.660918 3.9283867
0000c0 6c 65 82 41 ab 45 a9 40 1c bc 76 bf 0b 82 9c c0
       16.299522 5.2897544 -0.9638078 -4.8908744
0000d0 ff 2d a3 40 95 23 19 bd 22 79 82 41 71 05 1b be
       5.0993648 -0.03738745 16.309147 -0.15138794
0000e0 7d 9b 68 c0 c0 bc 4d 41 b2 8b 4c 41 a6 a1 3d 41
       -3.6344903 12.858582 12.784105 11.851965
0000f0 61 2a 83 41 00 8e 4f 41 c5 d7 52 41 39 37 73 40
       16.395693 12.972168 13.177678 3.8002455

2.weight f4 [64, 64]
000000 80 4e 18 3e c5 61 01 be b8 71 58 be 78 9b fa 3d
       0.14873695 -0.12634952 -0.2113713 0.122366846
000010 a0 06 a3 bd b0 bf f0 3d b1 27 66 bd 3e b2 56 3c
       -0.07960248 0.117553115 -0.056190196 0.01310402
000020 58 22 bf 3c 8a 43 30 be 1a d9 de bd 30 93 c1 3d
       0.023331806 -0.17213264 -0.108812526 0.09451902
000030 be 74 b4 bc 0d 3f de 3d 8e 51 0a be 4e b7 72 3b
       -0.022028323 0.1085187 -0.13507673 0.0037035528
000040 67 a3 ed 3d 9a a1 0b bd 20 09 51 bd 56 db 58 be
       0.11603432 -0.034089662 -0.051034093 -0.2117742
000050 4c 27 1f 3e 29 c4 8d bd a9 95 a9 3d ae 09 41 bd
       0.15542334 -0.0692218 0.082804985 -0.047128372
000060 fd f1 ad be 25 9d 91 be 8a f4 6a 3d f9 15 9c be
       -0.33973685 -0.28440204 0.057362117 -0.30485514
000070 26 2b 4f be c2 1e 90 bd 6e d6 84 bd 08 f2 37 3e
       -0.20231304 -0.070371166 -0.06486212 0.17963421
000080 86 fc da bc 44 73 38 3c 01 0b 8b be b9 b2 58 bd
       -0.02673174 0.01125795 -0.27156833 -0.05290482
000090 df 74 81 bd 67 0f 48 bd 74 51 20 be b3 c3 6a be
       -0.063211195 -0.048842814 -0.15656072 -0.22926216
0000a0 5a f4 02 3d 69 4f 30 be e0 3d 9f bc af f1 23 3d
       0.031971313 -0.17217793 -0.019438684 0.04002541
0000b0 79 97 fe 3d e3 b4 9a be c2 7b a0 3c 8f 90 58 3c
       0.12431235 -0.3021613 0.019590262 0.013218059
0000c0 a2 89 a3 be 6b ef b8 3d db 1e 7c be 75 f8 01 be
       -0.31940943 0.0903004 -0.24621145 -0.12692435
0000d0 f5 de db bd d1 bc 65 3e 43 86 8a 3d a2 f9 11 be
       -0.10735885 0.22435309 0.0676389 -0.14255384
0000e0 fc bf d0 3d 55 58 29 bd 4f ae b3 be 7c 48 2b 3e
       0.10192868 -0.041344006 -0.35093924 0.1672687
0000f0 ce fe 7f bd 75 c6 4a 3d ab c5 02 3e 98 c9 43 3c
       -0.06249886 0.04950567 0.12770717 0.011949919
000100 5c 86 99 3d 89 9d bf be d9 6c fa bd 20 23 d0 3d
       0.0749633 -0.37424877 -0.12227792 0.101629496
000110 cb b5 61 3a 55 7a c6 3d 74 7d 9d 3c ca 0b 73 3c
       0.0008610158 0.09691302 0.01922486 0.014834354
000120 df 69 28 be a1 3f 39 bd df 43 66 be 91 ed 8c bc
       -0.16446637 -0.045226697 -0.22486828 -0.017203124
000130 f8 ba 3c be f1 46 54 be f0 01 08 bd ac 30 e0 3d
       -0.18430698 -0.20730187 -0.033204973 0.109467834
000140 51 59 85 3d 16 a2 16 3d a0 58 19 3d e7 6f 49 bd
       0.065111764 0.03677567 0.037438035 -0.049178984
000150 13 75 e3 b9 1d 46 ae bd de b9 e7 3c 11 2e ab bd
       -0.0004338404 -0.08509467 0.02828687 -0.08358396
000160 16 a7 59 be b3 d9 ad be d8 b7 9c bd fa 98 f2 3d
       -0.21255144 -0.33955154 -0.07652253 0.11845584
000170 88 9e d1 3d 64 83 9a bd 69 44 64 be f9 18 0b be
       0.102353156 -0.07544592 -0.22291721 -0.13583745
000180 4a b1 42 3e a2 ec e5 3d c3 3a 08 be f0 83 66 3c
       0.19012943 0.11226775 -0.13303666 0.014069542
000190 50 b0 40 be b0 be af 3e 28 68 05 be 79 46 73 3c
       -0.18817258 0.3432517 -0.13028014 0.014848345
0001a0 3a 35 b8 bd 65 77 94 be d2 dd 6c 3d fc 21 64 be
       -0.08994527 -0.2899734 0.05782873 -0.22278589
0001b0 b7 4c 4f be 31 a9 25 bd 41 3b ef bb 9e 2f 8c 3e
       -0.20244108 -0.040444557 -0.007300765 0.2738008
0001c0 84 6d 25 3c 8c 7f 3c bc 77 ee 2f 3e 7a d3 a9 3c
       0.010096911 -0.011505019 0.17180811 0.020730723
0001d0 ba f3 7f be f0 8d 90 bd d3 e4 62 be 5c 6d a6 3d
       -0.24995318 -0.070583224 -0.22157602 0.081263274
0001e0 32 75 7f be d6 c7 24 bd 52 7e 8c bc 94 0d 03 be
       -0.2494705 -0.04022964 -0.017150078 -0.12798148
0001f0 e5 e8 36 be 6a 1f d7 b9 29 d7 0f 3d 2e 4c a0 bd
       -0.1786228 -0.000410314 0.035117302 -0.0782703
000200 4b 6e 76 c2 35 9b 86 3f 45 b0 bd 40 b1 cd 2d c2
       -61.607708 1.0516115 5.9277673 -43.45087
000210 f1 a5 25 41 42 db ab 40 ef 2d 1b c1 ce 78 bc 41
       10.353013 5.370515 -9.698714 23.558987
000220 b6 6f 7b c1 b7 69 5f c2 17 46 0f 41 2e db 03 41
       -15.714773 -55.853237 8.954612 8.241011
000230 d5 9a 1f c2 88 b9 38 40 e2 0c a2 40 1b 9d 75 3f
       -39.901203 2.886324 5.0640726 0.9594285
000240 a5 15 f4 40 fb a6 ac 40 07 84 8f c2 03 0c 14 c1
       7.627642 5.3953834 -71.757866 -9.252933
000250 99 81 aa c2 55 49 3b 40 08 5b 18 40 56 2b 80 bf
       -85.25312 2.9263508 2.380556 -1.0013225
000260 dc 8e 00 c2 91 8c 11 40 83 36 31 c1 f8 5e 5c 3f
       -32.13951 2.2742045 -11.075809 0.8608241
000270 55 32 b1 c0 56 97 07 41 71 58 08 3f 67 52 35 40
       -5.537394 8.474447 0.5325995 2.8331544
000280 b4 3c b3 3e b3 aa 15 c1 5b 28 5a c0 48 61 ac 3f
       0.3500725 -9.354175 -3.408713 1.3467188
000290 b5 85 8b c1 d7 6e eb 40 46 4e e7 3f b1 cb e7 40
       -17.440287 7.3572803 1.8070762 7.2436147
0002a0 6d 4c da 40 e4 18 c6 40 b5 e2 40 3d 2e de 39 41
       6.8218293 6.1905384 0.047091205 11.616743
0002b0 9a 8f b3 bf c9 d6 e2 40 01 44 55 40 6d 4e a8 40
       -1.4028199 7.088719 3.3322756 5.2595735
0002c0 26 64 12 41 78 f0 18 bf f7 74 b3 c0 79 33 33 c0
       9.14945 -0.59741926 -5.608028 -2.8000166
0002d0 9a fe 71 40 ac 1c 06 be 0c 44 ec 40 3d 30 a5 bd
       3.7811646 -0.13096875 7.3833065 -0.08065841
0002e0 da 49 2a 40 91 40 10 c2 89 7b 52 40 0d 97 24 c2
       2.6607575 -36.063053 3.28879 -41.14751
0002f0 3d ee d6 40 ae 41 00 41 37 7a e3 40 41 93 dd 40
       6.716582 8.016035 7.108669 6.9242253
000300 b3 14 34 c2 87 27 1d 41 9a 59 9c c2 1b 80 e6 41
       -45.020214 9.82215 -78.175 28.812551
000310 eb 4c d1 c1 a8 54 9d c2 01 67 f2 3f 33 45 13 c2
       -26.162558 -78.665344 1.8937684 -36.817577
000320 da 6c 9f 41 d2 15 f2 41 9e cd d7 bf 9d ca 55 41
       19.92815 30.260654 -1.6859624 13.361966
000330 8d 61 00 42 cc 28 9e c2 7b 13 93 c0 b7 c9 1b bf
       32.095264 -79.07968 -4.596128 -0.6085467
000340 f5 2f 04 41 ce b1 83 c2 a8 2c 8f 40 e1 de 9b 41
       8.261708 -65.847275 4.474201 19.483828
000350 52 c9 18 3f 9b 8e 53 40 b3 11 15 c2 01 01 14 41
       0.5968219 3.305579 -37.267284 9.250245
000360 63 ee fb 40 50 aa bb 40 02 86 37 3f 78 69 7f 41
       7.87285 5.86454 0.71688855 15.963249
000370 25 63 cd 3f 9b 64 51 41 20 e5 38 bf 18 2a 4a 40
       1.6045882 13.087062 -0.72224617 3.1588192
000380 54 33 99 bd c3 17 a7 41 0e 5f 52 c0 66 fe ef 3f
       -0.07480493 20.886602 -3.2870517 1.8749511
000390 85 7d e8 41 49 88 0d 41 bd 68 97 41 4e 1a 9c c2
       29.061289 8.845773 18.926142 -78.05138
0003a0 2b f8 2c 41 95 75 48 c0 e3 f8 23 3e 62 94 bf c1
       10.810588 -3.1321766 0.16012911 -23.947453
0003b0 cb dd 11 3e 69 6b 93 40 9c 58 4a 40 98 6b 90 c2
       0.14244764 4.6068616 3.1616583 -72.210144
0003c0 c8 90 96 c0 77 42 5a 41 13 68 a2 c0 90 fc d5 41
       -4.7051735 13.641227 -5.0752044 26.748322
0003d0 1f bb 6e c2 4b ab 0e 3e 48 67 11 41 3d f1 26 3e
       -59.682735 0.1393253 9.087715 0.16302963
0003e0 2d 8c 9e 41 0b 50 d9 41 2f 33 3e 40 7a 4a 02 41
       19.818445 27.164083 2.971874 8.143183
0003f0 be f4 12 41 62 21 50 41 8d 54 f8 c0 14 31 99 c2
       9.1847515 13.00815 -7.760321 -76.595856

2.bias f4 [64]
000000 8f 7c 5a bd 14 e4 7b bd d5 a6 be 40 95 28 d5 bf
       -0.053341445 -0.06149681 5.957865 -1.665301
000010 de 3c 66 3e f0 25 16 3f e3 34 4a c1 42 be ee 40
       0.22484156 0.5865164 -12.637912 7.460725
000020 0a d7 23 3c 68 d6 0e 3f 0a d7 23 3c f9 3a 6f bd
       0.01 0.5579591 0.01 -0.05840585
000030 6a c4 74 3f 8f 70 47 bd 88 25 b2 bc 12 b0 a9 bc
       0.95612204 -0.04869133 -0.021746412 -0.02071384
000040 0a d7 23 3c 9c c6 37 c1 01 7b b0 bc e7 ad f1 bc
       0.01 -11.485989 -0.021543028 -0.029501868
000050 67 3b 5a bd b3 81 4d 40 a7 e4 45 40 e5 a4 87 40
       -0.053279307 3.2110412 3.0920808 4.2388787
000060 38 77 51 bf 53 e6 b8 40 a7 82 d7 3f 4c c9 a7 bd
       -0.8182254 5.7781157 1.6836747 -0.08192691
000070 e8 b8 45 bd 27 6e 9a bc 3e d1 85 3e 76 29 2d bd
       -0.048272043 -0.018851353 0.26136202 -0.04227587
000080 a0 54 30 bd 19 a7 91 41 ea 63 8f 41 4d 99 d0 bc
       -0.043049455 18.20659 17.923786 -0.025463725
000090 48 69 57 3e d4 e4 49 c0 41 ee 0b bd 12 4d b2 bc
       0.21036255 -3.1545916 -0.034162764 -0.021765266
0000a0 e3 29 97 40 b5 df 91 3e 32 0a bd 40 01 5e 3a bc
       4.723863 0.28490987 5.9074945 -0.011374951
0000b0 34 4e b2 bc f7 76 c5 bd eb 4e b1 bc 44 96 fa 3e
       -0.021765806 -0.09641831 -0.021644076 0.4894277
0000c0 d2 19 5b bd 23 c0 b1 bc cc 9f 85 40 0c 37 21 41
       -0.05349142 -0.021698063 4.1757565 10.075939
0000d0 48 3e 7d bd 14 8a 0a 3f f0 bb d2 3e 1b c6 55 bd
       -0.061826974 0.5411694 0.4115901 -0.05219088
0000e0 ed 5b 1e 41 a5 b2 08 41 0a d7 23 3c c1 ff 42 40
       9.897443 8.543614 0.01 3.04686
0000f0 c4 73 0c c1 ef b9 00 c1 63 9a 75 41 8b 11 28 40
       -8.778263 -8.045394 15.350192 2.6260707

4.weight f4 [3, 64]
000000 36 ee 25 3e 73 38 a4 3d 70 17 4a c2 d9 88 52 42
       0.16204152 0.08018579 -50.52289 52.63364
000010 2e 29 cc bf 7d 8c b9 40 26 6c a1 42 96 05 08 42
       -1.5950067 5.7983994 80.71123 34.005455
000020 a5 d8 5e 3d d7 f4 d7 bf 25 7e c5 3b 21 c1 be bd
       0.054405827 -1.6871594 0.0060270005 -0.0931418
000030 93 de f0 3f 8e f8 33 3d 8c 6a 28 3d 36 07 b3 bd
       1.8817924 0.043938212 0.041117236 -0.0874161
000040 79 41 8f bd f7 a7 9c 42 30 8b f8 bc 43 47 df bd
       -0.0699491 78.32806 -0.030339807 -0.10902264
000050 e0 aa e2 3d 03 1c 44 42 a3 24 bb 40 24 19 a3 42
       0.11067748 49.027355 5.8482223 81.5491
000060 39 20 4d 42 6f c7 5b c2 af 18 64 42 b2 70 f4 3d
       51.281467 -54.94476 57.024105 0.119355574
000070 7a fa d4 bc 4a 96 0c 3e 24 68 e9 bf 03 e7 e6 ba
       -0.025998343 0.13729206 -1.8234906 -0.0017616454
000080 68 2c fd bc f4 d5 e6 41 a0 b7 f3 41 4b 7f d2 bc
       -0.030904964 28.85447 30.46466 -0.025695464
000090 ee f2 b8 40 cc 8d 66 42 46 57 a0 3d 45 4e bb 3d
       5.7796545 57.638474 0.07829146 0.09145788
0000a0 4a 89 5c 42 b0 d6 5b c0 9d 92 73 c2 e2 2a 01 3c
       55.13407 -3.4349785 -60.893177 0.007883759
0000b0 14 55 56 3d a1 60 f8 bb 60 e1 03 be 52 c3 84 42
       0.05232723 -0.0075798784 -0.12878942 66.381485
0000c0 da 2b 4d bd b6 96 12 3e e2 65 86 42 c7 0a 04 42
       -0.05009065 0.14315304 67.19899 33.010525
0000d0 96 99 ad 3c 2c 24 f8 bf 37 f9 2e c0 aa 30 db 3d
       0.0211914 -1.9386039 -2.7339609 0.10702641
0000e0 0f 9f 03 42 5d 19 f5 41 72 e8 f8 bc d7 e1 2b 42
       32.90533 30.637384 -0.030384276 42.970547
0000f0 8c 5f 85 42 69 77 82 42 8b 76 49 42 4d 72 bc 40
       66.686615 65.23322 50.365765 5.8889527
000100 56 08 4a 3e 6d 83 bc bd 3c b0 51 c2 38 f8 47 42
       0.19729742 -0.09204755 -52.422104 49.9924
000110 fb b3 dd bf 84 55 98 40 ab 60 9c 42 bb f5 0f 42
       -1.7320551 4.760439 78.188805 35.98997
000120 53 7d cf 3d 85 b1 f3 bf d2 9a 2a 3e 9d 6f e1 bd
       0.101313256 -1.903855 0.16660622 -0.11007617
000130 ba 63 18 40 a1 aa 7a bd 52 88 03 be 57 0c 8a bd
       2.3810868 -0.06119788 -0.12844971 -0.06740635
000140 dd bf 8f 3e 0f f4 9a 42 aa fa b7 3e 62 27 ba bd
       0.28076068 77.47668 0.3593343 -0.09089543
000150 6b 09 0f 3d a1 2f 66 42 49 51 bc 40 9d 00 a1 42
       0.03492109 57.546513 5.8849225 80.5012
000160 03 04 5a 42 70 e6 59 c2 56 5b 42 42 c7 97 c0 3d
       54.503918 -54.475037 48.589195 0.09403949
000170 3a c3 c2 bc 5f f4 d5 3b 27 9b 0d c0 e0 c4 2e 3d
       -0.023774732 0.0065293754 -2.2125947 0.042668223
000180 4b fb dd 3d 01 5b f0 41 bb 63 02 42 c9 c9 61 bd
       0.10838946 30.044436 32.597393 -0.055124078
000190 4e 19 a9 40 ed aa 60 42 e5 55 28 3e 1f c5 72 be
       5.284339 56.16692 0.16439016 -0.23708008
0001a0 c8 2e 36 42 92 83 5f c0 8a d6 5e c2 d3 b4 95 3d
       45.545685 -3.4924054 -55.70951 0.0730988
0001b0 8a a2 31 be 2e df 4d 3d 11 e6 ea bc f2 9b 84 42
       -0.1734716 0.05026167 -0.028674157 66.30458
0001c0 93 c0 4f 3e f2 ab 8a 3c 5d 73 81 42 65 c9 12 42
       0.20288305 0.016927693 64.72532 36.696674
0001d0 05 e5 55 bc 97 b1 20 c0 ee 2e 49 c0 df 4f 8f 3d
       -0.013055091 -2.5108392 -3.1434894 0.06997656
0001e0 b6 f9 09 42 94 1f e7 41 c1 cc c6 bd fc a8 2e 42
       34.49386 28.890419 -0.097070225 43.665024
0001f0 50 68 80 42 55 7e 79 42 28 28 33 42 7c dd 7f c1
       64.203735 62.37337 44.789215 -15.991573
000200 23 fd 85 bc 9b c1 30 bb 82 85 2c c2 48 54 56 42
       -0.016356057 -0.0026970867 -43.13038 53.582306
000210 41 2b 22 c0 e4 7d 9c 40 d6 02 95 42 09 e1 25 42
       -2.53389 4.8903675 74.50554 41.46976
000220 43 2e d5 3c ba 71 d7 bf 9c 88 ed 3c 8d 20 58 3e
       0.026023036 -1.6831582 0.028995804 0.21106167
000230 38 21 61 40 ad d7 5a 3e b0 ce a9 bd 79 33 77 be
       3.5176525 0.21371336 -0.08291376 -0.24140729
000240 92 74 d3 3c f3 74 96 42 79 f7 63 bd ab d9 24 3e
       0.025812421 75.22842 -0.05565593 0.16098659
000250 aa 91 95 39 f2 67 86 42 a9 0c c6 40 95 cf 98 42
       0.00028528023 67.20302 6.1890454 76.40543
000260 fb 94 78 42 61 c5 23 c2 f3 c4 2a 42 3e a8 49 3c
       62.14549 -40.942753 42.692333 0.0123081785
000270 ea 02 7e 3c e6 ff b7 3c db f3 04 c0 c6 82 00 3d
       0.015503624 0.02246089 -2.0773838 0.031374715
000280 69 b3 08 3d 90 d2 ef 41 4f 88 f5 41 1a a8 79 bd
       0.033374224 29.977814 30.691557 -0.06095133
000290 90 f8 c8 40 1e 43 7d 42 19 49 7b 3d f8 ea 0b 3d
       6.280342 63.315544 0.06134901 0.03415963
0002a0 d2 db 8f 42 c6 65 75 c0 4b 20 21 c2 cb 6a 5e 3d
       71.92934 -3.8343368 -40.281536 0.054301064
0002b0 34 c5 54 3d 2a 5d fe 3c 12 49 ba bb 97 4e 43 42
       0.05194588 0.031050283 -0.00568498 48.826748
0002c0 6a 78 e8 3c e2 d2 d3 bc a2 17 86 42 85 4b 13 42
       0.02837773 -0.025857393 67.04616 36.82375
0002d0 1c 66 34 3d 60 77 51 c0 66 9a 60 c0 80 cf b4 bc
       0.04404269 -3.272911 -3.5094237 -0.0220716
0002e0 56 6c 06 42 97 79 8a 41 a3 93 84 3c ec d3 65 42
       33.605797 17.30937 0.01618368 57.456955
0002f0 91 87 81 42 b7 6a 81 42 00 4b 3b 42 7f c2 41 c2
       64.76478 64.70843 46.823242 -48.439938

4.bias f4 [3]
000000 be 0d da 41 94 a0 d9 41 ba 3f 65 41
       27.25671 27.203407 14.328058
