A4/models/dqn.pt (torch, 19959 bytes, 6 tensors)

0.weight f4 [64, 2]
00000000: aa24 203f 3d1a 0440 d4cc 893e 7e3d c2c1
00000010: 4c26 ecbf 6119 25bf e541 5cbf 1ed7 1cc1
00000020: 22f0 e83f 6576 0240 1402 313f d494 9c40
00000030: 443d 2cbe 3186 8640 41c8 983d 2361 543e
00000040: b1eb 2740 7866 d4c0 18ea dc3f a255 d6c0
00000050: dbcf 0f40 586b e5c0 fcde 913d 7103 88bd
00000060: e514 963f 4a73 9240 88d2 163e 3531 1cc1
00000070: 99ee 1a3f 05aa 7340 ec87 993f 4fc4 bec0
00000080: ce12 2e3f c110 5840 b846 443f 8723 dac0
00000090: 7d8e bb3e bb1c 80c0 c18a 3a3d 567a 1fbf
000000a0: e0d8 173f 3740 1dbf 8151 aebf df8b 8040
000000b0: 3bf6 11be 505c c1c0 d800 49bf 95cd 2940
000000c0: 196e e4bf 21e7 0cc0 ce29 343f 22ed 7640
000000d0: bde4 3e3e 0a7e 223f 1d8b 3a3f 9ff5 8740
000000e0: df9a e53f b4df 0dc1 d9e9 56bf a880 7740
000000f0: 24bc 8dbe e2bc 2ec1 c9d0 963f 41f1 24c0
00000100: 0362 323f a039 2dc1 bbaf 4fbf 7e9f 5740
00000110: a4ce b7bf 8a6e 013e a25a b33e b2da 48c1
00000120: 128b 7740 1275 13c0 2d4b 6f3f fdef a6be
00000130: d00b 3b3f a534 9b40 3294 54bf e4b5 8fbf
00000140: f089 c2bf 3766 1dc1 92ca 203f 1ee5 6840
00000150: 3763 b63d f19d b2be 3a78 7d3e 645b ecc0
00000160: 5872 56bf de85 6ac1 166c 74be 8bc6 6540
00000170: 9136 90bf c7df 413f 89b7 c43d 33d5 81c0
00000180: 3603 173f 0a83 8740 8765 0abf 5bd2 db40
00000190: 8323 21bf ac4f 5dc1 fb10 f9be 4dbb 0fc0
000001a0: 74f5 153f 9977 d9c0 14f3 223f e18d 5540
000001b0: a060 1f3f 5841 9040 0111 753f 33d0 2bc1
000001c0: 16df 6ebf 206e 9440 fc57 723f 350a e5c0
000001d0: bdb5 f13e 4f4a 7d40 64e2 7cbf 555f 26c1
000001e0: ee3a 48bf 0228 a6c0 252d 4c3f 0ba5 5140
000001f0: a063 e5bf 15ec a3c0 ee60 293f 1d9a 9740
0.62555945 2.0641015 0.26914084 -24.280025 -1.8449187 -0.6449185 -0.8603805 -9.802519
1.8198283 2.0384762 0.69143796 4.8931675 -0.16820246 4.203881 0.074600704 0.2074018
2.6237605 -6.6375084 1.725894 -6.697953 2.2470615 -7.1693535 0.07122609 -0.066412814
1.1725127 4.5765734 0.14728749 -9.762013 0.6052032 3.8072522 1.1994605 -5.9614635
0.67997444 3.3760226 0.7667041 -6.816837 0.36632147 -4.003507 0.045542482 -0.62296045
0.593153 -0.6142611 -1.3618623 4.017074 -0.14254086 -6.0425186 -0.7851691 2.6531727
-1.7846099 -2.201607 0.7037629 3.8582234 0.18641944 0.6347357 0.7286852 4.248733
1.7937888 -8.867115 -0.83950573 3.8672276 -0.27682602 -10.921114 1.1782466 -2.577225
0.69680804 -10.826569 -0.8112752 3.3691096 -1.4359937 0.12639824 0.35030085 -12.553392
3.8678632 -2.3040204 0.93474084 -0.32604972 0.730649 4.8501763 -0.8303863 -1.1227384
-1.5198345 -9.837455 0.628091 3.6389842 0.089056425 -0.34886125 0.24752894 -7.386156
-0.83768225 -14.657682 -0.23869357 3.590243 -1.1266652 0.7573208 0.09605319 -4.0572753
0.58989275 4.234746 -0.5406117 6.869428 -0.6294481 -13.831951 -0.48645768 -2.245807
0.58577657 -6.7958493 0.6365216 3.3367846 0.62256813 4.5079765 0.9572907 -10.73833
-0.9330915 4.638443 0.94665504 -7.157496 0.47208968 3.9576604 -0.98782945 -10.398274
-0.7821492 -5.192384 0.79756385 3.2756984 -1.7921028 -5.1225686 0.6616353 4.7375627

0.bias f4 [64]
00000000: 0d82 563f d5d9 a93d 8d66 16bf 7eb6 d83e
00000010: 4f35 e53f 5b07 623f 5fc4 b3be 4d9d 82bd
00000020: 6866 303f 8e42 2d3f b45f 113f 6f0a 7ebd
00000030: 8c10 053f 3f9c 133f 01c7 363f 36b8 2d3f
00000040: 7d92 7e3f 087c 033f caba bb3e f315 14bd
00000050: 6077 593f 9b38 8dbf 7931 0dbf da1c ae3e
00000060: 3d4f 4ebf d9c2 463f d149 07be 210d 713f
00000070: b518 da3e 25c3 393f 412f 313f d6bb 7f3f
00000080: afb8 a03e 6aee d23e 6cd9 b8bf 6ba6 0ebd
00000090: 3bdb 8b3f 552c 673f f881 5d3f 8fe1 87bf
000000a0: 5758 8ebf 0b86 683f 97e5 81bd e2c6 203d
000000b0: c895 063f e4b2 933f 404d 2fbf 7015 7abe
000000c0: 6666 493f 01fa 4abf af4c 0cbf 5f6a 3cbf
000000d0: 0e19 2a3e 0634 6f3f fc7b 823f e3b3 283f
000000e0: 126a 71bf 617d ee3e ab73 113f a140 c0bf
000000f0: 01be 10bf bfbd 3e3f 043c 3cbd 4991 4b3f
0.8379219 0.08293501 -0.5875023 0.4232673 1.7906893 0.88292474 -0.35110757 -0.06377659
0.6890626 0.6767968 0.56786656 -0.06202167 0.51978374 0.5766029 0.71397406 0.6785921
0.99442273 0.5136113 0.36665946 -0.036153745 0.84947777 -1.10329 -0.55153614 0.34006387
-0.8058966 0.77641064 -0.13211752 0.9416066 0.42596975 0.7256339 0.6921273 0.9989599
0.31390902 0.4119752 -1.4441352 -0.034826677 1.0926279 0.9030202 0.8652644 -1.061571
-1.1120709 0.90829533 -0.06342619 0.03925217 0.525723 1.1538968 -0.6847725 -0.2442224
0.7867187 -0.79287726 -0.5480451 -0.7359981 0.1661112 0.93438756 1.0194087 0.65899485
-0.94302475 0.46580032 0.5681712 -1.5019723 -0.5653992 0.7450828 -0.045955673 0.7951856

2.weight f4 [64, 64]
00000000: 98b8 37bf 4152 1b3c 0512 b3c0 8e2b 853f
00000010: 4bb3 0740 7ef8 3fbe 34e9 923f db45 cd3d
00000020: b596 6a40 c733 0dc0 c86c 32c0 645e c1bb
00000030: 3841 0240 347e 6a3f f25a 623e c988 d93e
00000040: b24a 023e 0aae c1bf ce8f 9c3f 95b2 533e
00000050: 1e7c 9c3f f982 22c0 6264 ab3f 55bb e63e
00000060: 6c70 ce3f cfda 0dbd ea1a 953d 8279 9f3e
00000070: f814 ca3f 95e4 1b3f 6aaa 73c0 3efd 07bf
00000080: 774a 473f 360a 893e 51db 0fc1 e1a1 61c0
00000090: 1b9a 8140 f1a8 d93f 441d e23e df5b c5bc
000000a0: 9ee6 4240 bf7c f73d fc0b a43d e89e a93e
000000b0: e761 ad3f e55e 4f3f 2b29 83be 4db2 a4bf
000000c0: 21b8 3b3e 94b1 54bf 3d91 24c0 91b3 8dbf
000000d0: 2866 163f 80e3 b73e 9bd3 a23e 4c3b 0ebf
000000e0: 38c3 0ec1 ddee c1bf cec3 c43e 221a 28c1
000000f0: f822 91c0 59e8 91bd f794 ccbf f239 f4bd
00000100: ccbc cebd dc05 58bd 5a9f 2ebe 3127 dc3d
00000110: 99f0 18be 7f0b adbd a6e6 353e 1437 aebd
00000120: 9421 b5bb b372 8ebe 958c 763e 2e02 d13d
00000130: 6d93 86bd 2d6d efbc 9173 d43c be3a c53d
00000140: 10de a2bd 2252 47be 944b d5bc 832f 0e3e
00000150: 548b 3fbe c459 50bd bff0 163c af7a cfbd
00000160: 5d09 653b f31d f3bd 5887 3fbd 2846 01be
00000170: 3c5d e2bc f74e 603d 7262 2f3e e33c 9cbc
00000180: 3d83 e33d 4714 00be 27b1 17be 3fc4 39bd
00000190: a900 de3d 131e 21bd 443e af3c 6260 9abe
000001a0: 0cae 82bd caf1 f0bd 1063 a43d 83fb 25bd
000001b0: f35f 643c ad4b 343c 8428 ec3d 0313 12be
000001c0: 65c9 c4be fe07 f0bb cca0 ccbd 5e90 343e
000001d0: 283e 5e3e c47d ee3d 4280 16be d98c 83bd
000001e0: 10d6 9d3b 7c57 8ebe 1cc0 b1be e33b 5d3e
000001f0: 82af c2bd e642 073d 6eec 1abe 59a4 1dbe
00000200: 0b31 0940 2b39 993f e4e4 df3f e415 a63f
00000210: 9ad1 3d3f 738d 1440 26ad aabf 0154 54be
00000220: 1f5a 18c0 0ce5 47bf 9573 73bf cada af3c
00000230: 6ce0 823e 55fd 7e3f 4f6e 1440 ceb9 5b40
00000240: ea1e 0b40 4584 dc3f c6e0 893e a52e ed3c
00000250: 9b01 0540 b164 2b40 c273 22c0 010a 33be
00000260: 012d 1abf 2945 1340 be81 84bd 2fe6 fd3f
00000270: e8ce 913e 03c5 343e 88c1 21bf d9db 3140
00000280: cff4 6e3f 4608 7abd c229 e33e e4bd 80bf
00000290: eb5b eb3f d05b 1040 1e58 0140 48b0 c7c0
000002a0: f1ab b4be d87f 1740 87a4 943d 4f6b 5ebf
000002b0: 084f 813f d2a0 dd3f 414a 2cc0 8b00 32c0
000002c0: 4f5e 1340 7077 82bc bdc1 dbbf da28 323f
000002d0: 4467 0d40 1a4a 0240 887d 1240 04eb 923f
000002e0: 6493 43c0 eb28 49be faa8 0a40 03fa 6a3f
000002f0: 82be f03f 72f9 1140 ab45 0640 d9ba 0d40
00000300: 8bba eb3f ebe1 cbbd 128a b93f 0750 0a40
00000310: 7235 c740 cd1c 1740 a57b d1be 6b2f 7abd
00000320: cc77 2440 c336 d93f 2abc af3e 2e6f 0cbe
00000330: e947 943f c22a 8a3f c7fe 3740 2d63 6d40
00000340: 1f00 3040 a602 3340 d267 d53f 431c 463d
00000350: 157e 8340 37ea 883e 75ef 1ebf da28 afbd
00000360: 5008 793f b1df 0940 36f2 93bd 7321 2b40
00000370: ff09 693e 022a 213f ad5e 623f 3556 9140
00000380: 50d8 783f 037a 1f3e 0947 d93f 5b74 393f
00000390: 58d1 883e 2873 9e40 c093 1f40 9315 3340
000003a0: d1d7 3c3f c1e2 0940 d3d8 1cbd c2f1 8940
000003b0: 250a fd3e 603c 3f40 adc1 20bf 77ea 2c40
000003c0: fc06 1240 5bef d3bf eb77 20c0 457e fa3e
000003d0: 7620 103f ad11 4640 48e7 1e40 4168 643f
000003e0: 724f 0040 5f85 50c0 f4e2 2c40 9285 e4be
000003f0: d532 af3f 637d 1340 4c8e a63f 5c69 e23f
-0.7176604 0.00948006 -5.5959496 1.0403917 2.1203182 -0.18747136 1.1477418 0.100230895
3.6654484 -2.2062852 -2.7878895 -0.005901145 2.0352306 0.9159882 0.22105005 0.4248717
0.12723807 -1.5131238 1.2231386 0.20673592 1.2225378 -2.539244 1.3390009 0.45064798
1.6128058 -0.0346325 0.07280524 0.3114739 1.5787649 0.60895663 -3.8072762 -0.5312079
0.77848 0.26765603 -8.991044 -3.5255053 4.0500617 1.7004682 0.44162953 -0.02409166
3.0453258 0.1208434 0.08010098 0.33129048 1.3545502 0.8100417 -0.25617346 -1.2866913
0.18331958 -0.8308346 -2.5713646 -1.1070424 0.5874963 0.35915756 0.31802067 -0.5555923
-8.922661 -1.515102 0.38430637 -10.50638 -4.5355186 -0.07124395 -1.598296 -0.11925115
-0.10094604 -0.052739963 -0.17052975 0.10749663 -0.1493553 -0.08449458 0.17763767 -0.08506599
-0.0055276845 -0.27821884 0.24077065 0.10205494 -0.06571088 -0.029226864 0.025934013 0.09630345
-0.07952511 -0.19464925 -0.026037015 0.13885312 -0.18705493 -0.050866857 0.009212672 -0.10130822
0.0034948208 -0.11870947 -0.046759933 -0.12624419 -0.027632348 0.054762807 0.17127398 -0.019072002
0.11109016 -0.12507735 -0.14813672 -0.04535317 0.1083997 -0.03933532 0.021391995 -0.3015166
-0.06380853 -0.117648676 0.08026707 -0.040523063 0.013938892 0.011004371 0.11531165 -0.14265065
-0.38434902 -0.0073251715 -0.09991607 0.17633197 0.21703398 0.11645082 -0.14697364 -0.06423349
0.004816778 -0.2780112 -0.3471688 0.21604876 -0.09506132 0.033022784 -0.15129253 -0.15394725
2.1436183 1.1970571 1.7491727 1.297543 0.7414795 2.3211334 -1.3334091 -0.2073517
-2.3805006 -0.7808387 -0.9509824 0.021466631 0.25561845 0.99605304 2.3192327 3.4332156
2.1737618 1.7227865 0.269293 0.028952906 2.078223 2.6780207 -2.5383153 -0.17484285
-0.6022492 2.3010962 -0.06470059 1.9835871 0.2847817 0.17653279 -0.6318593 2.7790434
0.933423 -0.061043046 0.44367796 -1.005795 1.8387426 2.2556038 2.0210032 -6.2402687
-0.3528743 2.367178 0.072579436 -0.8688249 1.0102243 1.7314703 -2.692032 -2.7812831
2.3026311 -0.015926093 -1.7168499 0.69593585 2.2094278 2.0357728 2.2889118 1.1477971
-3.055871 -0.19644515 2.1665635 0.9178774 1.8808138 2.28085 2.0980022 2.2145293
1.8416303 -0.099552 1.4495261 2.1611345 6.225274 2.3611329 -0.40914646 -0.061080378
2.5698118 1.6969837 0.34323245 -0.13714287 1.1584445 1.0794299 2.8749254 3.7091782
2.7500074 2.7970366 1.6672308 0.048366796 4.109141 0.26741192 -0.6208413 -0.08552714
0.9727831 2.154278 -0.072239324 2.6739166 0.2275772 0.62954724 0.88425714 4.5417733
0.97205067 0.15573888 1.6974803 0.7244317 0.26722217 4.951557 2.493393 2.7981918
0.7376681 2.154465 -0.038292717 4.3107615 0.49421802 2.98806 -0.62795526 2.7018106
2.2816763 -1.655742 -2.5073192 0.4892446 0.5629953 3.0948288 2.4828663 0.8922158
2.004849 -3.2581403 2.7013521 -0.44633156 1.3687388 2.304528 1.3012176 1.7688403

2.bias f4 [64]
00000000: d238 f33d 127b 6cbd 2245 bd3f 2d18 1640
00000010: b443 693f 144e b2bc ce9e 5fbd 156c 9fbc
00000020: cfa6 c8be 985c 4fbd 10b7 6abd d863 5cbd
00000030: 83be d7bc 0ad7 233c 04eb cebc 53cd 9ebd
00000040: cf43 d4bd 4eb5 1d3f ee45 b2bc 0ad7 233c
00000050: 76f3 91bc ff44 923f deb8 96bd ae41 5bbd
00000060: 4671 afbd f56f ae3e e439 fabd e90e 96bc
00000070: a066 3f3f 5f36 1140 bb55 d2bc 5539 873f
00000080: 6d33 2abd 84b5 fc3c 00e2 c9bc 06d7 443f
00000090: 64bf 01bd 42c8 ed3f d980 afbe 7e5f 613e
000000a0: 716d 843f 58f1 2b3e a29b b13e 0ad7 233c
000000b0: f229 1640 20ba 93bc fda5 0540 0ad7 233c
000000c0: c5f9 0fbd 0ad7 233c 3ff8 90bc 036c 993f
000000d0: db3c 1abd 6c04 4c3f 3457 40bd 2a6a 95bc
000000e0: b81a 81bd 0ad7 233c 74d7 80bd cec9 6d3e
000000f0: 6311 e7be 7859 c73f 2843 39bd 0ad7 233c
0.11876072 -0.057734556 1.4786723 2.3452256 0.9111893 -0.021765746 -0.054594807 -0.019460717
-0.39189765 -0.050625414 -0.05730349 -0.053806156 -0.02633596 0.01 -0.025258549 -0.07754006
-0.10364496 0.61604774 -0.02176186 0.01 -0.017816287 1.1427306 -0.07359479 -0.053529434
-0.08566527 0.3406979 -0.12218073 -0.018317657 0.7476597 2.2689435 -0.025675645 1.0564371
-0.04155295 0.030848272 -0.024643898 0.768906 -0.031676665 1.8576739 -0.3427799 0.22009084
1.0345899 0.16791284 0.3468905 0.01 2.3463101 -0.018033087 2.0882561 0.01
-0.03515031 0.01 -0.017696498 1.1986088 -0.037655693 0.7969425 -0.046958163 -0.0182391
-0.06303924 0.01 -0.062910944 0.23221514 -0.45130453 1.5574179 -0.04523006 0.01

4.weight f4 [3, 64]
00000000: e584 f83f ea3c 8ebd 8c50 733e df86 bcbe
00000010: 5505 09c1 523b 713e c3d8 bf3d 7a26 1abc
00000020: 4f48 7141 a533 26bc bea0 19bd c01a 0f3d
00000030: de5a c7bc fe26 dfbc ec6f a2b8 ab89 04be
00000040: af12 003f 3ac8 a1c0 9907 37be 2848 983d
00000050: 5c7b 063e ec50 55be 91cf 333e c0a3 833e
00000060: 980e 243d 7ef4 81c0 28f1 6bc0 52d5 dd3d
00000070: 7363 84c0 af98 e5be fa07 0c3e 50eb b63c
00000080: c537 473d cb84 f43e 0dca 1ebe a17d 62c0
00000090: e014 193e 44b2 abbe bb6f e240 38df 6bbf
000000a0: 66e1 2abe 14d2 95c0 e6e7 7a3f 22c0 ac3d
000000b0: 232b e9bd 0dfb dfbc a3e5 423c e446 793d
000000c0: ba67 9ebb 7099 bbbc 3584 4f3d f01b c9c0
000000d0: 844a 8bbd 0514 a63f 85f2 ed3d 633c f73d
000000e0: 6a92 093e 2a70 1e3e 467f 2940 bb44 6b40
000000f0: 667e e340 12f3 cbbd e7f1 de3d 724d 9cbb
00000100: 877c 6c3f 4884 a53d d22e 13bf 2d0f 043d
00000110: af82 01c1 1714 493e db2e f93d 91e9 1c3c
00000120: fd94 7441 8906 90bd 30b5 cdbd 82e8 aabd
00000130: aac7 23be 944e 2c3e 59b8 14be 6648 cb3d
00000140: aa0f b53e 51d9 83c0 7a10 3fbe 9bc6 0cbe
00000150: f0da 6dbd b101 573e a440 0e3e 0fc9 abbd
00000160: 4d23 9abd 9a21 8dc0 9dd3 5cc0 72fd cf3c
00000170: 3765 8ac0 c8a8 1bbe af83 673e c5d9 81bd
00000180: ef5d f0bd 3311 dd3e 4629 a2be fcc9 75c0
00000190: 92da 48bd 56bb 043d 110b d240 946a e5be
000001a0: f9ad 1a3e 9e9c 77c0 4ee9 4d3f 93f6 c0bd
000001b0: 29d6 b7bd 7320 ea3d 1a57 3bbf fb4d debc
000001c0: 2cb7 793e d597 eebd 6c6f 153e d1ab c0c0
000001d0: 0be4 babd 2ded bf3f 557c 823d ef7e f43d
000001e0: 8e4c 2dbd 1142 afbc 9982 0c40 863c 8a40
000001f0: 5d95 0041 0961 3b3e 014c 1cbd dcb8 42bc
00000200: f8bf fe3d 63f7 3dbd 100e 86be 26a7 053e
00000210: 0f76 00c1 98e9 59bb 9d22 eb3d 64be da3c
00000220: 0502 7441 b07e 37bc 2857 973c c2cc b7bc
00000230: d300 b1bc ccc9 c8bd 4d26 31be b310 bc3b
00000240: d13e 8e3e d2b7 79c0 f83d f53c a444 973d
00000250: 54ec 353d 5fa9 7d3e d8e8 013e 16e3 e73d
00000260: fdb2 273d 8084 7cc0 6ca4 51c0 fe8d 0e3e
00000270: e963 93c0 8394 ecbd dd80 b4bd f201 31be
00000280: 615c 0b3b 1a71 b93d b96f abbd 45e1 58c0
00000290: 780d 613e 099a a7be 21ed 0f41 167e 843f
000002a0: 4b45 833e d453 85c0 ce84 a33f 5232 fe3c
000002b0: 2872 15be e143 853d fdcf e4be 4df8 2b3d
000002c0: a5e6 a43d c62d 3dbd 4962 c43d 12dd b3c0
000002d0: 247d 35bf a74d f03f 0673 27be 9485 e9bd
000002e0: 0f77 b8bc 9eb3 c2bd f68e bd3f 20c8 8a40
000002f0: d803 f640 60be 51be c632 d1bc c37c 673e
1.9415556 -0.06945212 0.23761195 -0.36821648 -8.563802 0.23557785 0.09367516 -0.009408588
15.080153 -0.010144149 -0.03750681 0.03493762 -0.024335321 -0.027240273 -7.745609e-05 -0.12943141
0.5002851 -5.0556917 -0.17873992 0.07435638 0.13132995 -0.2083165 0.17559649 0.2571087
0.04005298 -4.061095 -3.686594 0.10831703 -4.13714 -0.4484305 0.13674918 0.022329003
0.04863717 0.47757563 -0.15506764 -3.5389178 0.1494937 -0.33534443 7.076139 -0.9213748
-0.16687545 -4.6818943 0.980101 0.08435084 -0.11385181 -0.02734139 0.01189557 0.060858622
-0.0048341425 -0.022900313 0.05066319 -6.2846603 -0.06801322 1.297486 0.116185226 0.12072065
0.13434759 0.15472475 2.6483932 3.67607 7.1091795 -0.09958471 0.10885983 -0.0047699744
0.92377514 0.08081871 -0.5749332 0.032241035 -8.094405 0.1963657 0.1216714 0.009577171
15.286374 -0.070324965 -0.100443244 -0.083451286 -0.15994135 0.1682685 -0.14523448 0.09925918
0.35363513 -4.120278 -0.18658629 -0.13747637 -0.058070123 0.20996739 0.13891846 -0.08387958
-0.07526264 -4.4103518 -3.4504158 0.025389407 -4.3248553 -0.15201104 0.22608827 -0.06340364
-0.117366664 0.43177184 -0.31672114 -3.8404531 -0.04903657 0.03240522 6.563851 -0.44807875
0.15105428 -3.8689342 0.8043412 -0.0942203 -0.08976395 0.114319704 -0.7317978 -0.027136793
0.24386281 -0.116500534 0.14593285 -6.0209737 -0.09125527 1.4994255 0.06371371 0.11938273
-0.042309336 -0.021393808 2.195471 4.319888 8.036466 0.18298735 -0.03815842 -0.011884894
0.12438959 -0.046378504 -0.26182604 0.13052043 -8.028823 -0.0033250805 0.11481211 0.026702113
15.250493 -0.011199638 0.018474177 -0.022436503 -0.021606838 -0.09804115 -0.17299767 0.0057392954
0.277823 -3.9018445 0.029936776 0.07386139 0.044414833 0.24771641 0.12686479 0.1132261
0.04094218 -3.9455872 -3.2756605 0.13921353 -4.605946 -0.11551764 -0.08813641 -0.17285898
0.002126478 0.090547755 -0.08370919 -3.3887494 0.21977794 -0.32734707 8.995393 1.0350978
0.25638804 -4.166483 1.2774904 0.031029854 -0.14594328 0.065070875 -0.44689932 0.041984845
0.080518045 -0.04618623 0.09589059 -5.620736 -0.70894074 1.8773698 -0.16352472 -0.11402431
-0.022517709 -0.095069155 1.4809253 4.3369293 7.687969 -0.20482779 -0.025536906 0.22606187

4.bias f4 [3]
00000000: 91d2 b1bf 43fb a2c0 c85c 23bf
-1.3892385 -5.0931716 -0.6381345
