A4/models/dqn.pt (torch, 19959 bytes, 6 tensors)

0.weight f4 [64, 2]
1.0022324 -4.6708894 2.9803119 -2.3724618 1.7920294 -11.048675 1.3167789 4.850005
1.341095 5.9489803 -0.37663808 5.8574767 -0.93046033 -7.8204393 -0.811486 -4.5177875
-1.259596 -6.192333 -1.1660104 4.7027326 -1.6342654 -5.549749 -0.3051531 -9.677523
-0.16725644 -7.0129576 -0.47787595 6.5966578 -0.5455609 0.8633733 2.0751815 -13.209998
1.101017 -6.9204836 0.40425757 -13.430945 -0.84087133 -5.869229 -1.1619565 -8.392578
-0.72302616 -15.640199 1.3377516 -5.725029 0.89109296 -12.736001 -0.91367763 -10.42575
0.3554273 -9.177687 0.19897008 -10.834461 0.4149817 -18.157087 1.5585822 -8.480905
-0.45985022 4.0039825 -0.454243 0.77479154 0.9988012 -4.6724896 0.057295673 2.0774472
-1.0153912 -5.5390797 3.6556454 -5.963738 -2.132698 -11.325723 1.7525475 -9.319991
2.552477 -2.3982236 1.6749675 -8.721382 1.9041017 5.086301 1.7577226 -6.7833138
0.1364182 -12.854363 0.18334211 -7.7301846 -0.29786637 -11.629997 -0.5527893 -5.9607577
-0.0191325 -15.38263 -0.15680805 -7.4701233 0.12683502 -3.775255 -1.9022511 -12.016708
2.1253548 -12.384965 0.68200356 -6.2544827 -0.29135868 -9.254943 -0.61202264 2.3666701
-0.9886253 -1.0881704 -0.60572976 -13.377858 0.35842943 -11.0527725 -0.9440597 -10.599295
1.9041412 -5.235771 2.2784503 -12.638599 2.7120893 18.776196 -0.553492 -0.21812943
-0.606581 -10.840976 0.05994529 -0.34291077 -0.60366315 2.037992 -1.2075549 -8.833854
00000000: 2749 803f ed77 95c0 6ebd 3e40 6ad6 17c0
00000010: 3861 e53f 5fc7 30c1 368c a83f 3e33 9b40
00000020: 00a9 ab3f 0c5e be40 b5d6 c0be 7370 bb40
00000030: a632 6ebf 0a41 fac0 8cbd 4fbf b791 90c0
00000040: 713a a1bf 9827 c6c0 d43f 95bf c97c 9640
00000050: 9c2f d1bf 8b97 b1c0 073d 9cbe 22d7 1ac1
00000060: 4645 2bbe 266a e0c0 28ac f4be d217 d340
00000070: e1a9 0bbf 0806 5d3f c6cf 0440 275c 53c1
00000080: 20ee 8c3f 9a74 ddc0 d9fa ce3e 27e5 56c1
00000090: 5843 57bf b9d0 bbc0 feba 94bf 0048 06c1
000000a0: 3e18 39bf 413e 7ac1 723b ab3f 7033 b7c0
000000b0: ab1e 643f a9c6 4bc1 c7e6 69bf dfcf 26c1
000000c0: 91fa b53e ced7 12c1 d0be 4b3e f459 2dc1
000000d0: 7b78 d43e b741 91c1 9f7f c73f c9b1 07c1
000000e0: 7d71 ebbe a020 8040 8a92 e8be bd58 463f
000000f0: 6fb1 7f3f 0985 95c0 deae 6a3d e5f4 0440
00000100: 57f8 81bf 2440 b1c0 18f6 6940 f1d6 bec0
00000110: 207e 08c0 2936 35c1 7a53 e03f af1e 15c1
00000120: c85b 2340 7f7c 19c0 5665 d63f c88a 0bc1
00000130: 9bb9 f33f fac2 a240 0efd e03f e810 d9c0
00000140: 36b1 0b3e 79ab 4dc1 09be 3b3e ac5d f7c0
00000150: f181 98be 7814 3ac1 9983 0dbf 87be bec0
00000160: c3bb 9cbc 411f 76c1 4a92 20be 400b efc0
00000170: 0ae1 013e c79d 71c0 f77c f3bf 7044 40c1
00000180: d005 0840 d128 46c1 c997 2e3f b924 c8c0
00000190: f72c 95be 3f14 14c1 84ad 1cbf 8677 1740
000001a0: 8c16 7dbf 2b49 8bbf 1b11 1bbf b50b 56c1
000001b0: 1084 b73e 28d8 30c1 e6ad 71bf b696 29c1
000001c0: e6ba f33f 708b a7c0 21d2 1140 b437 4ac1
000001d0: df92 2d40 a635 9641 a7b1 0dbf 525d 5fbe
000001e0: e448 1bbf a374 2dc1 3189 753d 0092 afbe
000001f0: ab89 1abf 766e 0240 2991 9abf 7757 0dc1

0.bias f4 [64]
2.0584419 0.22889626 0.46756497 0.8764042 0.24743661 -0.5974351 -0.23354419 0.6632533
-0.3435583 -0.5385178 0.20772785 0.3399382 -0.33354264 -0.719702 -0.65695626 1.4905987
0.2824702 0.75761384 -0.11553847 0.26082474 -0.103738084 0.7883519 -0.17462358 -0.12569366
0.14988501 0.05825313 0.12467733 0.7497479 -0.6051487 -0.5549706 0.42278036 0.11750947
0.58074284 0.4205266 -1.2416706 1.8047465 0.31066394 0.628546 0.7110222 1.0707084
0.070040055 0.4449379 0.3348511 -0.24216548 0.3411017 0.6308351 0.097667485 -0.9680757
1.1940304 0.33389995 0.31648907 -0.7493502 -0.5142797 -0.91587853 0.67447305 -0.0007061014
1.5774013 0.49155405 1.0720598 -0.68084675 -0.16495143 -0.052722365 -0.7348816 0.58258593
00000000: 83bd 0340 c863 6a3e ad64 ef3e 075c 603f
00000010: 0660 7d3e 82f1 18bf 3526 6fbe f8ca 293f
00000020: e0e6 afbe 4ddc 09bf 9cb6 543e 610c ae3e
00000030: 1ac6 aabe 643e 38bf 492e 28bf f0cb be3f
00000040: ef9f 903e fbf2 413f 6f9f ecbd d28a 853e
00000050: a274 d4bd 6ed1 493f 86d0 32be d7b5 00be
00000060: 757b 193e d69a 6e3d d456 ff3d 7aef 3f3f
00000070: 06eb 1abf 8e12 0ebf ab76 d83e cea8 f03d
00000080: 90ab 143f 434f d73e 10ef 9ebf ef01 e73f
00000090: 580f 9f3e 64e8 203f 8d05 363f f90c 893f
000000a0: 2971 8f3d e7ce e33e 9a71 ab3e 3afa 77be
000000b0: e2a4 ae3e 697e 213f e405 c83d cfd3 77bf
000000c0: fdd5 983f eff4 aa3e db0a a23e 6ad5 3fbf
000000d0: d6a7 03bf 0477 6abf 44aa 2c3f aa19 39ba
000000e0: 49e8 c93f f9ac fb3e 4139 893f f94b 2ebf
000000f0: 07e9 28be 68f3 57bd 3321 3cbf 5a24 153f

2.weight f4 [64, 64]
0.9349395 -2.2468503 4.048195 -1.1691737 -1.3406286 -0.047605235 1.1448901 0.33363533
2.3433137 0.15824337 -1.6116188 1.4457015 1.6898533 -0.12005776 0.119994365 -0.15665643
3.4196603 2.0003176 2.9272294 -0.72653353 2.6528099 -5.034875 3.6645832 -1.0747337
2.3885617 2.718605 2.4731274 2.6602533 -0.07496522 0.065425165 2.3025377 -0.22413182
0.4971286 3.071374 2.0920773 1.6410619 -2.5073607 3.0534735 -0.89950585 1.9546887
2.339786 -12.228373 2.8462796 2.933337 0.15355085 0.5902409 2.4820192 0.38822782
1.3533924 1.6598941 -1.3255823 -0.10724215 4.323894 0.31945017 0.9428079 -0.9084811
-1.7739266 -9.9327755 -0.4500899 0.02677223 0.55697614 -0.1916728 -0.25185254 -0.21166798
0.5580063 -0.96846944 0.009539221 0.6444696 -2.2465873 0.5930035 -1.7087134 -0.39864472
0.6731465 -3.3508465 -0.20447496 0.014105835 0.21950665 1.4533819 -0.18871015 0.43678975
-2.8480556 1.1990486 -0.37462586 -0.49159476 0.15692404 1.2221147 -0.56121486 -0.5626671
-0.31674305 0.59064305 0.66382074 1.4706817 0.42417687 0.12009583 -2.1497676 -0.11950402
-0.0047733183 -2.1345162 -1.4458885 1.1520871 0.85141677 1.0438786 0.2981913 0.50055563
-0.3090542 0.40000913 0.23532812 -0.050230227 1.2560425 -0.29670084 0.54031783 -1.3606012
0.5167356 0.7126781 -0.13335653 0.035774887 -0.42907235 0.46798924 -0.071412124 -0.48153415
1.8476214 0.6433865 -5.475461 -0.07851792 -1.2591583 0.11466845 0.24511804 -0.1404042
-0.5508922 0.19970366 -0.26624396 0.20423731 -1.4700692 -6.7459297 -4.4420238 0.67091393
-0.6695593 -8.1553135 0.45081347 -0.24255894 -5.7919683 -6.344058 -5.007909 0.26677072
-0.18967637 1.520677 -2.4122605 0.60466564 1.5779318 0.09236155 1.2404944 0.9788652
-10.385818 -1.8873267 -3.365027 -3.04246 -9.365875 -5.3356366 -4.664466 -6.454896
0.24020611 -7.3182344 -0.7005821 0.83725274 1.9364392 -4.317665 -4.6865864 -4.8436723
-9.471484 0.51090276 1.088803 -8.281909 1.497476 -1.9941639 2.352069 1.1493506
0.3241102 -7.955984 0.39857543 -9.952645 -2.431828 1.0442036 0.29914236 0.90750355
0.42202282 0.6562483 -6.384302 -5.411879 -0.20652385 0.13927174 -5.0776734 0.41895914
0.038472846 0.45770064 1.1658834 -9.450322 -7.6391788 -6.112348 -5.8741384 0.15902865
-5.9091015 -3.8566039 0.1056522 -0.07184516 -4.986177 -8.580792 -5.0188837 2.572135
-2.3658302 -0.066155106 -5.2716146 0.33155683 -0.32666358 1.083208 0.84566754 0.32837334
-7.0624924 -4.393772 0.5307504 0.49755007 -5.938476 -6.127497 -7.2298846 -5.730535
-0.10447998 -8.555479 -0.56244105 -0.02392213 0.9743567 0.9787694 -0.8345085 -1.0823077
-5.407379 0.49999943 -0.89990497 -6.48202 0.44360548 -2.462633 1.5568262 -0.54302186
1.5662782 -4.541512 -0.103468195 -7.0857997 -7.4622846 0.40360814 -0.05364807 0.22977048
0.678206 0.7456658 -6.7086015 -5.617342 -0.07172305 0.04273335 -5.4897594 0.3048774
00000000: 3258 6f3f 65cc 0fc0 d08a 8140 7ca7 95bf
00000010: b899 abbf b5fd 42bd c28b 923f 40d2 aa3e
00000020: daf8 1540 8d0a 223e 8649 cebf bf0c b93f
00000030: 1d4d d83f d8e0 f5bd 9bbf f53d 8b6a 20be
00000040: b7db 5a40 3405 0040 ba57 3b40 1afe 39bf
00000050: a3c7 2940 b21d a1c0 8888 6a40 e090 89bf
00000060: 32de 1840 a0fd 2d40 b847 1e40 9741 2a40
00000070: 5e87 99bd a1fd 853d c75c 1340 d082 65be
00000080: a487 fe3e 6491 4440 98e4 0540 510e d23f
00000090: 9978 20c0 1c6c 4340 0446 66bf 3d33 fa3f
000000a0: 0ebf 1540 6aa7 43c1 7229 3640 cbbb 3b40
000000b0: 6f3c 1d3e 071a 173f 67d9 1e40 ccc5 c63e
000000c0: f63b ad3f 6977 d43f aeac a9bf c6a1 dbbd
000000d0: 575d 8a40 f98e a33e dc5b 713f 3892 68bf
000000e0: 0710 e3bf a6ec 1ec1 2f72 e6be 7051 db3c
000000f0: fd95 0e3f e045 44be d1f2 80be 7ebf 58be
00000100: 80d9 0e3f 9ded 77bf 654a 1c3c f6fb 243f
00000110: 16c8 0fc0 14cf 173f 1fb7 dabf 291b ccbe
00000120: 5453 2c3f 4574 56c0 e261 51be 291c 673c
00000130: 5ac6 603e 6b08 ba3f 3c3d 41be e8a2 df3e
00000140: 8b46 36c0 6d7a 993f f6ce bfbe 4fb2 fbbe
00000150: b2b0 203e 416e 9c3f c7ab 0fbf f30a 10bf
00000160: 252c a2be 6234 173f 28f0 293f 4c3f bc3f
00000170: b62d d93e cdf4 f53d cb95 09c0 86be f4bd
00000180: 7f69 9cbb ea9b 08c0 e012 b9bf 9777 933f
00000190: 73f6 593f d09d 853f 88ac 983e 6a24 003f
000001a0: 5a3c 9ebe ffcd cc3e dbf9 703e 36be 4dbd
000001b0: 00c6 a03f 2ce9 97be 4552 0a3f 2e28 aebf
000001c0: c948 043f 1272 363f 9d8e 08be b088 123d
000001d0: 5faf dbbe 499c ef3e 8540 92bd a58b f6be
000001e0: dc7e ec3f fab4 243f fa36 afc0 01ce a0bd
000001f0: 192c a1bf 4bd7 ea3d 3900 7b3e 1ec6 0fbe
00000200: 4507 0dbf 1e7f 4c3e 2151 88be 9623 513e
00000210: 3a2b bcbf a8de d7c0 0f25 8ec0 04c1 2b3f
00000220: 3d68 2bbf 2a7c 02c1 06d1 e63e 5f61 78be
00000230: ce57 b9c0 8602 cbc0 ca40 a0c0 2c96 883e
00000240: 863a 42be 8ba5 c23f 7a62 1ac0 5ecb 1a3f
00000250: abf9 c93f 0d28 bd3d 85c8 9e3f e996 7a3f
00000260: 4f2c 26c1 ec93 f1bf 9a5c 57c0 aab7 42c0
00000270: a0da 15c1 89bd aac0 4e43 95c0 828e cec0
00000280: 97f8 753e fa2e eac0 5959 33bf 3256 563f
00000290: 3ddd f73f 502a 8ac0 84f8 95c0 5dff 9ac0
000002a0: 338b 17c1 86ca 023f e65d 8b3f b382 04c1
000002b0: 4bad bf3f c340 ffbf 4c88 1640 ec1d 933f
000002c0: c6f1 a53e 6c97 fec0 1412 cc3e 093e 1fc1
000002d0: 12a3 1bc0 77a8 853f 3029 993e 2752 683f
000002e0: 6013 d83e e3ff 273f 344c ccc0 1d2e adc0
000002f0: fd7a 53be 409d 0e3e 4d7c a2c0 d081 d63e
00000300: b495 1d3d bd57 ea3e ab3b 953f 8534 17c1
00000310: 2774 f4c0 5b98 c3c0 f1f8 bbc0 68d8 223e
00000320: 5c17 bdc0 99d2 76c0 2e60 d83d 8e23 93bd
00000330: c38e 9fc0 ed4a 09c1 b29a a0c0 dc9d 2440
00000340: c369 17c0 547c 87bd 11b1 a8c0 d1c1 a93e
00000350: 7340 a7be 8fa6 8a3f ab7d 583f 8d20 a83e
00000360: f0ff e1c0 c899 8cc0 42df 073f e2be fe3e
00000370: ff07 bec0 7514 c4c0 375b e7c0 8b60 b7c0
00000380: 9af9 d5bd 3ee3 08c1 23fc 0fbf 58f8 c3bc
00000390: 716f 793f a290 7a3f 59a2 55bf 0f89 8abf
000003a0: 4009 adc0 edff ff3e 2c60 66bf b56c cfc0
000003b0: 4220 e33e c79b 1dc0 1546 c73f 7b03 0bbf
000003c0: ce7b c83f 1154 91c0 22e7 d3bd dfbe e2c0
000003d0: 09cb eec0 baa5 ce3e 14be 5bbd f448 6b3e
000003e0: e99e 2d3f f4e3 3e3f ddac d6c0 44c1 b3c0
000003f0: 89e3 92bd 2a09 2f3d 1cac afc0 e418 9c3e

2.bias f4 [64]
0.6443617 0.7903359 -0.38993064 -0.42072034 1.6945962 0.71376157 -0.035717987 -0.053530432
0.9966872 -0.45008984 -0.44726488 -0.059000045 -0.061271496 -0.03654072 -0.08967055 -0.017258948
0.24751237 1.0023617 0.028614867 1.5428202 -0.18121292 1.2386582 0.2775437 -0.09468533
-0.50759935 1.0524079 -0.012656059 0.058107745 0.4076253 1.7387513 -0.038105518 1.495485
-0.017582504 -0.20703895 -0.1011918 0.6626055 1.2673959 -0.09572039 -0.044548023 0.90548486
0.6237216 0.39924958 1.9055368 0.57261163 -0.54411924 -0.11558194 -0.053523447 -0.26010182
1.6441822 -0.05285989 0.09037813 0.0058510546 -0.021756928 0.6627607 -0.31078777 0.41576928
0.85899657 -0.021756126 0.6598785 0.31841734 0.2938368 -0.106390834 0.11779811 -0.10592604
00000000: e3f4 243f 7453 4a3f fda4 c7be a868 d7be
00000010: 87e8 d83f 14b9 363f 064d 12bd ba42 5bbd
00000020: e426 7f3f 2d72 e6be e7ff e4be 08aa 71bd
00000030: d2f7 7abd b9ab 15bd 31a5 b7bd a362 8dbc
00000040: e273 7d3e 634d 803f ba69 ea3c 227b c53f
00000050: e18f 39be 5a8c 9e3f 351a 8e3e 62ea c1bd
00000060: 08f2 01bf 4db5 863f 5c5b 4fbc 6302 6e3d
00000070: 43b4 d03e 678f de3f 8814 1cbd 0d6c bf3f
00000080: 2f09 90bc 0502 54be a53d cfbd 84a0 293f
00000090: 073a a23f 0d09 c4bd fd77 36bd dbcd 673f
000000a0: 38ac 1f3f 716a cc3e a1e8 f33f ad96 123f
000000b0: 664b 0bbf 39b6 ecbd 673b 5bbd 112c 85be
000000c0: 9074 d23f 9d83 58bd 2b18 b93d 34ba bf3b
000000d0: 963b b2bc afaa 293f 931f 9fbe b6df d43e
000000e0: 33e7 5b3f e739 b2bc cced 283f 9907 a33e
000000f0: c771 963e 70e3 d9bd 2340 f13d c0ef d8bd

4.weight f4 [3, 64]
4.040851 3.7419443 -8.938367 -5.908094 -0.7261361 3.3591843 0.16878103 -0.010623425
4.248759 -4.927374 7.4329967 -0.037774518 0.11646272 -3.6070437 0.10997451 -0.08815669
1.3975048 -1.9269228 -2.309868 -3.9066536 -3.4729161 2.8926685 3.753561 0.03260007
-4.6656656 5.0042763 -2.2587605 -3.6996377 -0.4970764 4.8054743 0.059616383 -1.7582021
-1.8607802 0.007151246 0.21218602 5.3039894 -0.7997018 0.059676692 0.14934653 -1.0631675
0.2542815 -4.765606 -1.0752718 -6.571521 5.577081 0.0061770454 -0.11195363 -5.4346437
-2.7907698 0.0035798936 -2.889803 -6.312172 0.0022227801 2.7157762 6.9912953 -3.9461904
-1.9267735 -0.13053158 2.7023668 3.2461028 1.132931 -2.2001412 -1.233052 -0.09581203
4.089 3.8933558 -9.117961 -6.213481 -0.8078851 3.7274585 -0.016036592 -0.14931464
4.234583 -1.4155189 7.2847075 0.07475813 0.047703627 -2.7658348 -0.12865314 -0.0029162636
2.8907917 -1.634835 -2.589669 -3.8727279 -2.6438642 2.975989 3.2050855 0.17500232
-3.4887488 4.919531 -2.6109135 -3.9394772 -0.7604081 4.5137997 -0.07106976 -1.9976671
-2.6889884 0.07096913 0.10503176 4.1336274 -1.1069403 -0.16345757 0.089007616 -0.8907975
0.3085346 -5.1281643 -0.87071633 -6.68989 5.430176 0.1272992 -0.051451575 -4.7285657
-2.1618378 0.17856935 -2.6489832 -6.782344 -0.016759481 2.2692354 6.941766 -3.7111948
-2.2842324 -0.049987562 2.763643 3.1496227 -1.4107703 -2.4894297 -2.1563733 0.12623502
4.054545 3.9292386 -8.11903 -5.71918 -1.1316154 4.87945 -0.026960969 -0.20271447
4.3802657 1.5985496 7.694158 -0.03581407 0.005064675 -1.9850017 -0.011341238 0.06573476
5.10359 -1.6399405 -2.9371803 -3.7384756 -2.0794406 3.8434377 3.1470375 0.01059653
-2.209727 4.6482544 -2.7623384 -3.99519 -1.4312489 4.407285 -0.13830483 -1.5543113
-3.3141818 -0.030600812 -0.14957988 3.4872134 -1.5651728 -0.0940882 -0.106851205 -1.4670655
0.61021835 -5.6607466 -0.6220306 -6.5288215 4.9675794 -0.03801795 0.2104497 -4.1584635
-1.4741863 0.11061759 -2.3641055 -7.091206 0.11366619 3.0087457 6.8106165 -3.9195213
-2.3343906 0.013897273 3.2461824 3.1859982 -5.101619 -2.4853706 -3.173222 0.016277777
00000000: a74e 8140 047c 6f40 8d03 0fc1 1b0f bdc0
00000010: 0ee4 39bf e0fc 5640 efd4 2c3e e00d 2ebc
00000020: d5f5 8740 0cad 9dc0 1cdb ed40 74b9 1abd
00000030: 0284 ee3d ced9 66c0 513a e13d 7f8b b4bd
00000040: 70e1 b23f 68a5 f6bf e1d4 13c0 9d06 7ac0
00000050: 4244 5ec0 7b21 3940 583a 7040 a787 053d
00000060: 224d 95c0 0823 a040 888f 10c0 ddc6 6cc0
00000070: cc80 febe 72c6 9940 4f30 743d c40c e1bf
00000080: 0c2e eebf 0055 ea3b 4b47 593e 48ba a940
00000090: 42b9 4cbf 8c6f 743d 4cee 183e df15 88bf
000000a0: 2f31 823e d87f 98c0 82a2 89bf e649 d2c0
000000b0: 7377 b240 d068 ca3b f247 e5bd 9ae8 adc0
000000c0: f99b 32c0 a69c 6a3b 88f2 38c0 50fd c9c0
000000d0: 10ac 113b 47cf 2d40 b1b8 df40 628e 7cc0
000000e0: 84a0 f6bf 12aa 05be 94f3 2c40 26c0 4f40
000000f0: e203 913f 1dcf 0cc0 a6d4 9dbf 1939 c4bd
00000100: 17d9 8240 be2c 7940 2be3 11c1 d6d4 c6c0
00000110: 8fd1 4ebf ae8e 6e40 2c5f 83bc f0e5 18be
00000120: b481 8740 b92f b5bf 531c e940 ca1a 993d
00000130: e164 433d 7003 31c0 a6bd 03be c91e 3fbb
00000140: bb02 3940 4642 d1bf 23bd 25c0 c6da 77c0
00000150: 1235 29c0 9b76 3e40 1f20 4d40 cf33 333e
00000160: a947 5fc0 cc6c 9d40 3519 27c0 6520 7cc0
00000170: 1baa 42bf 0c71 9040 068d 91bd 8eb3 ffbf
00000180: 6318 2cc0 4358 913d e41a d73d ad46 8440
00000190: 38b0 8dbf 6c61 27be a049 b63d 4e0b 64bf
000001a0: 3ff8 9d3e ec19 a4c0 44e7 5ebf 9413 d6c0
000001b0: 00c4 ad40 b95a 023e e3be 52bd 6950 97c0
000001c0: 8d5b 0ac0 e2da 363e f188 29c0 f608 d9c0
000001d0: 2e4b 89bc 273b 1140 f222 de40 3784 6dc0
000001e0: dd30 12c0 c2bf 4cbd 87df 3040 6b93 4940
000001f0: 1f94 b4bf d152 1fc0 0502 0ac0 c143 013e
00000200: d5be 8140 a578 7b40 8ce7 01c1 8603 b7c0
00000210: c6d8 90bf 7424 9c40 40dd dcbc 6294 4fbe
00000220: 232b 8c40 469d cc3f 8b36 f640 c6b1 12bd
00000230: 93f5 a53b 8914 febf 9ad0 39bc f29f 863d
00000240: 9c50 a340 92e9 d1bf c3fa 3bc0 2f43 6fc0
00000250: 8e15 05c0 e2fa 7540 1069 4940 119d 2d3c
00000260: 2b6c 0dc0 80be 9440 27ca 30c0 31b1 7fc0
00000270: 2a33 b7bf 7b08 8d40 c89f 0dbe acf3 c6bf
00000280: 8e1b 54c0 8eae fabc 782b 19be 812e 5f40
00000290: 9557 c8bf 50b1 c0bd ced4 dabd cdc8 bbbf
000002a0: 4537 1c3f d624 b5c0 663d 1fbf 1bec d0c0
000002b0: 69f6 9e40 b6b8 1bbd 2080 573e 2212 85c0
000002c0: 23b2 bcbf 7a8b e23d 814d 17c0 29eb e2c0
000002d0: d2c9 e83d 4a8f 4040 92f0 d940 70d9 7ac0
000002e0: a866 15c0 63b1 633c 74c1 4f40 65e7 4b40
000002f0: 7640 a3c0 5010 1fc0 1216 4bc0 f958 853c

4.bias f4 [3]
-1.3541508 -2.2927413 -1.8608389
00000000: d054 adbf 46bc 12c0 f82f eebf
