A4/models/dqn.pt (torch, 271159 bytes, 6 tensors)

0.weight f4 [256, 2]
000000 1d 53 0f 3f 0e ad ca bf a4 2c f2 be fc 6d d0 bf
       0.55986196 -1.5834062 -0.47299683 -1.6283565
000010 3d 99 91 3e 69 94 d2 be 5a 06 83 3d 17 91 79 40
       0.28437224 -0.41128853 0.06397696 3.8994806
000020 16 6c b8 3e 6d fa 1f bf f1 03 a7 be 9c 22 0a 3e
       0.36019963 -0.62491494 -0.32620195 0.13489765
000030 60 84 f2 3e 78 5d bf bf dd 94 51 bf e4 ba ed bf
       0.4736662 -1.4950399 -0.8186777 -1.857266
000040 23 ca 28 3f 2e 1e 83 be 75 a6 65 be c3 0c c8 bf
       0.65933436 -0.25608963 -0.2242678 -1.5628895
000050 3e b6 3a bf 79 08 ea bf 74 09 f9 3e 8a 7f 8e 40
       -0.7293433 -1.8283836 0.48640025 4.4530687
000060 7b 15 1e bf f9 61 c1 bf 94 dc 12 3c f8 c1 17 c0
       -0.61751527 -1.5108024 0.008963723 -2.371214
000070 7a d8 7a 3b 8e 67 ae bf 38 d6 43 3e c6 79 f0 3e
       0.0038276003 -1.3625352 0.19124687 0.46967906
000080 10 f7 2c bf 5b 0d 0b c0 d4 bf cb 3e 1e 75 50 40
       -0.6756449 -2.1726902 0.3979479 3.2571483
000090 d7 0a 4b be 0c 15 ab bf a9 88 b6 be fd 97 e8 bf
       -0.19828354 -1.3365798 -0.35651138 -1.8171383
0000a0 f4 9b 1d be 88 55 f1 bf e4 ad 59 3e e8 2e 4a be
       -0.15391523 -1.8854227 0.2125774 -0.19744456
0000b0 46 ed f9 3e cc 0a b1 40 f9 2f 1d bf e5 d9 47 c0
       0.48813838 5.532568 -0.61401325 -3.1226742
0000c0 9a cd 92 3e 16 f9 f9 3e c5 11 bc 3e 3c 9a 98 40
       0.28672487 0.4882285 0.36732307 4.7688274
0000d0 24 37 ec be 15 ed c1 be 29 b3 c8 be 24 c4 c7 bf
       -0.4613582 -0.37876192 -0.39199188 -1.5606732
0000e0 e4 6f 04 3e ce d1 f6 3e e9 1e 2e be 39 45 11 c0
       0.12933308 0.48206943 -0.17003979 -2.26985
0000f0 dc 0d 26 bf 58 3e f8 bf 20 2e a7 bd 02 89 d9 3e
       -0.648649 -1.9394026 -0.081630945 0.4248734
000100 18 77 1d 3f a8 0c 0b bf 22 52 4c bf 4f 10 19 c0
       0.6150985 -0.54316187 -0.79812825 -2.3916204
000110 b2 55 af 3e c4 84 09 3e da bb 74 3e 5d 23 8d 40
       0.34245068 0.13429552 0.23899785 4.410567
000120 78 5c 39 bf 98 8b 3f c0 0d f8 5b bd a5 63 a5 bf
       -0.7240672 -2.9928951 -0.053703357 -1.2921034
000130 1c 64 10 be 7d c6 0e bf ca 70 20 3f 0c 4f 08 bf
       -0.14100689 -0.5577162 0.626721 -0.53245616
000140 76 82 1e bf 06 54 04 c0 19 39 49 bf 75 b3 32 c0
       -0.6191782 -2.0676284 -0.7860275 -2.7922032
000150 d8 57 92 3e de 1d ad 3e 5c ee cc be 87 7f d4 bf
       0.28582644 0.3381185 -0.40025604 -1.6601418
000160 6d 7f 4f bf 19 5c 29 c0 31 52 4d bf da c4 0d c0
       -0.8105381 -2.6462462 -0.8020354 -2.2151399
000170 b8 dc 1c 3e ce 3c e2 3e 56 d6 00 bf 6c 87 28 c0
       0.15318573 0.44187015 -0.5032705 -2.6332655
000180 72 9a 98 3e 42 68 2c bf 08 ed be be 55 92 2d 3f
       0.29805332 -0.67346585 -0.37290215 0.6780141
000190 83 db 1a 3f e1 57 85 be d2 1c 23 be ce 7c 04 c0
       0.604912 -0.2604361 -0.15928963 -2.0701175
0001a0 b8 f5 14 3e 62 14 94 3e 37 de 25 bf 46 12 ff bf
       0.1454686 0.289218 -0.647922 -1.9927452
0001b0 79 c6 00 bf 2c 31 96 be 4d e9 b1 3e c3 dd 9d 40
       -0.50302845 -0.2933439 0.34748307 4.9333205
0001c0 75 58 21 3f c0 a7 52 3d 7f 1a 42 bf f3 43 a5 c0
       0.630256 0.05142951 -0.7582168 -5.1645446
0001d0 92 10 8b 3e 56 a8 cf 3e 56 d4 73 be 7a 37 ce 3e
       0.2716108 0.40558118 -0.23811468 0.402767
0001e0 fa c7 c5 3e d3 5a 8e be 66 a3 de be 26 dc 9f bf
       0.38629133 -0.27803668 -0.43484038 -1.2489059
0001f0 6c 66 68 be 07 b4 f8 bf 9b 01 95 be 46 b3 f3 bf
       -0.22695321 -1.942994 -0.29102787 -1.9039085
000200 68 10 e5 3d fa ee cc 3e 70 7f fe be 24 c7 26 c0
       0.1118477 0.40026075 -0.49706602 -2.6059046
000210 d4 ae 0f be 63 a0 2b 3f a1 05 e9 be 18 93 23 c0
       -0.14031535 0.67041606 -0.45512107 -2.555853
000220 e0 cd 86 3e 51 27 dd be e2 6b 89 3e df c2 1d 40
       0.26328945 -0.4319406 0.2684012 2.465019
000230 54 42 3b 3e 80 8a 0e bd d8 ca 0c bf b1 be 20 c0
       0.18287021 -0.034800053 -0.54997015 -2.5116389
000240 59 f3 5a be bd 5e 1a c0 80 c0 71 3c a2 93 f5 3e
       -0.21381892 -2.4120324 0.014755368 0.47964197
000250 62 df f3 be 80 e2 15 c0 bd 07 09 bf 88 58 08 c0
       -0.47631365 -2.3419495 -0.5352743 -2.1304035
000260 be 11 d8 3e 1d 9d ad 3d 10 c7 9c bd 51 a8 80 be
       0.42201036 0.084772326 -0.07655156 -0.25128415
000270 ff 2c 19 3f 27 58 20 3f 94 97 f3 3e d8 50 bd bf
       0.59834284 0.6263451 0.47576582 -1.4790297
000280 0a d5 94 3e 4a 10 90 bf 8a c0 fb be 3c 8c 0d c0
       0.29068786 -1.1254971 -0.49170333 -2.2116842
000290 1e 35 4c bf 37 4a d2 bf 14 99 80 be c2 ef f0 3e
       -0.7976855 -1.6428899 -0.2511679 0.4705792
0002a0 1c be b6 be 38 b6 95 bf a6 1c 02 bf 41 b8 1b c0
       -0.35691917 -1.1696234 -0.50824964 -2.433121
0002b0 f6 53 f8 be 02 57 19 3f 28 d2 01 be cf f2 04 3f
       -0.48501557 0.5989839 -0.12677824 0.51932997
0002c0 d1 56 9b 3e 3b 1b 4f bf 6c 58 2f be 92 78 a6 3e
       0.30339673 -0.80900925 -0.17123574 0.32513863
0002d0 c6 0f ae be e3 33 f5 bf 5c 0d db 3e f9 56 88 40
       -0.3399641 -1.915646 0.4278363 4.260617
0002e0 5b 32 f9 3e c7 3b b1 bc 9a 95 e8 3e 6f bf 2c bf
       0.4867123 -0.02163495 0.45426637 -0.67479604
0002f0 78 35 c7 be 2c 1f 12 c0 93 d5 b7 3c ab f3 ea bf
       -0.3890798 -2.2831526 0.022440707 -1.8355612
000300 20 4f d6 3c 80 af 3c 3e 37 60 a7 be c5 62 20 c0
       0.026160777 0.18426323 -0.32690594 -2.5060284
000310 1e 84 7b 3e 18 11 0c c0 6d 8f 8e be 67 95 bf bf
       0.24562117 -2.1885433 -0.278438 -1.4967469
000320 19 17 05 3f 3d 12 41 bf ca ea b8 3e a5 ee 04 3f
       0.5198837 -0.75418454 0.3611663 0.5192664
000330 f2 2e f7 3e 51 a3 31 3f 82 bf 8d be 10 e8 0e c0
       0.48278004 0.69389826 -0.2768517 -2.232914
000340 91 75 57 3e 40 da 60 40 17 76 b4 be 8a 79 1a c0
       0.21040942 3.513321 -0.35246345 -2.4136682
000350 d9 93 11 bf 23 b4 00 c0 dc d4 d4 3e d9 b0 6c bf
       -0.5686622 -2.0109947 0.4156865 -0.9245735
000360 01 84 0d 3f 52 89 8b be 3f 46 48 bf d6 36 d5 bf
       0.55279547 -0.27253205 -0.7823219 -1.665736
000370 86 02 8e 3e 0e 65 13 c0 91 55 e6 be 53 f5 98 bf
       0.277363 -2.303043 -0.44987157 -1.1949867
000380 e1 d1 c5 be 8d 99 14 c0 19 62 a4 3e 75 32 03 c0
       -0.38636687 -2.321872 0.32106093 -2.0499547
000390 7e d7 b7 be 35 57 d2 be 52 43 0c 3f e7 df 32 be
       -0.35906595 -0.4108216 0.5479022 -0.17468224
0003a0 80 6a c4 bb a8 84 2a bf 75 3c 02 3f c4 a5 01 bf
       -0.005994141 -0.6660867 0.508735 -0.50643563
0003b0 35 48 04 be d5 82 d2 bf c7 92 2d bf 46 7b 40 c0
       -0.1291817 -1.6446177 -0.6780209 -3.007524
0003c0 7e f9 ce 3e 18 b3 7c 3e 51 db 8e bd b5 a8 f0 bf
       0.40424722 0.24677694 -0.06975425 -1.8801485
0003d0 b2 d3 2d 3e d4 73 b8 bf 2d af 3b bf 3a 7b 95 bf
       0.16975287 -1.4410348 -0.7331417 -1.1678231
0003e0 16 4a 1f bf c3 a4 1e c0 d8 89 cf 3e 83 bf b1 bf
       -0.6222242 -2.4788063 0.40534854 -1.388657
0003f0 8b 34 e9 be df a5 bb bf b8 33 32 be d8 45 71 be
       -0.455479 -1.4659995 -0.17402542 -0.235618

0.bias f4 [256]
000000 b4 de 45 3f 47 f6 81 3d 50 d4 09 bd 80 62 c0 3d
       0.77292943 0.06345802 -0.033649743 0.093937874
000010 3b db 32 bf 59 69 21 bf b4 9b 27 3f 81 2e f1 3e
       -0.6986577 -0.6305137 0.6547196 0.47105792
000020 bb 59 a7 be eb 5c 98 3e 3a 28 83 3e bf fc 9a 3e
       -0.32685646 0.2975839 0.25616628 0.30270955
000030 d0 1a 64 3e ea 1a 8b 3e 61 d1 e5 3e 08 82 25 be
       0.22275853 0.2716897 0.44886306 -0.16162884
000040 53 8a e8 3e e2 a6 84 3e b2 8a 99 3e 5b 04 f5 3e
       0.45418033 0.2590857 0.2998863 0.47854885
000050 be 98 2e 3e e7 ed 23 bf 73 02 94 3e f9 fb 9f be
       0.17050454 -0.64034885 0.2890812 -0.31246927
000060 d0 26 19 bf e9 19 74 3e 32 8a 25 bf b4 ab ff 3e
       -0.5982485 0.23838009 -0.64663994 0.49935687
000070 37 f0 c8 be b2 5d c6 3e 8d 06 04 3f c8 43 c4 be
       -0.3924577 0.3874336 0.51572496 -0.38332963
000080 ce f1 87 be 64 28 cf 3e 5d a6 de be 69 5b 2d 3e
       -0.2655167 0.40460503 -0.434863 0.16929401
000090 48 cc bc be 57 83 c3 3e b8 0b 07 bf 58 c6 92 bd
       -0.36874604 0.38186142 -0.52752256 -0.07166737
0000a0 29 38 b6 3e e3 60 cf be a7 dd a5 be af 8b 06 3e
       0.35589722 -0.40503606 -0.3239567 0.13139223
0000b0 0e a6 d6 be 82 35 88 3d b4 68 44 be 90 21 81 be
       -0.41923565 0.06650831 -0.19180566 -0.2522092
0000c0 08 7d a5 be 39 d5 e8 be 4b 45 18 bf 7e 80 ca 3d
       -0.32321954 -0.45475176 -0.5948073 0.09887789
0000d0 9c 59 11 be bd 42 e7 3e 8e d0 32 bf e2 fd 63 3e
       -0.1419434 0.45168105 -0.6984948 0.22264817
0000e0 a7 11 2c bf 4e cd 61 be 89 7f b7 be 8b 83 21 bf
       -0.67214435 -0.22050974 -0.3583949 -0.63091344
0000f0 02 26 b5 be 89 17 6b 3e d1 a7 1a 3f 69 74 27 3f
       -0.3538056 0.22958197 0.6041232 0.65412
000100 04 8b 14 bf 68 94 2f bd 02 ab 16 bf 93 a9 68 be
       -0.5802462 -0.04286614 -0.5885469 -0.22720937
000110 18 d9 80 3e e6 82 56 3e 17 7e 18 bf a1 3e 6e 3b
       0.2516563 0.20948371 -0.595674 0.0036353248
000120 60 e9 ff 3e 11 75 d1 be 45 35 99 3e 12 da 8b 3e
       0.49982738 -0.40909627 0.29923454 0.27314812
000130 20 41 a0 3e f5 88 9e be 4f a2 30 bf 7f 84 25 3f
       0.31299686 -0.30963865 -0.68997663 0.646553
000140 76 e0 8c 3e ab 07 3c 3f 40 3c 0d 3f ec 24 af be
       0.27515 0.734492 0.5517006 -0.34207857
000150 fe 90 61 3e ce 01 81 be d6 32 15 bf e5 cb 07 bf
       0.22027966 -0.2519669 -0.58280694 -0.53045493
000160 25 c3 8d 3e 86 a0 08 bf d8 8c d8 3d d4 e5 90 3e
       0.27687946 -0.5336994 0.10573739 0.28300345
000170 85 38 e4 3c 06 62 25 bf c3 33 75 3e 44 1f c8 3e
       0.027858982 -0.64602697 0.23945527 0.39086354
000180 b0 c8 70 be 02 26 d5 3e ee 03 43 3f 3b 1c f1 3e
       -0.23514056 0.4163056 0.7617787 0.4709185
000190 cd 59 0c 3f 9f c1 24 bf 25 b8 0b bf 19 7a b6 3e
       0.54824525 -0.6435794 -0.5457786 0.35640028
0001a0 e5 68 28 3e 09 1d 39 3f 24 d0 8b 3c f7 b9 a7 3e
       0.16446264 0.7230993 0.017067023 0.32759067
0001b0 a5 6f d9 be 2d 49 18 3f 34 20 ef 3e 10 af fc 3d
       -0.4246799 0.5948666 0.46704257 0.12338078
0001c0 fc e3 bc 3e ed 79 f4 3e d2 8a 2b bf ec f7 80 bd
       0.36892688 0.47749272 -0.670087 -0.06297287
0001d0 a8 76 bf bd 1f 86 1c bf d8 2c 1a 3f 66 6e fd bd
       -0.09348804 -0.6114215 0.60224676 -0.123745725
0001e0 b7 05 d4 be 76 e6 27 3f 26 54 ff 3e 0a f9 36 3f
       -0.4141061 0.6558603 0.49868888 0.71473753
0001f0 96 46 26 bd dc 41 24 3f 43 65 7c 3d a5 91 88 be
       -0.04059466 0.64162993 0.06162001 -0.26673618
000200 d0 02 f1 be 06 a7 b5 3e 38 5f 36 3e 11 25 31 3e
       -0.47072458 0.3547899 0.1780976 0.17299296
000210 06 69 78 3e 21 96 d9 3e 7b 41 25 bf db 0e d5 be
       0.24258813 0.42497352 -0.6455304 -0.41612896
000220 19 91 fd 3e e0 ed 08 3b 5a ac 02 bf 10 e7 f3 be
       0.49524763 0.0020893738 -0.5104424 -0.47637224
000230 01 4f 9f 3e 6e b6 1f 3f 55 a9 dd 3e fc 09 13 bf
       0.31114963 0.6238774 0.43293253 -0.5743711
000240 1a 26 17 3f ae 50 2b bf b7 d7 31 bf c2 a0 3b 3f
       0.59042513 -0.6691998 -0.6946978 0.7329217
000250 93 14 f6 3d e2 da 12 3e 97 cf a2 be cf 52 7e 3e
       0.12015643 0.1434131 -0.31799003 0.24836276
000260 a9 08 fb 3e 52 15 95 bd 09 49 01 3f c6 15 f9 be
       0.49030045 -0.07279457 0.5050207 -0.48649424
000270 34 c8 d6 be 63 d2 b2 3e c1 e6 b5 bd 5b ff 0c 3f
       -0.41949618 0.34926137 -0.088819034 0.5507714
000280 39 cd 00 bd e3 27 37 3f 1f 94 0f bf fa a4 56 be
       -0.031445716 0.7154524 -0.5608539 -0.20961371
000290 56 95 13 3e 90 c3 77 3e e6 b4 61 3e f6 e4 0b 3f
       0.14412436 0.24195695 0.22041664 0.5464624
0002a0 28 5b dc be 98 58 9b 3d 79 6c 0c bf aa e7 13 3f
       -0.43038297 0.07585257 -0.54853016 0.57775366
0002b0 68 f1 3f 3f 41 28 33 3e ff 56 a2 be ec 67 4a 3f
       0.7497773 0.17495824 -0.31706998 0.7906482
0002c0 f1 14 ce 3e a4 cd 8a 3e 91 ad 08 3b 04 29 13 bf
       0.40250352 0.27110016 0.0020855407 -0.5748446
0002d0 ca 37 c3 bd 0a ae bd be c3 0c 23 bf 61 56 58 3e
       -0.09532125 -0.37046844 -0.6369135 0.21126701
0002e0 17 22 bd be ac 47 19 3f eb b2 ea be 8e 29 f4 be
       -0.3694007 0.5987499 -0.4583963 -0.47687954
0002f0 b1 46 31 bf c3 c6 df 3e e2 26 03 3f c3 ea 80 be
       -0.6924849 0.4370633 0.51231205 -0.2517911
000300 48 63 e1 be 34 da 13 bf 32 06 d7 be 40 62 12 bf
       -0.44021058 -0.57754827 -0.41996914 -0.5718117
000310 61 4d cf 3e 4a 2f 21 3f 80 4b 0f 3f a7 eb 07 bf
       0.40488723 0.6296278 0.5597458 -0.5309395
000320 cd eb e5 3e d4 8b f5 3e 55 58 19 bf 1f d5 1e bf
       0.44906464 0.47958243 -0.5990041 -0.62043947
000330 34 52 40 bd 2a 99 48 3d 34 9d d8 be ee af 03 bf
       -0.046953395 0.048974194 -0.42307436 -0.5144032
000340 d7 35 4b 3f df 2f 96 3e e6 5b 02 bf 90 73 15 bf
       0.7937903 0.29333398 -0.50921476 -0.5837946
000350 be 43 c3 3e 3e 91 c3 3e 3a 6c 2f 3e 48 d1 0d bf
       0.3813762 0.38196748 0.17131129 -0.5539746
000360 ec 01 3a 3f 8b e1 a7 3e cb 34 a5 3d ba 60 85 3e
       0.7265918 0.32789263 0.0806671 0.2605036
000370 1c 16 1f be d4 27 06 3f a1 4c 2d 3f 82 2d fc 3e
       -0.15535778 0.5240452 0.6769505 0.4925347
000380 c4 0c 1c bf 30 0b d2 bd 75 53 1e 3f 5b c0 54 3e
       -0.6095698 -0.1025604 0.61846095 0.20776503
000390 d3 51 87 be f3 ec 2d bf 0e 1f 2d 3f ba 43 cf 3c
       -0.26429614 -0.6793968 0.6762551 0.02530085
0003a0 39 cb a8 3d dd 62 8b 3e cc 5b 3b 3f 03 51 11 be
       0.08241887 0.27223864 0.73186946 -0.1419106
0003b0 24 d9 9d be 5b 65 26 3f 5d 32 34 bf b2 94 0e 3f
       -0.30829728 0.64998406 -0.7038935 0.5569564
0003c0 b2 28 24 3f ca 2f 23 3f 8d d0 0b bd 41 f6 94 3e
       0.64124596 0.63744795 -0.034134436 0.29094127
0003d0 32 88 06 be 33 69 de be 69 7d 0c 3f d8 a2 8e 3e
       -0.13137892 -0.43439636 0.5487886 0.27858615
0003e0 c9 ec 03 3f b0 c1 1f 3e 29 74 92 be 67 db 3b 3f
       0.5153318 0.1560123 -0.28604248 0.73381656
0003f0 5c 91 07 3f 16 f9 b5 bd bd 13 f7 bd 86 b8 95 3e
       0.52956176 -0.088854 -0.12064312 0.29242343

2.weight f4 [256, 256]
000000 36 99 48 3b fe 8d 24 3d 94 67 15 3d 1f 68 40 3d
       0.00306089 0.040174477 0.036475733 0.046974298
000010 b0 b0 a7 bc 82 51 4f 3d 14 1c 61 bb 08 98 e7 3c
       -0.020469993 0.05061484 -0.0034349011 0.028270736
000020 98 8e 14 3c f8 db 3b 3d 5b a8 09 3d fd f7 bf ba
       0.0090672 0.045864075 0.033607822 -0.001464605
000030 26 f7 fc 3c 90 88 82 bd e8 62 85 bc a8 5b 54 3d
       0.030879568 -0.063737035 -0.016282514 0.051845223
000040 02 83 35 bd 5c 19 87 3b e8 f2 e0 3c ef ea e8 bc
       -0.044314392 0.004122896 0.027459577 -0.028432338
000050 76 66 c4 bc 36 15 3d bd dc 8e 4e 3d 58 29 23 3d
       -0.023974638 -0.046162806 0.05042921 0.03983435
000060 50 4d ab bc 29 36 5f 3d 12 30 6f bd 67 e3 53 bd
       -0.020910889 0.05449501 -0.058395453 -0.05173054
000070 44 e7 c0 3c f2 53 74 bd 5a 16 06 3d 38 7c db bc
       0.023547776 -0.05965037 0.03273616 -0.02679263
000080 98 84 d6 bc d1 f5 da 3b 16 55 6b 3d d7 53 02 bd
       -0.026186273 0.0066821356 0.05745419 -0.031818237
000090 6a 49 d4 bb c0 c4 1b 3c a0 f1 ac bc 30 58 fd bb
       -0.006478478 0.009507358 -0.02111131 -0.00773146
0000a0 86 bd 3a bc fd ec df 3c 24 5a a1 3c f0 53 71 bd
       -0.011397725 0.027334685 0.019696303 -0.05891794
0000b0 30 77 a3 3b ba 22 c9 bc 58 5e 5b 3c 9e 87 5c 3d
       0.0049885735 -0.024552692 0.0133891925 0.053840272
0000c0 d4 66 28 3d ee fe 02 bd 6e fd 08 3d ae 32 ee 3c
       0.04111369 -0.0319814 0.033444814 0.0290769
0000d0 7c 4b 5d bd 0f 3b 1d bc e8 05 93 3c 3d a0 10 bd
       -0.054027066 -0.0095966 0.017947152 -0.035309065
0000e0 54 fc 45 bd fb c3 0f bd 64 e8 61 bd 20 7b 80 bb
       -0.048336342 -0.03509901 -0.055153266 -0.0039209276
0000f0 54 1e 09 bd a4 65 09 bc 02 5b fc 3c 98 e5 d3 3c
       -0.03347619 -0.008386049 0.030805115 0.025866315
000100 3c 1e bc bc 6d 3b 6f bd 40 0c b4 3b 86 ee 78 3d
       -0.022963636 -0.058406282 0.0054946244 0.06077435
000110 86 03 38 3d df 6b e8 bc 58 7b 15 bd d1 ba 6a bd
       0.044925235 -0.02837175 -0.036494583 -0.05730707
000120 cd 4c 44 bd 10 3a 33 3d 39 5d 60 3d a5 4e 58 bc
       -0.047924805 0.043756545 0.054776404 -0.013202344
000130 38 67 5f bc e0 c2 e1 3c 32 ad 5b bd ab f1 bc 3c
       -0.013635449 0.027558744 -0.05363197 0.023064455
000140 24 64 dc 3c 20 b9 17 3d 6a 9b 65 3d 3e 5c 31 bd
       0.02690322 0.037041783 0.056056418 -0.04330086
000150 6f 32 95 3c 6d cc 37 3d 1c a1 ae bc f4 20 3d 3d
       0.018212525 0.04487269 -0.021317057 0.046174005
000160 9c 30 94 39 9c 7b 39 3d 1f 37 1a bd d0 ef 10 3d
       0.00028264977 0.0452839 -0.037650224 0.035384953
000170 e0 28 89 bc 14 54 bc 3c d8 dc 3d 3d 3e d9 a4 bc
       -0.016743124 0.02298931 0.04635319 -0.02012312
000180 b8 04 fc bc 9b f9 64 3d 1b a3 48 bc 07 b7 cf bc
       -0.030763969 0.055902105 -0.012245919 -0.025355829
000190 5b a4 5d bd 50 3e 8e 3b b0 0e 9b 3c 8c 1b 04 3d
       -0.05411182 0.0043409243 0.018927902 0.032252833
0001a0 e7 10 e4 bb c4 d8 2e bd c2 63 30 3b 80 0a 26 bd
       -0.0069600227 -0.042687193 0.002691493 -0.040537357
0001b0 96 0f 15 bd b8 3a 59 bc 4b 15 9c 3c d1 90 fe bc
       -0.036391817 -0.013258629 0.019053122 -0.031074913
0001c0 29 56 53 3d 5d 53 e2 bc b4 2a 3a bd 18 6f ca bc
       0.05159584 -0.027627641 -0.04545088 -0.024711177
0001d0 40 94 c4 3a f8 80 19 bd f2 37 75 3c e2 0e 27 3b
       0.0014997795 -0.03747651 0.014966952 0.0025491049
0001e0 0a 03 1a bd e3 76 29 3c 59 48 5a bd 9f 1e b5 3c
       -0.037600555 0.010343286 -0.053291652 0.022109328
0001f0 64 d7 2f bd 89 3f fc bc de a4 2b 3d 1a bb 6b 3d
       -0.042930022 -0.030792015 0.041905276 0.05755148
000200 e8 aa 4b 3d 3f 92 6e 3d 46 ed 40 bd b9 be 1f 3d
       0.049723536 0.05824494 -0.04710128 0.039000247
000210 ce c3 50 bc 90 c9 97 bc 10 ef 14 bc 88 f2 d4 bc
       -0.012741996 -0.01852873 -0.0090902 -0.025994554
000220 52 ac 12 3d b9 71 9c bc 30 58 de 3c cc c3 e0 bc
       0.03580887 -0.019097196 0.02714166 -0.027437113
000230 8c a9 7f bd d8 c7 34 bc 84 0e a1 3c 66 2f 4a bd
       -0.062417552 -0.011033975 0.019660242 -0.04936161
000240 48 2c e0 bc a4 7f fe bc ba 36 48 3d 6f dc 54 3d
       -0.027364865 -0.031066723 0.048880316 0.051968034
000250 c3 0e 69 bd e9 db 7d bd 00 74 43 3c 7b 07 0f 3d
       -0.056898843 -0.0619773 0.011929512 0.034919243
000260 94 7a c1 3c 06 04 33 3d 5d 04 4d bd 60 2d 3c bc
       0.02361802 0.04370501 -0.05005299 -0.011485428
000270 40 84 57 3c d8 25 9d 3c 42 af c2 3a 50 15 fa 38
       0.013154089 0.019183084 0.0014853256 0.00011924899
000280 40 e2 a8 bc 9c 5a de bc 76 20 4e bd 30 22 2c bc
       -0.020615697 -0.027142815 -0.050323926 -0.010506198
000290 99 21 bc 3c ee a3 4e 3d 5c 20 03 3c c4 2d 10 bd
       0.02296524 0.050449304 0.008003321 -0.035199896
0002a0 8a aa 4d bd 5d 60 ed bc ec ed eb bc db 72 b5 3b
       -0.050211467 -0.028976614 -0.028799973 0.0055373735
0002b0 0f 40 9c bc 74 d8 3d bb e8 97 82 bc 4e f5 4f 3c
       -0.019073514 -0.0028968127 -0.015941575 0.012692763
0002c0 12 7c e0 bb 64 df e4 3c dc 16 0a 3c cc 7d 50 3d
       -0.006850728 0.027938552 0.008428302 0.05090122
0002d0 f6 59 4e bd 02 cd 5f 3d 54 15 c7 3c 7e 03 23 3d
       -0.050378762 0.05463887 0.024302162 0.039798252
0002e0 25 59 c6 3c ca 6f 17 3a 0c 6a e8 bc 74 6a b8 3c
       0.02421243 0.0005776851 -0.02837088 0.022511698
0002f0 30 00 bd bc cc 82 24 bc 9c 69 24 bd 1a 27 03 bd
       -0.023071378 -0.01004095 -0.04013978 -0.032019712
000300 ec 27 fb 3c 40 66 bb 3a 90 5f 74 3d f2 5c 14 bd
       0.030658685 0.0014297441 0.059661448 -0.036221452
000310 27 42 88 bb be ac ea bc ea 59 f9 bc 9a 0b 74 bd
       -0.0041582766 -0.028646823 -0.030438382 -0.059581377
000320 f1 61 e8 3c bc a6 03 3d d4 26 af 3c 70 82 9f bb
       0.028367015 0.032141432 0.02138082 -0.0048678443
000330 04 5a 0a 3d 08 45 0c bd 64 c0 3b 3d d0 7e 57 bd
       0.03377725 -0.03424552 0.045837775 -0.052611172
000340 5b 52 3f 3d 18 d0 1c bd e0 dc e3 3b 98 cd 39 bd
       0.0467094 -0.03828439 0.0069538206 -0.045362085
000350 27 ac 3e 3d a0 eb 8b b8 8c 17 14 bc 72 60 39 bd
       0.046550896 -6.671925e-05 -0.009038817 -0.045257993
000360 78 56 24 bd 95 d3 30 bd 9a 5e 23 bd a9 85 80 bd
       -0.040121526 -0.04317053 -0.03988514 -0.06275494
000370 4c 20 0b bd 29 70 30 3c 87 ca e8 bc 15 d3 39 bd
       -0.033966348 0.010768929 -0.028416885 -0.04536732
000380 98 5e 90 3c 60 13 f8 bc 17 11 87 bc 41 fc 23 3d
       0.01762323 -0.030282676 -0.016487641 0.04003549
000390 82 7d 2d bd 9c 48 ce 3c 42 3b 08 3c 15 9e 8a 3b
       -0.04235602 0.025181107 0.008314909 0.0042302706
0003a0 98 d1 51 bc d3 51 bc bc cb 58 5b 3d 50 f4 3f 3d
       -0.012806319 -0.022988236 0.053551476 0.046863854
0003b0 d0 a1 90 3c f8 3c ec 3c d0 76 b3 bc 54 8d 0d 3d
       0.017655283 0.028837666 -0.02190724 0.03455861
0003c0 a5 6e 3f bd e8 3b 41 3d 1a 21 06 3d 64 ed c0 3c
       -0.04673638 0.04717627 0.03274641 0.023550697
0003d0 20 f2 4f 3b 6a 8a 0f 3d 2e 0a 73 bd 99 d1 9c bc
       0.003173001 0.03504411 -0.05933588 -0.019142913
0003e0 4a 8e f7 bb 9d 6a 19 3d 4a 24 57 bd f9 6a 06 bc
       -0.007554804 0.03745519 -0.052524842 -0.008204215
0003f0 b5 4a 5e bd 34 08 b3 3c c8 2d cf 3c 6e 18 7e bd
       -0.054270465 0.021854497 0.025290385 -0.062035017

2.bias f4 [256]
000000 9c 31 5b bd 7e ca 43 3d e7 44 ee 3c 93 81 17 3e
       -0.053514108 0.047800533 0.02908559 0.14795522
000010 e3 da 1b 3d ba ee 68 bd 0e 34 ae 3c 9e 50 27 bd
       0.038050544 -0.056868292 0.021265056 -0.040848367
000020 fe e0 1b 3e 41 11 1a bd c3 c0 02 3e c5 ef f5 3d
       0.15222546 -0.03761411 0.12768845 0.12008623
000030 68 22 0d 3e 0c 9a 1a 3e a6 a3 b1 3d 9c 42 d1 3d
       0.13782656 0.15097827 0.086737916 0.10217783
000040 bc 13 7d bd 5e 95 cc 3d 98 b0 4d 3c 42 6f 8a 3c
       -0.0617864 0.09989427 0.01255431 0.016898755
000050 ec 5c 3d bd 04 18 14 3d 59 ff 74 bd 78 83 19 3d
       -0.046231195 0.036155716 -0.05981383 0.037478894
000060 3c fe 44 bc ea 2a 8b 3c 2c 79 6b 3e a6 8b ac 3d
       -0.012023505 0.016988236 0.22995442 0.08425073
000070 92 85 a4 bd 00 88 db bc 58 64 e7 3d 82 67 38 bd
       -0.08033289 -0.026798248 0.11298436 -0.045020588
000080 28 f6 52 3d 13 07 91 ba 11 95 81 bd c2 4c 74 3d
       0.051504284 -0.001106473 -0.0632726 0.059643514
000090 e8 2d ad bb 4c 5e 5a bd 72 30 66 bd 10 38 72 bd
       -0.0052850135 -0.053312585 -0.056198545 -0.059135497
0000a0 a2 c3 3a 3a 51 d8 3f 3d 55 ae 1a 3e 93 81 4a 3d
       0.00071244885 0.046837155 0.15105565 0.049439978
0000b0 dd 6c 5f 3d 78 b4 78 bc 08 ca 76 ba 84 7b 8a bd
       0.05454718 -0.015179746 -0.000941426 -0.0676184
0000c0 a1 c9 74 bd f3 eb 02 bd b0 8f bb bc b5 49 05 3c
       -0.0597626 -0.0319633 -0.022895664 0.008135249
0000d0 32 f2 13 3e 5b fc d8 3d bb a7 db 3d 0a 65 50 3c
       0.14447859 0.10595008 0.107253514 0.012719402
0000e0 58 1c 65 3c a0 66 62 bc d6 5b bb 3c 14 76 76 3d
       0.013983808 -0.013818413 0.02287094 0.0601712
0000f0 ba 7d 59 3d 0a 0c 1b 3e 89 3c 12 bd 20 0d 59 3d
       0.053098418 0.15141311 -0.035702262 0.052991033
000100 51 21 b0 3c 35 7e d3 3d 59 d3 77 bc 62 5e f0 3d
       0.021500262 0.103268065 -0.015126073 0.11736752
000110 8d ad f7 3c 2b 00 6e 3d f9 a6 6f bd e8 e9 2e 3c
       0.030234123 0.05810563 -0.058508847 0.010675885
000120 36 09 3a 3d 4c 1e 45 bd c9 ca c2 3d dd 20 03 3e
       0.04541894 -0.048124596 0.095113344 0.12805505
000130 e0 3e 8a b9 70 e9 16 3c f0 b0 3f 3e 60 94 9e bb
       -0.00026368257 0.009210929 0.1871984 -0.004839465
000140 f0 4e 9a 3d 98 f1 2b bc a2 80 e9 3c df fb a8 3c
       0.075345874 -0.010494612 0.02850372 0.020627914
000150 ca d8 4f 3d 5d 30 16 bd b4 75 84 3d d0 63 d0 3b
       0.050743856 -0.036667217 0.064677626 0.006359555
000160 3c b0 a7 3c 69 66 67 bd 72 48 25 bd d0 2a 0a bc
       0.020469777 -0.05649415 -0.040352292 -0.008433059
000170 a8 13 54 3e a8 49 68 bc ec 26 dd bc ec ad f6 3d
       0.20710623 -0.014177717 -0.026996098 0.12044892
000180 b8 6e b3 bc 47 cf 17 bd 6b 58 df bb 16 2f e7 3c
       -0.02190338 -0.03706291 -0.00681596 0.028220695
000190 6c 8f 79 bc 68 ba bb 3c 54 fe 96 bc c8 c0 44 bd
       -0.015231948 0.022916034 -0.01843182 -0.048035413
0001a0 46 29 07 3e 88 be ae 3d 8c 43 dd 3c 86 c1 23 3e
       0.13199338 0.08532435 0.027009748 0.15991792
0001b0 05 dd 94 bc cd 87 66 3d 7c c3 30 3d 62 a9 32 3d
       -0.018171797 0.056281853 0.04315518 0.043618567
0001c0 18 2c 1c 3c e9 32 31 bd 37 67 a2 bd fe e7 09 bd
       0.009531997 -0.043261442 -0.07929843 -0.03366851
0001d0 b3 57 61 3d 2f b3 91 bc e4 56 d5 3c 3e 51 01 3e
       0.055015277 -0.017785637 0.02604241 0.12628648
0001e0 52 e5 15 bd 1e 3b d2 3c be 6e 8e 3d ad f3 31 bd
       -0.03659565 0.025662955 0.06954716 -0.043445278
0001f0 e0 12 8e 3c 48 fb 3d bd 98 d5 15 3c 2c 01 5f 3d
       0.017342985 -0.04638222 0.009145163 0.054444477
000200 60 cd 55 3c 00 4a db ba e4 39 38 bd 2e d9 cd bc
       0.0130494535 -0.0016730428 -0.044977084 -0.025127973
000210 94 d7 4a bd 00 49 2a 3d 78 48 05 3d bc f5 6d 3d
       -0.049521998 0.041573524 0.032539815 0.05809568
000220 6e 44 3b 3d f8 5a 27 3e f1 ba a3 3d 9e 92 55 3d
       0.045719557 0.16343296 0.079946406 0.05214178
000230 40 06 6f bc 5d 9a 84 3d 48 79 fd bc 8e df 25 3e
       -0.014588892 0.06474755 -0.03094162 0.1619856
000240 4f 15 8d 3d 84 ea fa 3c f3 aa 18 bd d4 50 e5 3c
       0.0688883 0.030629404 -0.037272405 0.027992643
000250 ec 39 ba 3c e9 82 e9 3d cb 36 93 3c 35 2d 34 3b
       0.022732697 0.11401922 0.017970463 0.0027492766
000260 02 1b 74 bd be 75 fd 3d d2 c8 51 3c d4 41 2d bd
       -0.05959607 0.12375973 0.012804227 -0.042299107
000270 80 63 60 bd 99 2d 00 3d 38 ff 4d bd fc 2f b4 3c
       -0.05478239 0.031293485 -0.050292224 0.021995537
000280 2f 4d 06 3e 3c d9 16 3d e7 5e 65 3d 48 25 a5 3c
       0.1311538 0.036828265 0.05599871 0.020159379
000290 b5 25 e4 3d 1c 84 3d 3d 74 5c a1 bc ba 69 13 3d
       0.111400045 0.046268567 -0.019697405 0.0359895
0002a0 8c 45 47 3d f2 cc 24 bd 80 dd 21 3e cd bc 57 3d
       0.04865031 -0.040234514 0.15807152 0.05267029
0002b0 08 43 b9 3d 48 0c 33 3d 0a ff 94 3d d2 a4 eb bc
       0.09045988 0.043712884 0.07275207 -0.028765116
0002c0 c3 17 6a bd 96 4d 83 3d 44 1d 96 3b 20 9b 3c 3b
       -0.057151567 0.06411283 0.0045811255 0.0028778985
0002d0 d9 6e df 3c bc fb 79 bd b1 c2 f8 bc dc aa a6 3c
       0.027274536 -0.06103109 -0.030366274 0.020345144
0002e0 ef 96 02 3e bc 06 99 3c 88 37 db 3c 1c 43 4c bd
       0.12752889 0.018679969 0.026759878 -0.049868688
0002f0 00 a4 86 3a 78 af 9c bc 38 fa 1d 3d 0e b3 0b 3e
       0.0010272264 -0.019126639 0.038568705 0.13642523
000300 4e c6 3d 3d b4 4e 22 3d 72 4b 20 3e 30 38 ac 3b
       0.046331696 0.03962584 0.1565378 0.0052557215
000310 c9 6e 06 3e cc 2b 38 bd ca 7b 5e bd 10 e6 02 bc
       0.13128199 -0.044963643 -0.054317273 -0.0079894215
000320 f3 0d 30 3d 0a d1 ec 3c 78 f3 7a 3d 2b e9 18 3d
       0.042982053 0.028908271 0.061267346 0.03733174
000330 dc d1 2f bd 96 f0 66 bd 5f e8 36 3d 18 70 1f 3e
       -0.042924747 -0.056381784 0.0446552 0.15570104
000340 36 40 37 bd 57 9c 00 3d 40 31 82 bc 08 81 56 bd
       -0.04473897 0.031399097 -0.015892625 -0.052369148
000350 b4 bf 3d 3d 7f 41 09 3e f8 5f 23 3d f8 c8 02 3e
       0.0463254 0.13403891 0.039886445 0.12771976
000360 5b ca 7c bd be 86 6b bd 8e 9a 2b bd b4 d3 16 bd
       -0.06171642 -0.057501547 -0.04189544 -0.03682299
000370 2e e9 c8 3d fb 9b 56 bd 2d c0 8f bc 29 3c ad 3c
       0.098101005 -0.05239485 -0.017547691 0.02114685
000380 3d 32 96 3d 64 b3 e9 bc 51 67 fa bb 91 b6 e8 3f
       0.07333801 -0.028527923 -0.007641711 1.8180715
000390 0a ea 45 bd 5a 1b df bc 0b 79 cf 3d be 41 58 3d
       -0.0483189 -0.027234722 0.10130509 0.05279707
0003a0 85 ca 13 3d 30 7a 9b bc 3a 6a 18 bd 04 e8 88 bd
       0.03608181 -0.018979162 -0.03721068 -0.066848785
0003b0 39 06 84 bc 0b b1 fe 3a ce 1a 36 bd 7c fb 68 3d
       -0.016116248 0.0019431425 -0.044459157 0.05688046
0003c0 fc aa 54 bd 80 a5 ed bc 80 26 4b bc 2a ec 31 bc
       -0.051920876 -0.02900958 -0.012399316 -0.010859529
0003d0 5c 60 a9 3c 3d 5b 0b 3d 72 86 cb 3d d0 04 54 3c
       0.02067583 0.03402256 0.09937753 0.0129406005
0003e0 80 b0 5d bb 9f 76 03 3d 50 be 81 3b 3d 72 47 3d
       -0.0033827126 0.032095548 0.0039594546 0.04869293
0003f0 3d 05 2f bd 5a 79 34 bd f5 d7 51 bd ea 76 62 3d
       -0.042729605 -0.044061042 -0.051231343 0.055289187

4.weight f4 [3, 256]
000000 bc cb b2 3a 66 0b 26 be 38 3c b7 bd f4 fb 2c be
       0.001364104 -0.16215286 -0.08947033 -0.16892987
000010 ac c1 37 3d 2c 16 bd 3c 04 ca 11 3d 2a 9e b6 3c
       0.044862434 0.023081861 0.035593048 0.022292215
000020 52 f2 35 be 14 a4 1a 3d 74 6f 17 be 1f 13 2c be
       -0.17768219 0.037754133 -0.1478861 -0.16804169
000030 4a 19 f0 bd 26 78 e8 bd a4 fb a9 bd ea 21 38 be
       -0.117235735 -0.113510415 -0.0829995 -0.17981687
000040 68 13 4f bd e2 76 13 be 80 7e 90 bb 0a 78 3c bc
       -0.050555617 -0.14400819 -0.004409611 -0.011503229
000050 9a d5 1d 3d a0 95 88 3c e9 68 5e 3d c6 9f a8 bd
       0.038533784 0.01667291 0.05429927 -0.08233599
000060 e4 97 51 bd 4e 07 98 bd 85 0f cb bc b2 c5 02 be
       -0.051170245 -0.07423268 -0.024787674 -0.12770727
000070 ae 14 0e 3d 62 1b 56 3d b3 db 2d be ca 1d 7e bd
       0.03468769 0.052272208 -0.1697834 -0.062040128
000080 26 33 ff bd 6f 26 90 bc 00 0a 16 39 00 aa 36 3c
       -0.12460928 -0.017596452 0.0001430884 0.01114893
000090 22 57 a1 3c 14 6c ed 3c f8 2e c9 3c c0 5c 08 bb
       0.019694868 0.0289822 0.02455853 -0.0020807236
0000a0 57 75 00 3d 15 14 0c be 62 5a f3 bd 1a 1d 3a 3d
       0.031361904 -0.13679536 -0.118824735 0.04543791
0000b0 c2 99 6f bb 64 e5 87 bc 0d bd 0d bc 0c 99 92 bc
       -0.0036560153 -0.016588874 -0.00865103 -0.017895244
0000c0 52 58 e7 3a e8 15 49 3c 58 68 82 bc 68 fd ad bb
       0.0017650223 0.012273289 -0.015918896 -0.0053097494
0000d0 d3 0e b6 bd 9f 32 34 be db 0b c4 bd 86 53 3e bc
       -0.08889546 -0.17597435 -0.09572574 -0.011616593
0000e0 b0 db 9d 3c 9c db 1b 3d 22 65 69 ba 20 2a 0a be
       0.019269794 0.038051233 -0.00089033146 -0.13492632
0000f0 8c ae 46 bc 80 dc 35 be fc dc 68 3c 48 03 3e bc
       -0.012126576 -0.17759895 0.014212843 -0.011597462
000100 55 84 1e bd 0e 3d 2f be 6b 8b ac bb bf 32 f4 bd
       -0.03870042 -0.17113134 -0.0052656434 -0.119237415
000110 e8 9f d0 bd a7 a2 e0 bd b3 04 cd 3c 00 e9 79 bc
       -0.1018675 -0.109685235 0.025026655 -0.015253305
000120 cf 73 11 3d 3a 8e 35 3d b4 0f 27 be a7 13 1e be
       0.035510834 0.04432509 -0.16314584 -0.15437184
000130 59 11 be 3c dc 37 b1 bc 34 42 4b bb dd fb 0f bd
       0.023201631 -0.021633081 -0.0031014802 -0.035152305
000140 c8 db 23 be d8 40 cb 3c 5e 11 51 bc 1c 88 ff bb
       -0.16001809 0.024811193 -0.012760488 -0.007798208
000150 ec af 14 3d 69 92 28 bd da dd 17 be 60 63 49 3b
       0.036300585 -0.041155253 -0.14830723 0.0030729398
000160 10 21 23 3d 61 a5 29 3d 5a 41 a7 bc 20 9b 53 3b
       0.039826453 0.041417483 -0.020416904 0.0032288507
000170 d4 a9 88 3b 8e f8 28 bd 00 ed 3b 3a 83 c7 c4 3d
       0.0041706357 -0.041252665 0.00071687996 0.09608366
000180 58 d1 21 3c 5f 76 df 3c 2f cc 61 bd 39 fe 00 3c
       0.009876572 0.027278123 -0.055126365 0.007873111
000190 69 3d 79 bd c0 4f 8c bb a0 4f 3e 3b 00 86 da 3c
       -0.06084958 -0.004281968 0.002903916 0.026675224
0001a0 68 1a 9c bd 9e 78 e3 bd 54 8b e1 3c 99 fe 31 be
       -0.07622224 -0.1110699 0.027532257 -0.17382278
0001b0 84 d6 47 3d 84 6d 18 3d 83 dd 22 3d 23 b4 22 3c
       0.048788562 0.037213817 0.03976203 0.009930643
0001c0 40 7c 3c bc 54 53 24 bd a0 c8 f7 3c 3c 8d 0a bd
       -0.011504233 -0.04011853 0.030247033 -0.033826098
0001d0 e3 2a 6e bd 48 71 60 3c 98 aa 5e 3c e0 ca 0e be
       -0.05814637 0.013698883 0.013590477 -0.13944578
0001e0 2c bc 02 bd a0 9d 24 3d b3 d4 14 be d6 80 18 3d
       -0.031917736 0.040189385 -0.14534263 0.037232243
0001f0 8a 5a 4a bd d5 4f 32 bd 64 22 25 bb 70 5b e2 3c
       -0.04940275 -0.043533165 -0.00251975 0.027631491
000200 7c b1 a0 bc 0c 7c 96 3c 46 ac 6a 3d 5c 4e 9f bc
       -0.019615881 0.018369697 0.0572932 -0.019446544
000210 d9 9e d0 3c b8 24 74 bd 00 69 b1 bb 84 bc 1f be
       0.02546637 -0.05960533 -0.0054141283 -0.15599257
000220 6c bb dd 3c 3a 52 07 be ca 85 ff bd ce da c7 3c
       0.027066909 -0.1321496 -0.1247669 0.024396326
000230 e0 71 95 bb 46 f1 f0 bd f2 08 2b 3c f7 73 1c be
       -0.004560694 -0.11764769 0.010439144 -0.15278612
000240 a5 69 ac bd d0 19 55 3d 50 a3 d2 3b 86 77 9a bd
       -0.084185876 0.05202657 0.00642816 -0.075423285
000250 00 a6 de 3b 95 37 d0 bd aa 15 ea 3c e2 57 95 3c
       0.006794691 -0.101668514 0.028574783 0.018230382
000260 00 55 29 3c 6a f2 0e be 99 8b 21 3d e4 49 32 3d
       0.010335207 -0.13959661 0.03943977 0.0435275
000270 f0 92 6f bd 48 21 c9 bd 44 52 dc bc 6e eb 50 3c
       -0.05848974 -0.09820801 -0.026894696 0.012751443
000280 5b 65 e3 bd e4 2f a1 bd b4 26 8c bc a8 ef c8 3c
       -0.111033164 -0.078704625 -0.017108299 0.02452834
000290 73 48 1d be ca aa 12 bd a4 32 94 3d b0 8e e0 3c
       -0.15359668 -0.03580741 0.072362214 0.027411789
0002a0 9f 99 06 3d 80 87 2e ba a1 d3 36 be 56 39 81 3d
       0.03286135 -0.00066577643 -0.17854168 0.06309764
0002b0 0d d6 1e be 70 c2 47 be 42 5c 47 3d ea dc 73 bc
       -0.15511341 -0.19507766 0.04867197 -0.014884213
0002c0 95 db 88 bd 01 f2 35 be a8 a6 5e 3a 48 ea 2b 3d
       -0.06682507 -0.17768098 0.00084934616 0.041971475
0002d0 9d 6b 92 bd 20 68 ec bc 39 f7 28 3d 74 9b 2d 3d
       -0.07149432 -0.028858244 0.041251395 0.04238458
0002e0 7e 79 9d bd ca 8c 68 bd be f4 5d 3d 9a f7 c9 bc
       -0.076891884 -0.056774892 0.054188482 -0.024654198
0002f0 a8 33 6c bd 38 7e 61 3d 89 cc 3f 3d fb dc ec bd
       -0.05766645 0.055052012 0.04682592 -0.11565586
000300 0c 07 38 3d 34 28 62 3d 4c 35 0c be f0 6f d6 3b
       0.044928595 0.055214122 -0.13692206 0.0065441057
000310 29 20 1e be 7c 41 3d bc 21 3c 97 3c c0 88 62 bc
       -0.15441956 -0.011551257 0.018461289 -0.013826549
000320 a9 ab 54 3d 80 cf 3c 3d f0 99 ec bc de 03 76 3c
       0.05192152 0.046096325 -0.028881997 0.01501557
000330 a0 af c1 3c a5 db d3 bc 7f 08 11 be cc 5d f8 bd
       0.023643315 -0.02586157 -0.14163397 -0.12127265
000340 74 6d 55 3d cc 16 27 bd 27 27 d4 3c 7c af bb 3c
       0.052106336 -0.040793225 0.025897576 0.022910826
000350 37 db 62 3d 4b b9 b1 bd 98 6c e0 bc b3 de 24 be
       0.05538484 -0.0867792 -0.027395532 -0.16100578
000360 d6 df 16 bd e7 84 60 3d 5a c4 12 bd 88 a5 a5 bc
       -0.03683456 0.054814246 -0.035831787 -0.020220533
000370 98 a2 de bd e6 f1 75 bd 42 e0 22 bd 50 61 67 3c
       -0.10870856 -0.060045145 -0.03976465 0.014122322
000380 e9 55 19 be 72 b4 72 3d 5a e0 1e bd 1c 0e 1e 3c
       -0.14974178 0.059254117 -0.038788177 0.009646919
000390 7f ea 41 3d cd e4 d8 3a 25 ab 02 be d0 8f b7 3b
       0.047342774 0.001654768 -0.12760599 0.0056018606
0003a0 83 74 be 3c c6 c9 03 bc 29 ea 46 bd 17 16 eb bc
       0.023248916 -0.008043712 -0.048563156 -0.028697057
0003b0 1c 3c c3 3c 88 76 5e 3d 00 74 be b9 6c 50 e5 3c
       0.023832373 0.05431226 -0.0003632605 0.02799245
0003c0 1e c4 39 3d d0 36 bf 3b 3a 2a 1d bd e2 39 c8 bc
       0.045353048 0.0058353916 -0.03837035 -0.024441663
0003d0 3c 7e 57 3d eb ae 10 bc 59 77 12 be b4 1d 0f bd
       0.05261062 -0.008830766 -0.1430334 -0.034940436
0003e0 3e 8f 47 3d 57 af 15 3d 92 cf 35 3d 4e 27 14 3d
       0.04872059 0.03654417 0.044387408 0.036170296
0003f0 b0 07 1b 3d fc a5 e8 3c 7a d7 ac bc eb 40 5c bd
       0.03784913 0.02839946 -0.021098841 -0.053772848

4.bias f4 [3]
000000 11 bf bf bd eb 51 83 bd 9d f2 ad bd
       -0.09362615 -0.06412109 -0.084935404
