A4/models/dqn.pt (torch, 19959 bytes, 6 tensors)

0.weight f4 [64, 2]
0	0xbe423341	-0.18964864
1	0x40919fbf	4.5507503
2	0xbfc99e5f	-1.5751456
3	0x3f5ca5d9	0.86190563
4	0x3e65e91b	0.22452204
5	0x3f58f45e	0.84747875
6	0xbe5ec1ab	-0.21753566
7	0xbe4cae9d	-0.19988485
8	0x3daac744	0.08338788
9	0x3fa45036	1.2836978
10	0x3e1378f3	0.14401607
11	0xbeec0913	-0.46100673
12	0xbed1abbd	-0.40951338
13	0xbe06ae26	-0.1315237
14	0xbe2722f7	-0.16321932
15	0xbfb66f34	-1.4252687
16	0x3d5ce88d	0.053932715
17	0xbf16c5e6	-0.5889572
18	0x3e843bd9	0.2582691
19	0x3fd406d4	1.6564584
20	0xbf1082d8	-0.5644965
21	0xc040e6ec	-3.0140944
22	0x3f600770	0.8751135
23	0x4105cd90	8.362686
24	0xbcba1d48	-0.02271904
25	0x4070a8be	3.7602992
26	0x3e367829	0.17819275
27	0xc01362e9	-2.302912
28	0x3edbf7b6	0.42962426
29	0xbf0f6cf3	-0.5602562
30	0x3c58919a	0.013218308
31	0x40b0192e	5.5030737
32	0x3ebe1669	0.37126473
33	0xc12dd2bd	-10.86395
34	0xbdd49234	-0.103794485
35	0xbed8e3f6	-0.4236142
36	0x3d5b7287	0.05357602
37	0xbee13c7e	-0.43991464
38	0x3d903d73	0.070429705
39	0x3e80a121	0.25122932
40	0x3e636c49	0.22209276
41	0x4104f903	8.310794
42	0x3de98045	0.114014186
43	0xbf797f59	-0.9745994
44	0xbedd02d2	-0.43166214
45	0xc04aa337	-3.1662118
46	0xbe5a76d4	-0.21334392
47	0xbea6a209	-0.32545498
48	0x3e77407c	0.24145693
49	0x40c8b987	6.2726474
50	0x3f3e00ae	0.7421979
51	0x3f77d1ea	0.9680468
52	0xbea84fea	-0.3287347
53	0xbe777d6a	-0.24168935
54	0xbfba222d	-1.454168
55	0xc0f49cc7	-7.644138
56	0xbf0d99a6	-0.55312574
57	0xc0977932	-4.7335443
58	0xbedb399a	-0.42817384
59	0x4022c63d	2.5433495
60	0xbe78362a	-0.24239412
61	0xc114e05a	-9.304773
62	0xbee80b44	-0.45321095
63	0x4025ac03	2.5886238
64	0x3d0b632f	0.034030136
65	0xc0a3a0e3	-5.1133895
66	0x3ed4cb10	0.41561174
67	0x40dd689f	6.919021
68	0x3e87f842	0.26556593
69	0x40ab96bc	5.36215
70	0x3f58830c	0.8457496
71	0xbec03912	-0.3754354
72	0x3ef76958	0.48322558
73	0x3ec6b8ac	0.38812768
74	0xbef355df	-0.47526452
75	0xc0e98e25	-7.2986016
76	0x3f3f892e	0.74818695
77	0x3e9b8aa1	0.30379203
78	0x3e937199	0.28797606
79	0xbf92fcb3	-1.1483368
80	0xbecd12bf	-0.40053365
81	0xc09cfc3b	-4.90579
82	0xbedbbf5a	-0.42919427
83	0xbfd6076e	-1.6721017
84	0xbeb1715c	-0.346568
85	0x40ee7a52	7.4524317
86	0x3e97db36	0.29659432
87	0x3f74c165	0.95607597
88	0x3e2fa869	0.17154087
89	0x4028ff78	2.6405926
90	0x3eed901d	0.46399012
91	0xbd5277e3	-0.051383864
92	0xbe43eb30	-0.19132686
93	0xbe3ab6b9	-0.18233766
94	0xbd8d285e	-0.06892465
95	0x3fb60ad1	1.4222051
96	0x3f644fb7	0.89184135
97	0xbf91bb04	-1.1385198
98	0x3df9d491	0.12198747
99	0xbf3feeec	-0.7497394
100	0x3ef7d7a2	0.48406702
101	0xc0b4c2fd	-5.6488023
102	0xbe840687	-0.2578623
103	0x4052c3f8	3.293211
104	0x3d41fb62	0.047358878
105	0xbe4078ca	-0.18796077
106	0x3ecd5cc7	0.40109846
107	0xbcd120f2	-0.025528405
108	0xbd9e1cb1	-0.07720316
109	0x408dbb2d	4.4290986
110	0x3f8609f3	1.0471786
111	0xc08e657d	-4.4498887
112	0x3e91829e	0.28419966
113	0x3eb0e768	0.3455155
114	0xbf78e3ff	-0.97222894
115	0xc11047ba	-9.017511
116	0xbe2439c8	-0.16037667
117	0xbf935727	-1.1510972
118	0xbe0829db	-0.13297217
119	0x3dbc3c55	0.09191195
120	0x3f383e44	0.7197001
121	0x3f3501f1	0.7070609
122	0xbf0f99bb	-0.5609395
123	0x3f1e7c7d	0.61908704
124	0xbd8b4ea8	-0.06802112
125	0xbf193cc7	-0.59858364
126	0x3e1d1474	0.15339833
127	0x40cebe83	6.460756

0.bias f4 [64]
0	0xbe6d22f4	-0.23157865
1	0xbf188d48	-0.5959058
2	0x3e758c1e	0.23979232
3	0xbe9b4587	-0.30326483
4	0x3e520bd3	0.20512323
5	0xbd95b84f	-0.07310545
6	0x3e43429e	0.19068381
7	0x3eb55b0a	0.3542102
8	0xbcdf12f7	-0.027230723
9	0x3e8e59cb	0.27802882
10	0x3d2f6611	0.042821947
11	0xbe64918f	-0.22321151
12	0xbd639b5b	-0.05556808
13	0xbdebb40c	-0.115089506
14	0xbe5a6a64	-0.21329647
15	0xbe3c1e19	-0.18370856
16	0x3e018411	0.12648036
17	0xbe2510c1	-0.16119672
18	0xbd01188e	-0.031517558
19	0xbdc0f0d7	-0.094209366
20	0xbe290bfe	-0.16508481
21	0xbd8c2465	-0.06842879
22	0xbebf4de9	-0.37364128
23	0x3ebc3251	0.36757138
24	0xbe0fc4a2	-0.14039853
25	0x3db18d2f	0.08669507
26	0x3ee78b27	0.45223352
27	0x3f2f2dd8	0.68429327
28	0xbed65745	-0.41863456
29	0xbeb15642	-0.34636122
30	0xbe88b24b	-0.26698527
31	0xbd132cbe	-0.03593134
32	0xbd1919ad	-0.037378002
33	0xbe2c17f8	-0.16806018
34	0xbe067075	-0.13128836
35	0xbeeeb834	-0.4662491
36	0xbe9926f3	-0.29912528
37	0xbed664c0	-0.4187374
38	0xbec80667	-0.39067385
39	0xbe163d20	-0.14671755
40	0xbed3934c	-0.41323316
41	0xbeb182bd	-0.34670058
42	0xbe8bbefb	-0.27294144
43	0xbe03f2c8	-0.12885582
44	0xbd8c4faa	-0.06851132
45	0xbe7a9707	-0.24471675
46	0x3ec8d082	0.3922158
47	0x3de119e8	0.10991269
48	0xbee4480f	-0.44586226
49	0x3c7d9a50	0.0154786855
50	0x3e5a434e	0.21314737
51	0xbe727402	-0.23677066
52	0xbd02e94c	-0.03196077
53	0x3ef8a990	0.48566866
54	0xbe389cd8	-0.18028581
55	0xbe80c880	-0.2515297
56	0x3e9989e4	0.29988015
57	0xbf4cdb37	-0.80021995
58	0x3ea67246	0.3250906
59	0x3ea9c633	0.33159027
60	0xbede9b1d	-0.43477717
61	0xbedfc08b	-0.43701586
62	0x3ef5ef7d	0.48034278
63	0xbe2bded4	-0.16784221

2.weight f4 [64, 64]
0	0xc128ad9b	-10.542384
1	0x3e41a9cf	0.18912433
2	0x3ee4d10b	0.44690737
3	0xbea67391	-0.32510045
4	0x3e1b8f45	0.15191372
5	0x3e171a72	0.14756182
6	0xbe428d0c	-0.18999118
7	0x3da31157	0.07962292
8	0xbbade1f4	-0.0053064767
9	0x3f1711db	0.5901162
10	0xbe9aac5b	-0.30209622
11	0xbf41d060	-0.7570858
12	0x3fb7d59e	1.4362066
13	0x3da5db2f	0.080984466
14	0xbd999e2a	-0.075008705
15	0xc1658516	-14.344992
16	0xc0704cd8	-3.7546902
17	0xbdeb4521	-0.11487795
18	0x3e470972	0.19437197
19	0xbe0a3787	-0.13497745
20	0x3fc9068e	1.5705125
21	0xbe197b15	-0.14988358
22	0xc04d2cc3	-3.205857
23	0x3e010745	0.1260043
24	0xc1098b1e	-8.596464
25	0x4011d3be	2.2785487
26	0x3e0f0216	0.1396564
27	0xbe2706e0	-0.16311216
28	0xbe815d33	-0.25266418
29	0xc10508c6	-8.314642
30	0xbe7186b0	-0.23586535
31	0xbe16858f	-0.14699386
32	0xc0b7349f	-5.7251735
33	0xc11f0bfd	-9.940427
34	0xc127d224	-10.488804
35	0xbec54eb5	-0.3853661
36	0xbeabf8f1	-0.33588365
37	0x3e1f4c54	0.1555646
38	0x3d0bb5e4	0.03410901
39	0xbe159641	-0.14608099
40	0xc0b9021a	-5.7815065
41	0xc0a89685	-5.268374
42	0x3fbacbc7	1.4593438
43	0x3f960d9a	1.1722901
44	0xc13c3f5b	-11.765468
45	0xbd509115	-0.05091961
46	0x3e18099a	0.14847413
47	0x3e62d04f	0.22149776
48	0xbe31c30d	-0.17359562
49	0x3e4fc3ec	0.20289582
50	0xc0956a0c	-4.669195
51	0xc12d41b7	-10.828544
52	0xbdcf51a1	-0.10122991
53	0x3f0d93c4	0.553036
54	0xc1397e86	-11.5933895
55	0x3dd1da14	0.10246673
56	0x3f13558e	0.5755242
57	0xbdc1c4df	-0.09461378
58	0x3e19d211	0.1502154
59	0x3ebce387	0.3689234
60	0xbee00e78	-0.4376104
61	0xc0ac299b	-5.380079
62	0x3ecbe249	0.3982108
63	0xc11201b4	-9.125416
64	0x3f4dc0c5	0.8037227
65	0xbe0d9442	-0.13826087
66	0x3f26a002	0.650879
67	0x3fc63aa3	1.5486645
68	0x3f2397c3	0.63903445
69	0x3da07a7b	0.07835861
70	0x3c9cd708	0.019145504
71	0x3ebb0725	0.36528888
72	0xbddc39eb	-0.107532345
73	0x3f210a00	0.62905884
74	0x3e4ddccc	0.20103759
75	0x3faa7767	1.3317689
76	0x3f0a3fe5	0.54003745
77	0x3eb82f56	0.35973614
78	0xbf4f616f	-0.81008047
79	0x3c813da2	0.01577646
80	0xc093b999	-4.616406
81	0x3d3fffa1	0.046874646
82	0x3df2968d	0.118451215
83	0xbd7dd45e	-0.061970107
84	0x40be37bc	5.9443035
85	0xbde1c13a	-0.11023183
86	0xc0d6bbd0	-6.7104263
87	0x3e631e70	0.2217958
88	0x3f680176	0.9062723
89	0x3fae9860	1.3640251
90	0x3e9c8e47	0.305773
91	0x3ebb3bb7	0.36568996
92	0xc0c026ed	-6.0047517
93	0xc08e2665	-4.442187
94	0xc10ecdf5	-8.9252825
95	0x3d4db785	0.050223846
96	0xc0eaacda	-7.3336
97	0xbec62a9a	-0.38704377
98	0xbe37434f	-0.1789677
99	0xbf900200	-1.125061
100	0xbf857c22	-1.0428507
101	0xc0b0cde3	-5.5251327
102	0x3e5f3df8	0.21800983
103	0x3d756621	0.05991185
104	0x3e7302ea	0.2373158
105	0xc1076566	-8.4622555
106	0x3e9d3d5d	0.3071088
107	0x3f20349d	0.6258028
108	0xbf648216	-0.89260995
109	0xbf1bea0e	-0.60904014
110	0x3e7c64b3	0.24647789
111	0xbc9e8305	-0.019349584
112	0xbec19d0f	-0.3781514
113	0x3ea34948	0.31891847
114	0xc0bec970	-5.9620895
115	0xc0880897	-4.2510486
116	0x3d0c5b9f	0.034267064
117	0x3f706d7f	0.9391708
118	0x3fa0bdef	1.2557963
119	0xbe7f268c	-0.24917048
120	0x3f6df81f	0.9295673
121	0xc03350b6	-2.8018012
122	0x3ed453e7	0.41470262
123	0x3e3c7319	0.18403281
124	0xbf4c2dc3	-0.79757327
125	0xc103c145	-8.234685
126	0x3effa9a2	0.49934107
127	0x3ce4128d	0.027840877
128	0x3d1b1673	0.037863206
129	0xbd94eba4	-0.072715074
130	0xbdfdcfb3	-0.12393131
131	0x3d3ab264	0.045580283
132	0xbc8614c0	-0.016367316
133	0x3cec78af	0.02886614
134	0x3d81e24a	0.06341989
135	0xbd78abd4	-0.060710743
136	0x3b2b3123	0.0026121817
137	0xbe0167ca	-0.12637249
138	0x3d2a3565	0.041554827
139	0xbce3c52f	-0.027803985
140	0x3c8896fc	0.016673557
141	0xbc69f993	-0.014280695
142	0x3d1f58af	0.038902935
143	0x3dc5a827	0.09651213
144	0x3de9e2fd	0.11420248
145	0xbe046b07	-0.12931453
146	0x3c8729b9	0.016499387
147	0xbe03a94f	-0.12857555
148	0xbdb0114c	-0.08597049
149	0xbe3eff11	-0.18651988
150	0x3e1c2dd3	0.15251856
151	0xbd03c242	-0.03216768
152	0x3d3f4604	0.04669763
153	0xbda8ed6e	-0.08248411
154	0xbc92bde4	-0.017912813
155	0xbcd400c8	-0.025879279
156	0x3d166204	0.03671457
157	0x3d8a6bbd	0.06758831
158	0x3e2b19df	0.16709088
159	0xbe616083	-0.22009473
160	0xbd813bcc	-0.063102335
161	0xbd3f1873	-0.046654176
162	0xbe23bfbc	-0.1599111
163	0x3cc866de	0.024463113
164	0x3dd1f353	0.102514885
165	0xbe7a167e	-0.24422643
166	0xbda77be0	-0.08177924
167	0x3e3b6111	0.18298747
168	0x3d9b0eca	0.0757118
169	0x3d3ed0ba	0.046585776
170	0xbd6e7aee	-0.058222704
171	0xbd6df0e7	-0.05809107
172	0x3c5056f1	0.012716041
173	0xbdece722	-0.115675226
174	0xbe703ac5	-0.23459919
175	0xbe06c951	-0.13162734
176	0x3db57d72	0.088618174
177	0x3da21b17	0.07915323
178	0x3d67fd77	0.056638207
179	0xbe82b811	-0.25531057
180	0x3dd8a13e	0.105776295
181	0xbdbc03a9	-0.091803856
182	0xbdd9b4f7	-0.106302194
183	0x3e8680f7	0.26270267
184	0xbd1fa110	-0.03897196
185	0xbd8185d2	-0.06324352
186	0xbda4c489	-0.080452986
187	0x3e31bebc	0.17357916
188	0x3d83c018	0.06433123
189	0x3c02a404	0.007973675
190	0x3e19a50c	0.15004367
191	0x3cef8bf5	0.029241541
192	0x3ddd0fca	0.10794027
193	0xbe93c044	-0.28857625
194	0xbe7c6f11	-0.24651743
195	0xbe80c9d1	-0.25153974
196	0xbdaac0eb	-0.083375774
197	0x3d8e722c	0.0695537
198	0xbcab5439	-0.020914184
199	0x3e241fd1	0.16027762
200	0x3dbd8a30	0.09254873
201	0xbd1924a9	-0.037388477
202	0xbdbff4b4	-0.09372845
203	0xbe80c628	-0.2515118
204	0x3d09a7a1	0.03360713
205	0xbe012029	-0.12609924
206	0xbce69c8f	-0.028150825
207	0xbdc774ed	-0.09739099
208	0x3e4f9fcb	0.202758
209	0x3d9916b4	0.074750334
210	0xbd4cfc15	-0.05004509
211	0xbe12e4b0	-0.1434505
212	0x3d8ba817	0.0681917
213	0xbd85a13d	-0.065248944
214	0xbe7bafef	-0.24578832
215	0x3e506b91	0.20353533
216	0x3e75e881	0.24014474
217	0xbd15b5dc	-0.036550388
218	0xbe0da36c	-0.13831872
219	0xbd05de0a	-0.032682456
220	0x3c85c4b8	0.016329154
221	0x3d0059e3	0.031335723
222	0xbe2ae367	-0.1668831
223	0xbdbf9210	-0.09354031
224	0xbe0141b5	-0.12622721
225	0xbe406947	-0.1879016
226	0xbdac3d2e	-0.084101066
227	0xbe42c8db	-0.19021933
228	0x3d7e736f	0.062121805
229	0x3b1169ac	0.002218823
230	0xbe639ba2	-0.22227338
231	0xbddbb410	-0.107277036
232	0xbe66de7d	-0.2254581
233	0xbe7289d5	-0.23685391
234	0x3dc2db42	0.09514476
235	0xbc20619a	-0.009788895
236	0xbc9e5573	-0.019327855
237	0x3e1dd07f	0.15411566
238	0xbc672f23	-0.014110359
239	0x3d57c270	0.052675664
240	0x3da734a6	0.08164339
241	0x3dffc31b	0.12488385
242	0xbe2801a7	-0.1640688
243	0xbddaad61	-0.10677601
244	0xbd669f0b	-0.05630402
245	0x3ded3424	0.11582211
246	0xbe6c6acf	-0.23087619
247	0x3ced0357	0.028932257
248	0xbd8f1a93	-0.069874905
249	0x3d63ada9	0.055585537
250	0xbe54c048	-0.20776474
251	0xbd9593e8	-0.073036015
252	0xbe054be4	-0.13017231
253	0x3e576302	0.21033862
254	0x3d392d93	0.04520948
255	0xbdba02ac	-0.09082541

2.bias f4 [64]
0	0x3e98988b	0.2980388
1	0x3efa71db	0.4891499
2	0xbc842ec6	-0.016135585
3	0xbccb55eb	-0.024821242
4	0x3eadda9f	0.33955857
5	0x3f224680	0.63388824
6	0xbd706f2b	-0.058699768
7	0xbd4a5d37	-0.049405303
8	0xbe3c623d	-0.1839685
9	0x3f4850bf	0.7824821
10	0x3f07d3fb	0.5305783
11	0x3da720e1	0.08160568
12	0xbf0530bc	-0.5202749
13	0xbd5c67a1	-0.053809766
14	0xbc8d7659	-0.017268347
15	0x3f1e40dc	0.6181772
16	0x3eb3db88	0.35128427
17	0xbdc6b971	-0.09703339
18	0x3f42a8ed	0.7603901
19	0xbd81dc3d	-0.06340835
20	0x3f0f9edf	0.56101793
21	0x3f3e2e68	0.7428956
22	0x3eb21c8b	0.34787402
23	0xbc9565e3	-0.01823706
24	0x3f21346b	0.6297061
25	0xbc5883d8	-0.013215028
26	0xbd5b1ce2	-0.05349434
27	0x3ea00a8e	0.31258053
28	0x3ec0f818	0.3768928
29	0xbc8395cc	-0.01606264
30	0xbd905c03	-0.070488
31	0x3c23d70a	0.01
32	0xbd4837b1	-0.048881236
33	0x3ecb4065	0.39697567
34	0xbd6ea181	-0.05825949
35	0x3f377bc7	0.71673244
36	0x3d8b80e6	0.06811695
37	0x3f0a6692	0.5406276
38	0x3eb1b85d	0.3471097
39	0x3f11f60f	0.5701608
40	0x3f4e4de5	0.8058761
41	0xbdd0ec32	-0.10201301
42	0x3f1014c5	0.5628169
43	0xbc8fe275	-0.017564038
44	0xbdbceffa	-0.092254594
45	0xbcb1ff5e	-0.021728214
46	0x3c23d70a	0.01
47	0xbd7ee10e	-0.062226348
48	0xbdc00efe	-0.093778595
49	0xbd4d2402	-0.050083168
50	0xbdc90822	-0.09816004
51	0x3e613920	0.21994448
52	0x3f5cc65c	0.8624017
53	0xbd2d771e	-0.042349927
54	0xbe2554be	-0.16145608
55	0xbd54ac35	-0.051922042
56	0x3f43c9a5	0.7647956
57	0xbd478505	-0.04871084
58	0x3f0b11c5	0.5432399
59	0xbd5ed4ee	-0.054402284
60	0xbcb22da5	-0.02175028
61	0x3ed4193c	0.41425502
62	0xbd4d0e52	-0.050062485
63	0x3f51983f	0.81872934

4.weight f4 [3, 64]
0	0xc02d9281	-2.712067
1	0xbfd52043	-1.665047
2	0x3dab069d	0.08350871
3	0xbd9c0bc7	-0.07619434
4	0xc041341c	-3.0188055
5	0xbf8e4280	-1.1114044
6	0xbb7b63a0	-0.0038358942
7	0xbbb1b734	-0.005423451
8	0x4071168e	3.7670016
9	0xbf224dfc	-0.63400245
10	0xbeb8e440	-0.3611164
11	0x40330eb4	2.7977724
12	0x40c03861	6.006882
13	0x3ca2ad7a	0.01985811
14	0x3e37a322	0.17933324
15	0xbfd556d6	-1.6667125
16	0xbff37ad1	-1.9021856
17	0x3d8d0a9f	0.068867914
18	0xbf4da234	-0.8032563
19	0x3d37e68a	0.044897594
20	0xc00a45b8	-2.1605053
21	0xbf8a4661	-1.0802728
22	0xbf8e412e	-1.1113641
23	0x3b83debe	0.0040243557
24	0xbf0533d9	-0.5203224
25	0xbbc78408	-0.0060887374
26	0x3e1094c4	0.1411925
27	0xbfb44680	-1.4084015
28	0xbfe2b09a	-1.7710145
29	0x3e17d33f	0.14826678
30	0x408ff2bd	4.498381
31	0xbde4b74b	-0.11167773
32	0x3dc545f9	0.09632487
33	0xbf9808ad	-1.1877648
34	0x3dc8a050	0.09796202
35	0xbf52cafc	-0.8234098
36	0x404b54d2	3.177052
37	0xc00fd41d	-2.2473214
38	0xc033f70e	-2.811954
39	0xbf228794	-0.63488126
40	0xbfc09d6b	-1.504804
41	0x3f1a2173	0.6020729
42	0xc00250fe	-2.0361934
43	0xbb9c926d	-0.0047781975
44	0xbefe5fa7	-0.49682352
45	0x3e08f9d3	0.1337655
46	0x3d69b907	0.05706122
47	0x3da9e785	0.08296112
48	0x3d1f490b	0.03888802
49	0x3d81ebc2	0.06343795
50	0x3cc368a7	0.023853613
51	0x40352483	2.8303535
52	0xbf7a27f2	-0.977172
53	0xbdfe76af	-0.12424981
54	0x40863087	4.1934237
55	0x3b1bd7b1	0.0023779685
56	0xbf84a9a3	-1.0364269
57	0x3b57a97d	0.003290742
58	0xbf469f85	-0.7758716
59	0xbbb0be91	-0.005393811
60	0xbd9994b7	-0.07499068
61	0x3e4670ab	0.19378917
62	0x3cac7dba	0.021056045
63	0xbf0a1dcc	-0.53951716
64	0xc05bac4c	-3.4323912
65	0xbebe0476	-0.37112778
66	0x3d67558a	0.05647806
67	0x3d37f56c	0.044911787
68	0xc0ae48a1	-5.446366
69	0xbfe77187	-1.8081521
70	0xbcf22f60	-0.029563606
71	0x3daa0af5	0.08302871
72	0x3fc511bb	1.5396036
73	0xbeb98c39	-0.36239794
74	0xbf203889	-0.62586266
75	0x3fdb62fa	1.713958
76	0x401ec66a	2.4808602
77	0x3cdc80ee	0.026916947
78	0x3de9b4fe	0.11411475
79	0xbe9846be	-0.29741472
80	0xbf89d011	-1.0766622
81	0x3e0f5afd	0.13999553
82	0xbeddbe35	-0.4330918
83	0xbc5323c0	-0.012886941
84	0xc022100b	-2.5322292
85	0xc00571fe	-2.0850825
86	0xbff10682	-1.8830111
87	0x3e06f8c1	0.1318083
88	0xbeb0ce6e	-0.34532493
89	0xbe2269e0	-0.158607
90	0x3d7ae3cd	0.061252404
91	0xc04b09cd	-3.1724732
92	0xc042ea02	-3.0455327
93	0xbcc55ca7	-0.024092032
94	0xbf109edd	-0.56492406
95	0x3e6a2ce2	0.22868684
96	0x3c945e03	0.018111235
97	0xbff9b8a3	-1.9509472
98	0x3ce2f14c	0.02770295
99	0xbecc9654	-0.3995844
100	0x4004ad37	2.0730722
101	0xc0200e78	-2.500883
102	0xc0895432	-4.2915277
103	0xbec5228b	-0.38502917
104	0xbf7fe82c	-0.9996364
105	0xbf746f64	-0.9548247
106	0xbe6628a8	-0.22476447
107	0x3d85f34d	0.065405466
108	0xbf59cccc	-0.8507812
109	0xbc74aeb2	-0.014934229
110	0xbe47bc25	-0.19505365
111	0x3cc6035c	0.024171524
112	0x3c4fec6a	0.012690643
113	0x3d29213c	0.04129146
114	0xbd5586f4	-0.052130654
115	0x3d4f12ba	0.05055497
116	0xbf50a73f	-0.815052
117	0x3e1bf1fc	0.15229028
118	0x401078dd	2.257377
119	0x3de6e278	0.11273664
120	0xbfb932a8	-1.4468584
121	0x3d42348d	0.047413398
122	0xbf1af196	-0.6052488
123	0xbca85e9f	-0.020552931
124	0xbe856187	-0.2605097
125	0xbe068138	-0.1313523
126	0x3d73bfaf	0.059508976
127	0xbee9caa0	-0.45662403
128	0xc073dbba	-3.810286
129	0x3ecd53e4	0.40103066
130	0xbc0f19f7	-0.008734218
131	0x3e6765d0	0.22597432
132	0xc0a5e8de	-5.184676
133	0xbfe3b0d0	-1.7788334
134	0x3d2385f1	0.03992266
135	0x3e150d17	0.14555775
136	0x3f971fe6	1.180661
137	0xbf001cdd	-0.5004404
138	0xbea7aa35	-0.32747045
139	0x3fbb1e28	1.4618578
140	0x402d3e41	2.7069247
141	0x3e8b1f09	0.27172115
142	0x3cf3f0fc	0.029777996
143	0xbe29bf8f	-0.1657698
144	0xbde393bd	-0.11112163
145	0xbdd7e43a	-0.10541578
146	0xbf1a5e35	-0.603
147	0x3d8f8b11	0.07008947
148	0xbfa8d99c	-1.3191409
149	0xbfaeb09e	-1.3647649
150	0xc07869f9	-3.881468
151	0x3bd47ca4	0.006484585
152	0xbebf34d2	-0.37344986
153	0x3ea31383	0.31850824
154	0xbd928bec	-0.07155594
155	0xc08db93d	-4.428862
156	0xc0899f64	-4.300707
157	0xbd64dc8d	-0.055874396
158	0xbf4c6cc1	-0.79853445
159	0xbe3dc299	-0.18531264
160	0xbd3f5660	-0.046713233
161	0xc0731ef3	-3.798764
162	0x3a93eff0	0.0011286717
163	0xbf0de376	-0.554252
164	0x4051c8fd	3.2778924
165	0xbf574905	-0.84095794
166	0xc0b54f54	-5.6659336
167	0xbe8d0871	-0.27545503
168	0xbf679fc2	-0.90478146
169	0xbf1077fe	-0.56433094
170	0x3e96495c	0.29352844
171	0xbd18dcfc	-0.037320122
172	0xbf219039	-0.6311069
173	0x3df14ca0	0.11782193
174	0xbc40f07a	-0.011776084
175	0x3dac683e	0.0841832
176	0x3d4c4a0a	0.049875297
177	0xbced3d63	-0.028959936
178	0xbd4c76a9	-0.04991785
179	0xc04c1bd3	-3.1891983
180	0xbf51e6a3	-0.8199255
181	0x3e65a952	0.22427872
182	0x3fc64d6d	1.5492378
183	0xbd5c2f9a	-0.053756334
184	0xbf9c3ffa	-1.2207024
185	0x3ce29f53	0.027663862
186	0xbe921ff7	-0.28540012
187	0x3d3b3121	0.04570115
188	0x3c9df7bc	0.019283168
189	0xbf53ac80	-0.8268509
190	0x3e03aacc	0.12858123
191	0xbf3d11bf	-0.73855203

4.bias f4 [3]
0	0xbf7067d4	-0.9390843
1	0xbedf1549	-0.43570927
2	0xbf53a8ad	-0.82679254
