A4/models/dueling-dqn.pt (torch, 21239 bytes, 7 tensors)

net.0.weight f4 [64, 2]
000000 f7 97 ef 3f 63 7d 34 40 45 4a 6d 3f 15 04 76 bf
       1.8718251 2.820153 0.9269145 -0.9609998
000010 d2 7c 00 80 8d 0c 01 00 12 e9 4d 2b e3 24 00 80
       -4.4777e-41 9.6338e-41 7.315408e-13 -1.3232e-41
000020 49 97 41 bd 70 dc 13 41 a0 9f e9 30 37 4e 00 00
       -0.047263417 9.241318 1.6998349e-09 2.8058e-41
000030 8e f9 e7 3e 42 31 61 bf 6a c6 af 3f c9 c5 96 40
       0.45307583 -0.87965786 1.3732426 4.7116437
000040 6f 59 97 bf 85 2b 5e c0 f3 29 56 3e 66 f8 88 40
       -1.1824168 -3.4714062 0.2091444 4.280322
000050 97 f8 a1 13 58 4e 00 00 61 1a e6 b1 ee ea 16 31
       4.0887242e-27 2.8104e-41 -6.69688e-09 2.1961415e-09
000060 4b 00 00 80 74 04 00 80 0b 1a 25 36 9f 4c 00 80
       -1.05e-43 -1.597e-42 2.4602075e-06 -2.7486e-41
000070 14 22 51 19 8b 2a 00 80 f3 f3 46 30 9c 70 07 ae
       1.0811929e-23 -1.5262e-41 7.2378653e-10 -3.0795463e-11
000080 cc 16 62 3f ab 9d 8f c0 d1 f6 0d ba dc a9 99 21
       0.88316035 -4.4879966 -0.00054155017 1.0412645e-18
000090 21 c4 63 3f 91 7e 71 c0 36 1f 10 3a f8 7e d6 25
       0.88971144 -3.77335 0.0005497815 3.720912e-16
0000a0 f9 24 00 00 d9 3a 00 80 c3 be 3a a6 f5 aa 84 9e
       1.3263e-41 -2.111e-41 -6.4790244e-16 -1.404675e-20
0000b0 fd 12 ee be e0 89 ea be 9e 62 a9 3f fc 06 a9 bf
       -0.46498862 -0.45808315 1.323322 -1.3205256
0000c0 75 d8 d5 3e ac eb 8b 40 3d 37 c9 bf e7 30 4a c0
       0.41766706 4.3725185 -1.5719982 -3.1592348
0000d0 b0 07 bd 3f 2d 46 d4 3f f6 d9 0c 3e 96 6c a9 c0
       1.4767971 1.6583916 0.1375502 -5.294505
0000e0 d4 a9 8d 3f 58 66 ba bf f9 48 15 3b 03 34 e3 2c
       1.1067452 -1.4562483 0.002277909 6.4575025e-12
0000f0 60 94 05 39 51 5b 00 80 f1 db 98 8e 0a 16 00 80
       0.00012739142 -3.2758e-41 -3.768269e-30 -7.906e-42
000100 8d 08 00 00 6a 0d 00 00 46 b1 2e 38 69 6a 00 00
       3.067e-42 4.812e-42 4.164993e-05 3.8173e-41
000110 cb 1d 97 3f 25 7e e0 bf 83 f4 03 bf 00 a7 0d bf
       1.1805967 -1.7538496 -0.5154497 -0.55332947
000120 0b b5 87 1e da 6a 00 00 5f 5c 92 3f be f1 8d 3f
       1.4368559e-20 3.8331e-41 1.143444 1.1089399
000130 59 cc c7 3e bc 02 bc c0 68 66 00 80 2c 33 00 80
       0.39023092 -5.875334 -3.6736e-41 -1.8357e-41
000140 0e a6 bc af 0a 36 00 80 ed e7 07 40 0d 27 82 3f
       -3.431499e-10 -1.9386e-41 2.1235306 1.0168167
000150 e5 9e f4 3e 43 21 99 40 d8 d1 3d 3f fa a7 14 40
       0.47777477 4.7853103 0.7414832 2.3227525
000160 e6 da 7a b9 36 04 00 00 1f 03 00 00 e4 09 00 00
       -0.00023923404 1.51e-42 1.12e-42 3.548e-42
000170 d2 f8 13 bf 2e 51 94 3f a2 dc 6d 2f 5f 1b 00 00
       -0.57801545 1.1587274 2.1633409e-10 9.819e-42
000180 df 10 04 39 f0 8e 43 91 9d 02 00 00 a8 11 00 00
       0.00012594786 -1.5426834e-28 9.37e-43 6.334e-42
000190 f2 26 ca 37 8e 4c 7c b0 24 6b 00 00 23 65 00 00
       2.4098412e-05 -9.1785857e-10 3.8435e-41 3.6281e-41
0001a0 9a db b6 3f 60 6d 60 40 02 f8 4e 25 d0 7d 01 23
       1.4285767 3.5066757 1.795168e-16 7.019746e-18
0001b0 e7 f0 b1 28 26 2f 00 80 a5 0d 00 00 09 02 00 80
       1.9755422e-14 -1.6914e-41 4.895e-42 -7.3e-43
0001c0 df a1 34 3e cb 88 cf 40 33 07 00 00 39 02 00 80
       0.17639874 6.4854484 2.583e-42 -7.97e-43
0001d0 cc 3e 0e 3c 3f 81 85 b8 5a 70 00 80 d7 2c 00 00
       0.008681964 -6.366008e-05 -4.0304e-41 1.6086e-41
0001e0 41 e9 ba ba b5 a0 aa ae f6 4c db 3f f5 5a 39 40
       -0.0014260189 -7.759252e-11 1.7132862 2.8961766
0001f0 1c bd 29 1e a5 5d 00 00 b8 0b 45 24 50 d8 00 00
       8.9858924e-21 3.3593e-41 4.2727492e-17 7.7598e-41

net.0.bias f4 [64]
000000 d7 99 98 3e df e3 8c 3f f8 09 6f a6 5d 52 75 b1
       0.2980487 1.1007041 -8.293329e-16 -3.569901e-09
000010 3f 3b 70 3a 0b da 99 b1 af 08 09 3f bf 3f ec 3e
       0.0009164102 -4.4776747e-09 0.53528875 0.46142384
000020 a5 d8 3e bf ee bf 22 be 31 50 bc af 41 c3 3c b2
       -0.74549323 -0.15893528 -3.425398e-10 -1.0987436e-08
000030 18 05 00 80 f1 df ec b9 36 6b 19 9e 72 39 47 b0
       -1.827e-42 -0.00045180277 -8.121923e-21 -7.2477413e-10
000040 af 77 12 3f de 7c 11 bc a4 52 24 3f d4 ea 9b bb
       0.5721387 -0.008879868 0.641886 -0.0047582183
000050 7a 92 b8 9e c6 de 0a af 3c 04 d7 3f a7 76 ac 3f
       -1.9542339e-20 -1.2630172e-10 1.6798167 1.347371
000060 cf 0e ea 3e da 82 52 bf 82 7f 6d 3d 66 15 9c 3d
       0.45714423 -0.82230914 0.05798293 0.07621269
000070 5b 5c 36 3f 70 60 6a bb 92 4f 97 ba f7 ec 94 aa
       0.71234673 -0.0035763048 -0.00115441 -2.6454509e-13
000080 6a 05 00 80 05 05 f6 ba c3 d9 9a 3f 5e 7c ec 3f
       -1.942e-42 -0.0018769806 1.2097706 1.8475454
000090 6c 42 af ab 17 04 32 3f 49 15 5b 3e 62 f1 48 90
       -1.2452934e-12 0.6953749 0.21394838 -3.9629e-29
0000a0 b1 19 26 b9 45 c9 49 be 38 0c 89 3e 1e 7a 36 3f
       -0.00015840564 -0.19705684 0.26767135 0.71280086
0000b0 d2 9b e0 ba 91 08 00 80 0e 6d b3 be 29 a3 83 b9
       -0.0017136282 -3.073e-42 -0.3504414 -0.0002510783
0000c0 62 6b a6 bb 88 14 00 80 5b cb 47 b9 c0 7b 27 98
       -0.005078719 -7.365e-42 -0.00019053875 -2.1646722e-24
0000d0 cb 21 c6 3e 09 61 97 b0 5c 75 b2 b2 ae 0f 00 80
       0.38697657 -1.1014275e-09 -2.0775296e-08 -5.625e-42
0000e0 45 38 ae 3d 4a 06 00 80 2c 73 74 bc 22 b7 e2 87
       0.08506826 -2.256e-42 -0.014920037 -3.4112336e-34
0000f0 b1 c6 5e bc 27 60 cc 3e 1e e6 1f aa 9d 83 ac b0
       -0.013597176 0.39917108 -1.4201875e-13 -1.2552054e-09

net.2.weight f4 [64, 64]
000000 09 3b c2 b3 85 24 a0 b5 1c c9 40 33 fe 37 02 2b
       -9.0445674e-08 -1.1931558e-06 4.488639e-08 4.626298e-13
000010 c8 73 dd 34 d8 db 36 34 ed 34 93 b4 7d 16 b3 b4
       4.12487e-07 1.703005e-07 -2.7419392e-07 -3.335771e-07
000020 09 cf 91 35 a6 4d 89 34 66 08 7a 34 04 f4 93 37
       1.0863597e-06 2.5574735e-07 2.328612e-07 1.7637394e-05
000030 3d 0f 00 80 94 9f 53 31 cb fc 59 2e b0 e2 28 34
       -5.466e-42 3.079525e-09 4.9564613e-11 1.5728688e-07
000040 50 58 76 b4 74 09 9b 30 99 eb 6f b4 34 d4 90 2e
       -2.2942663e-07 1.1280421e-09 -2.234432e-07 6.586057e-11
000050 52 bb f4 ae b0 9d b8 34 08 8b b0 b9 db 95 96 34
       -1.112911e-10 3.4387404e-07 -0.00033672922 2.8048711e-07
000060 cb 66 f9 b4 67 65 da 35 f5 79 03 b4 18 e3 95 32
       -4.6454656e-07 1.6271778e-06 -1.2244693e-07 1.7449153e-08
000070 5a 87 fc 32 c8 a1 11 b2 36 46 81 2d 7f b6 0a b1
       2.9398212e-08 -8.476896e-09 1.4696782e-11 -2.018538e-09
000080 c9 07 00 00 d8 96 49 34 b6 64 6a b5 f5 3a 14 ba
       2.793e-42 1.877446e-07 -8.7318347e-07 -0.0005654537
000090 60 8b 2d 2b 88 f1 03 b4 bc f9 c5 b4 88 ea a8 2a
       6.165537e-13 -1.2288194e-07 -3.6875815e-07 3.0005534e-13
0000a0 26 3d 47 2e 0b 08 2f b4 7c bc dc 33 48 a4 0c 35
       4.5301672e-11 -1.6301071e-07 1.02788334e-07 5.2393125e-07
0000b0 e9 af 09 2e aa 13 00 80 4c d5 a8 34 c0 7d 10 ae
       3.1306433e-11 -7.054e-42 3.1447632e-07 -3.2853498e-11
0000c0 f0 81 f3 b3 fa 0d 00 00 9a 57 16 aa c8 ca 84 30
       -1.1339205e-07 5.014e-42 -1.3353069e-13 9.661898e-10
0000d0 3c c1 04 33 73 83 be b1 56 c5 61 2e 04 0d 00 80
       3.090939e-08 -5.544672e-09 5.1334346e-11 -4.669e-42
0000e0 c4 0d ad b4 36 0f 00 80 e0 21 64 2c 04 8d 3a b1
       -3.2233777e-07 -5.457e-42 3.2419553e-12 -2.714672e-09
0000f0 b7 2f 57 35 86 eb 5c b4 fa 2b cc b3 f4 31 43 af
       8.0163176e-07 -2.057478e-07 -9.5074896e-08 -1.7752894e-10
000100 71 57 39 a3 56 6e 42 27 98 c6 00 00 ac 44 de b8
       -1.00473865e-17 2.6982722e-15 7.1242e-41 -0.00010598576
000110 17 6e 4c a2 c0 48 ec af 30 d4 08 a3 f0 d8 19 24
       -2.7705436e-18 -4.2979842e-10 -7.417507e-18 3.336034e-17
000120 b1 98 e7 a2 8c c7 1a a2 e9 1c 06 00 e0 e7 de b7
       -6.2774344e-18 -2.0976531e-18 5.61384e-40 -2.6572437e-05
000130 6d 0a 00 80 92 7d 50 b4 c8 95 b0 2a e2 20 05 2b
       -3.74e-42 -1.9417192e-07 3.1367812e-13 4.7296726e-13
000140 28 bf 74 a2 8b 5c a6 34 96 2c 72 23 77 fc c4 b4
       -3.3169364e-18 3.0987243e-07 1.3128288e-17 -3.6691537e-07
000150 04 a6 87 b7 62 36 2e b2 43 13 6e ac 8a f5 f7 ad
       -1.6170561e-05 -1.0140498e-08 -3.3832527e-12 -2.818969e-11
000160 91 17 40 a3 74 7c 87 22 cd 92 1f 23 e6 b8 18 a3
       -1.0413331e-17 3.6723593e-18 8.6504935e-18 -8.27909e-18
000170 e7 48 fb 21 92 1f 35 80 40 4e d7 33 f8 db ed 31
       1.7027719e-18 -4.878607e-39 1.0025951e-07 6.9226154e-09
000180 a3 7e 2d 2a 64 4a 05 31 10 1c 4f ab 95 d1 48 ae
       1.5409423e-13 1.9396333e-09 -7.358012e-13 -4.566088e-11
000190 00 21 7c aa 0c 38 0f 24 3f c4 ec 22 ea b9 33 35
       -2.2393545e-13 3.1055656e-17 6.417571e-18 6.6953237e-07
0001a0 e0 1d e2 b3 75 fd a1 22 a2 d8 2a 21 49 ee fd 21
       -1.0529379e-07 4.3907496e-18 5.788495e-19 1.720702e-18
0001b0 0a cd ad 2e 9f 07 00 80 99 d9 45 21 98 4b f8 35
       7.9035514e-11 -2.734e-42 6.7034184e-19 1.849944e-06
0001c0 d4 e4 e8 b2 9f 08 00 80 9e 51 14 b1 0d fe a6 b0
       -2.7112414e-08 -3.093e-42 -2.1583229e-09 -1.2150295e-09
0001d0 4a ac d0 22 88 01 c7 30 02 b0 7e 35 91 10 00 80
       5.656093e-18 1.4479591e-09 9.48785e-07 -5.943e-42
0001e0 e1 23 3b a2 86 0a 00 80 b6 06 de 32 bd 61 57 2b
       -2.536222e-18 -3.775e-42 2.5847253e-08 7.6518983e-13
0001f0 84 f1 cb b3 b8 63 d5 23 b8 54 fa ac c9 36 2c a9
       -9.4968556e-08 2.3135739e-17 -7.114833e-12 -3.823919e-14
000200 fa 94 2b 8c 09 ae 4f 98 22 35 87 ad b0 09 e1 ab
       -1.3218192e-31 -2.6841988e-24 -1.5371319e-11 -1.59899e-12
000210 e3 51 22 87 ea 45 69 ad 2c d7 d7 06 0d 13 3e 8c
       -1.221159e-34 -1.3260041e-11 8.119018e-35 -1.46428e-31
000220 c6 e1 b2 05 32 b6 6d 86 28 39 aa 34 66 92 ad aa
       1.6821976e-35 -4.4708602e-35 3.1706554e-07 -3.0832558e-13
000230 e8 d3 b6 ab 64 4e 3e b7 12 a3 04 ac 44 02 49 b2
       -1.2990694e-12 -1.1343134e-05 -1.884885e-12 -1.1700255e-08
000240 4a de dd 86 c4 ce b0 2a ae 3d 52 06 f0 dc 89 2e
       -8.3457585e-35 3.1407353e-13 3.9541925e-35 6.269285e-11
000250 c6 7a 9c b6 91 29 87 2f 63 98 b3 ab c5 95 26 a3
       -4.663455e-06 2.4585892e-10 -1.2761011e-12 -9.030593e-18
000260 69 86 97 07 01 e9 53 06 1d 87 02 07 18 48 01 86
       2.2798954e-34 3.9855874e-35 9.819819e-35 -2.431517e-35
000270 97 a5 9b 89 7a c1 3d 38 44 97 31 b7 5c dc fd 2b
       -3.7470613e-33 4.52413e-05 -1.0585241e-05 1.8037893e-12
000280 34 13 00 80 04 45 dc 2b bf 7f 1d 1c 7a 01 a0 ad
       -6.889e-42 1.5651096e-12 5.211205e-22 -1.819055e-11
000290 70 9f 38 b8 79 88 f9 0c 0a 64 93 04 2d 7a ed 33
       -4.4017506e-05 3.844666e-31 3.4651405e-36 1.1058396e-07
0002a0 14 eb 78 2e ff 3d 0a 07 c5 1c d9 06 34 53 b4 8b
       5.6597463e-11 1.0400185e-34 8.16686e-35 -6.945867e-32
0002b0 b8 96 89 ae fa 04 00 80 ec 6b 13 06 cc db 14 2e
       -6.256812e-11 -1.785e-42 2.7726916e-35 3.3846523e-11
0002c0 8e 17 fa 33 61 5e ed b1 10 85 28 33 b8 99 06 35
       1.1645817e-07 -6.9083375e-09 3.9236568e-08 5.014258e-07
0002d0 48 c8 8a 89 b4 49 17 35 c4 b2 a5 2c d8 97 2f 2e
       -3.3410635e-33 5.6359136e-07 4.709429e-12 3.9925258e-11
0002e0 1b 01 91 86 0d 02 00 00 c7 9f 94 36 6f 3f d7 a8
       -5.454456e-35 7.36e-43 4.4293442e-06 -2.3897305e-14
0002f0 4c b1 79 af 23 2b 35 0b e0 6d ff b0 fc 4f fa b5
       -2.2709407e-10 3.4891784e-32 -1.858492e-09 -1.864973e-06
000300 21 64 ce 2a 50 f5 7e af 7a 31 07 00 a6 15 66 2c
       3.666243e-13 -2.3188318e-10 6.60597e-40 3.2696983e-12
000310 9c 11 9d a1 68 9b 78 aa 91 c0 8e 20 94 d8 41 ab
       -1.0643395e-18 -2.2080742e-13 2.4183165e-19 -6.8867937e-13
000320 78 6c 82 a0 69 6e 47 9f 72 ee 00 80 24 b9 2f b6
       -2.2094635e-19 -4.2231218e-20 -8.5538e-41 -2.6184798e-06
000330 81 02 00 00 39 fd 87 ac 9f e1 2d 00 07 70 4b 2a
       8.98e-43 -3.865044e-12 4.213535e-39 1.8068889e-13
000340 d3 42 7a 21 ea 4f 55 2c 80 72 0c 24 dd 06 30 34
       8.4791736e-19 3.0313482e-12 3.0454646e-17 1.6393774e-07
000350 08 df 56 2f 12 53 ea aa 2b 8a 01 b2 24 f9 6e b1
       1.9542423e-10 -4.1624392e-13 -7.540204e-09 -3.4775178e-09
000360 49 7e 80 a3 d6 5c 4b 1d c1 75 a7 a0 40 a1 db 9b
       -1.3931272e-17 2.6914821e-21 -2.8368823e-19 -3.6334716e-22
000370 0f a6 03 ab 3d d1 1a b1 dc f1 47 2f c4 03 99 32
       -4.6771e-13 -2.2528888e-09 1.818487e-10 1.7813257e-08
000380 50 14 00 00 88 61 52 30 3a 79 81 b0 40 d5 9c b2
       7.287e-42 7.6536155e-10 -9.42044e-10 -1.8257765e-08
000390 07 13 09 80 20 2b 84 ac ca b0 f3 9d 04 0e 62 b2
       -8.33345e-40 -3.7564535e-12 -6.450436e-21 -1.3158118e-08
0003a0 f0 67 e3 2f 66 e1 2b a1 42 d1 e2 20 e1 3e e7 ab
       4.1364911e-10 -5.8235366e-19 3.8424364e-19 -1.643099e-12
0003b0 d4 5a 9b b1 7e e1 25 b5 19 52 76 9e 80 ac 8d 33
       -4.5214197e-09 -6.1795424e-07 -1.3040109e-20 6.597202e-08
0003c0 6c 35 98 2c 24 7c 45 2e 90 e9 84 b2 3e f0 54 b1
       4.326031e-12 4.4902873e-11 -1.5473034e-08 -3.0986622e-09
0003d0 4c 47 69 a7 f2 0f df b6 a2 c6 2d ab e6 e3 04 ae
       -3.2373896e-15 -6.647774e-06 -6.1737605e-13 -3.021574e-11
0003e0 d6 ff bd 20 74 51 4b b5 dc 80 24 b7 cd ab 5a b4
       3.2187143e-19 -7.5741923e-07 -9.805164e-06 -2.0365333e-07
0003f0 68 e3 6e 35 8f 01 ab 2a 0e a4 c3 2b fc 2a 1d 2a
       8.899283e-07 3.0376783e-13 1.3901118e-12 1.3959314e-13

net.2.bias f4 [64]
000000 cc 08 c3 34 ba 67 50 24 a2 16 0f 16 6d 98 84 ac
       3.632798e-07 4.519067e-17 1.155859e-25 -3.7685883e-12
000010 db a9 ac bc 37 e1 0a b2 e2 c6 fd 3e 50 3a 36 b2
       -0.021077087 -8.083865e-09 0.49565798 -1.0607053e-08
000020 0c a2 9b 38 11 f2 61 3e f7 18 b9 98 e4 c1 95 be
       7.4211595e-05 0.22064997 -4.7846587e-24 -0.2924949
000030 93 e7 b5 3d 2d a4 7d b2 1e c2 c2 3d 46 1a bc 1b
       0.0888206 -1.47638675e-08 0.09509681 3.111897e-22
000040 0c 99 4f b1 8e fe d7 af 47 9f 0d 3f f8 29 6d b3
       -3.0209462e-09 -3.9289144e-10 0.5532116 -5.5219033e-08
000050 58 cb 0f 3f bb 69 e8 b7 08 36 d2 bb fd 30 21 35
       0.5616965 -2.770579e-05 -0.0064151324 6.004846e-07
000060 64 4c 3c b2 be 08 9a 3e 67 ac ac ad 52 62 fc 3e
       -1.09604095e-08 0.30084795 -1.9630698e-11 0.49293762
000070 fd 6c 8d 99 4c 45 c0 b2 48 34 90 bc e0 94 08 bb
       -1.4623078e-23 -2.2383254e-08 -0.017603055 -0.002084069
000080 42 5c f4 3e 94 6f f4 8b df 37 25 b3 7c 2b 19 ac
       0.47726637 -9.4153265e-32 -3.846787e-08 -2.1766746e-12
000090 6f 75 c2 bb 7c 7e 6b 21 09 de 2e bc 52 d6 e4 1f
       -0.0059344093 7.97885e-19 -0.0106730545 9.691632e-20
0000a0 b6 71 42 ae b2 98 90 b2 a9 4c 51 bc d4 b7 37 31
       -4.421149e-11 -1.6833244e-08 -0.012774625 2.67345e-09
0000b0 ae 7f 41 ba 4a d8 1a b0 5c ca e0 34 32 f7 8b 1c
       -0.00073813915 -5.633224e-10 4.1870487e-07 9.262147e-22
0000c0 10 3e 60 3e ac b7 06 3f 03 60 52 ab 09 94 3b 34
       0.21898675 0.5262401 -7.474023e-13 1.7469587e-07
0000d0 e3 84 02 bc 22 0a 72 bb 97 cd 87 bc 2e 28 a3 9f
       -0.007966253 -0.003693231 -0.016577525 -6.909966e-20
0000e0 b5 3a 11 3f 2a 5e 5b 3d aa 66 78 ba 73 63 51 3e
       0.56730205 0.0535566 -0.00094757474 0.20448093
0000f0 9f f2 30 39 55 da 5a a6 0b 0f 99 b3 6f c4 ea 20
       0.00016875051 -7.592984e-16 -7.127354e-08 3.977113e-19

V.0.weight f4 [1, 64]
000000 fb 26 6d 3b ba 87 ab b7 ae 93 4e b4 ad a0 e2 36
       0.0036186564 -2.0447991e-05 -1.923897e-07 6.75403e-06
000010 4c 40 80 40 37 2b 67 32 a8 bf 3f c0 fd 04 9d ba
       4.0078487 1.3455796e-08 -2.9960728 -0.0011979636
000020 df 87 68 3b 84 f6 da c0 4a d3 1d a7 1e a1 a0 40
       0.0035481376 -6.8425922 -2.1902667e-15 5.0196676
000030 6c 7b 7e be 52 78 5c 33 e5 f5 1e 40 83 32 d7 36
       -0.24851769 5.1332172e-08 2.4837582 6.4133797e-06
000040 43 53 c7 3a 87 7a cc 3b 81 b2 9d c0 b4 b8 90 34
       0.0015207309 0.0062401923 -4.92804 2.695648e-07
000050 f5 92 47 c0 c6 04 86 bb fe b1 c3 39 80 94 a3 b6
       -3.1183445 -0.0040899245 0.00037325913 -4.875066e-06
000060 4f 6f d5 3b e9 f2 a2 c0 90 cd 5e ba 63 94 3f c0
       0.006513513 -5.092152 -0.0008499259 -2.9934318
000070 ad ee 65 35 ec c1 2c 3a 76 1d 8a 40 7b df e5 ba
       8.5656467e-07 0.0006590176 4.3160963 -0.0017537916
000080 11 4e ab c0 12 fe 68 b7 32 a6 49 39 c4 48 69 ba
       -5.3532796 -1.3887433e-05 0.00019230766 -0.00088990876
000090 94 d3 63 bb 03 18 c0 b6 bf 68 c2 bb 82 96 ee 35
       -0.0034763562 -5.7248412e-06 -0.005932897 1.7776185e-06
0000a0 84 cf 1f 3a 8c 22 42 bb 8c d6 b0 3b 93 98 93 b3
       0.0006096291 -0.0029622642 0.0053966697 -6.872974e-08
0000b0 9f 03 4b 3a 21 4e 20 32 92 a1 b4 36 64 0f a3 38
       0.0007744375 9.33099e-09 5.3832273e-06 7.7753124e-05
0000c0 77 8d 13 c0 11 c2 42 c0 84 05 3f b9 27 99 3b bc
       -2.3055093 -3.0430949 -0.00018217234 -0.011450089
0000d0 0d 13 89 40 42 2e 09 3b eb 47 4c 3c f1 f8 8e b9
       4.2835755 0.0020932113 0.012468318 -0.00027269826
0000e0 1f 7a 48 c0 4c 36 ac 40 12 25 38 bc d0 c3 7c 40
       -3.1324537 5.381628 -0.011239307 3.9494514
0000f0 4e 2e e7 39 e6 cf ff 3a 08 a2 0f 35 b4 71 22 34
       0.00044094253 0.0019516915 5.350744e-07 1.512879e-07

A.0.weight f4 [3, 64]
000000 f3 f6 9a 35 24 27 34 b3 b7 64 03 87 e1 8b 39 ac
       1.1545766e-06 -4.1945114e-08 -9.884942e-35 -2.636773e-12
000010 dd a8 30 3f 6f a4 ab 31 0c af 1c bf 88 b9 4e 31
       0.69007665 4.995449e-09 -0.612046 3.0082408e-09
000020 20 01 b5 38 77 d8 b6 be c3 c9 a2 19 d8 90 a0 3f
       8.630962e-05 -0.35712025 1.6831898e-23 1.2544203
000030 52 f5 67 bf ac 77 52 b1 ec ce fd 3e 6b 06 38 9e
       -0.90608704 -3.0627048e-09 0.4957193 -9.742206e-21
000040 ba 90 af b7 6c dd 6a b8 4b f2 28 c0 01 b0 83 b0
       -2.092902e-05 -5.5996163e-05 -2.6397884 -9.581528e-10
000050 b4 d3 4c bf ee d8 89 36 46 df 1d 3c 3c 0b 77 35
       -0.80010533 4.108172e-06 0.009635752 9.203102e-07
000060 bd 1f ec 3a 4b d7 37 c0 1d b7 88 38 fe 71 1a bf
       0.001801483 -2.8725154 6.519093e-05 -0.6033019
000070 7d 04 6c 17 21 0a bd 38 56 5b 76 3f b6 88 b8 b8
       7.626138e-25 9.014109e-05 0.9623312 -8.799268e-05
000080 f3 dc a2 be c9 11 32 21 8e 92 c2 3a 31 52 aa 35
       -0.31809196 6.0332284e-19 0.0014844702 1.2689908e-06
000090 56 cd dc 3b 3d 4f c5 19 f4 02 31 bc d0 a1 1d a4
       0.006738345 2.0401327e-23 -0.010803927 -3.418101e-17
0000a0 15 4a 8d b7 da 7a 9f b6 0d 70 aa bc ae 2f eb 31
       -1.6843007e-05 -4.752871e-06 -0.020805383 6.8448207e-09
0000b0 9e f1 88 b8 74 7d ca af fd 97 10 b5 62 f4 9a ab
       -6.52999e-05 -3.6832726e-10 -5.386535e-07 -1.1010188e-12
0000c0 dc 44 a4 bf 59 06 34 bf 85 fc b1 2e 8c 90 48 b4
       -1.2833514 -0.70322186 8.0938846e-11 -1.8679037e-07
0000d0 64 73 70 3f 6f fd b5 3b 2d d4 d5 bc 2d ed 90 29
       0.9392607 0.0055538933 -0.02610215 6.436028e-14
0000e0 4f 57 50 bf a3 a0 f0 3f c5 a3 53 3a 8a ca 47 3f
       -0.8138322 1.8799022 0.0008073415 0.78043425
0000f0 ae 92 18 ba 02 11 d2 32 48 b7 65 b3 b8 66 de a7
       -0.0005820197 2.4454952e-08 -5.348491e-08 -6.1728746e-15
000100 01 25 4d 37 d7 4a ba 33 23 6a 27 9c c3 79 69 30
       1.2227568e-05 8.674913e-08 -5.5392843e-22 8.493794e-10
000110 88 84 78 3f 78 ce 92 b2 35 16 2f bf ab 16 34 31
       0.97077227 -1.7090528e-08 -0.6839326 2.6206333e-09
000120 d8 04 01 ba 7d 8d 85 bf bf 51 69 98 b4 7a b9 3f
       -0.0004921681 -1.0433804 -3.0155815e-24 1.4490571
000130 d5 d8 9e bd 1c 5b f7 30 07 77 69 3f bb 5f 1a 2e
       -0.07756201 1.799751e-09 0.91197246 3.5100572e-11
000140 c0 49 2c b7 75 41 f5 b6 c8 99 aa bf ce 35 05 b1
       -1.026917e-05 -7.309189e-06 -1.332818 -1.9384632e-09
000150 0e 99 37 bf 6c 8b 46 b7 44 5d 75 3c 3e 11 e0 35
       -0.7171792 -1.1834181e-05 0.01497585 1.6694319e-06
000160 53 6f 42 ba 2d 83 d3 bf f5 f3 1b b7 bf eb 2e bf
       -0.00074171013 -1.6524407 -9.295521e-06 -0.6832847
000170 d8 77 55 1d 38 d2 41 39 01 99 65 3f ee 7c 2b 3b
       2.8252273e-21 0.00018484227 0.8968659 0.0026166993
000180 32 27 d9 bf b8 66 91 0a c7 da b8 34 4f b2 6d b4
       -1.6965086 1.400163e-32 3.4431852e-07 -2.2137213e-07
000190 54 9c 59 3c 69 b3 74 1b 9b 83 81 bb a7 d7 99 2a
       0.0132819 2.0241177e-22 -0.003952456 2.7327899e-13
0001a0 5f 77 30 b0 97 e7 0c b7 53 bb 10 bc 19 4c 6c b2
       -6.4198064e-10 -8.3985715e-06 -0.008833724 -1.3754311e-08
0001b0 24 08 6e b9 99 23 26 af c3 d7 a5 34 0d 3a 42 37
       -0.00022700481 -1.5110259e-10 3.0890632e-07 1.1576817e-05
0001c0 65 29 39 bf e5 3f 32 bf 91 49 11 a6 f3 dd bb b9
       -0.7232879 -0.69628745 -5.040668e-16 -0.00035832784
0001d0 bf 0b 69 3f 65 84 26 bb 90 84 b1 3c 5f 66 52 1e
       0.9103355 -0.0025408503 0.021669656 1.1138477e-20
0001e0 fa 9e 38 bf 1b d5 e4 3f 88 22 47 ba d6 ab 9a 3f
       -0.7211758 1.7877535 -0.0007596393 1.208369
0001f0 40 96 c4 b8 80 a0 81 b3 b4 3c 81 33 02 d3 8a b0
       -9.3739945e-05 -6.0362254e-08 6.0180724e-08 -1.0100794e-09
000200 b8 9f 4b ba ad 31 80 b6 0e 6f 30 b2 73 f3 09 36
       -0.00077676354 -3.8204803e-06 -1.0269799e-08 2.0556297e-06
000210 1a b1 27 40 5c b6 e1 b1 18 bb 27 bf d0 b3 24 b8
       2.6201844 -6.5690937e-09 -0.6551986 -3.926811e-05
000220 cf de 74 3b 01 12 99 c0 2e 76 7c a6 ff 93 28 40
       0.003736425 -4.7834477 -8.7590227e-16 2.634033
000230 b8 e8 1a 3f f4 d6 17 33 5e 7e 8b 3f 37 c6 38 b6
       0.6051135 3.5352926e-08 1.0897939 -2.7533513e-06
000240 57 e5 84 3a b0 0d c6 3b 0f 4b cd be 00 f9 ac 34
       0.0010139149 0.006044112 -0.40096328 3.2218668e-07
000250 ce 98 f5 be fc 1d 8c bb 0f 5e 82 bb c7 d3 a9 b6
       -0.47968143 -0.0042760354 -0.003978498 -5.0612466e-06
000260 9f 79 26 bb 84 bc ba be 4c ab 7f 3a 6e 0f 2a bf
       -0.0025402082 -0.3647195 0.0009753003 -0.66429794
000270 8a ab b7 31 53 4f 30 ba b0 49 2a 40 8c ef 33 ba
       5.3455027e-09 -0.00067256874 2.6607475 -0.00068640034
000280 bc c9 89 c0 b6 28 36 b6 be 73 31 bb 2f 10 c0 b9
       -4.305876 -2.714381e-06 -0.0027077044 -0.00036633151
000290 87 a7 a9 bb e5 61 b4 b1 9d aa c8 3b 01 74 b8 33
       -0.0051774415 -5.249819e-09 0.0061238543 8.589269e-08
0002a0 21 de a9 39 e0 07 88 39 1d 60 94 3c ab 54 0b b2
       0.0003239969 0.0002594581 0.018112237 -8.110116e-09
0002b0 eb ba 4d 3a ef f3 38 32 ea 07 fa 36 49 98 93 b2
       0.00078479823 1.0765674e-08 7.451502e-06 -1.7182304e-08
0002c0 1c 1f 5e bd 1d 14 11 bf e4 4e a5 b6 07 34 ef bb
       -0.054228887 -0.56671315 -4.9265673e-06 -0.0072999033
0002d0 74 4d 27 40 c2 b8 9e ba 8d 4c ed ba 6d 9e cc b8
       2.6141024 -0.0012109505 -0.0018104479 -9.756987e-05
0002e0 68 e3 ef be 09 ff b4 3f 9d 02 f6 bb 9d 3e f7 3f
       -0.46853185 1.414033 -0.0075076357 1.9315983
0002f0 32 22 46 3a ba bd a4 3a 19 3b 06 35 24 0d 53 33
       0.0007558196 0.001256875 5.000489e-07 4.9139217e-08

A.0.bias f4 [3]
000000 29 a2 44 bd 0c c7 4c 3c aa ec fd 3c
       -0.04800621 0.012498628 0.03099664
